trained_agents/double_dqn-Best.pth (torch_old, 58259 bytes, 8 tensors)

fcs.0.weight f4 [128, 37]
0.16240364 0.026069421 -0.1083548 0.00849904 -0.32898188 0.072131574 0.017700061 0.10858902
0.014264997 0.024912164 0.02419526 0.003359083 -0.18815072 0.054830227 -0.10023834 0.1504577
-0.00021033334 -0.018825203 0.24655387 0.08450372 0.4125411 -0.30188283 -0.058229018 -0.099084325
-0.9447462 -0.17022803 0.33244914 -0.08602604 -0.0878221 -0.14061937 -0.12016796 0.10908267
0.22378309 0.079751186 0.13535795 -0.025189824 -0.0010297081 0.3371882 0.07571264 -0.06501718
-0.21866773 -0.3519996 0.22222243 -0.09783885 -0.2968836 -0.5574659 -0.57830626 -0.018075913
-0.07829513 0.16731098 0.05454068 -0.019383367 0.017475186 -0.017249359 0.17862073 -0.028080827
-0.10050576 -0.11752497 -0.08961201 -0.12726392 -0.0043509183 0.23413883 -0.19614379 0.042584807
0.16237633 0.15405415 0.24955392 -0.14992349 0.15744719 0.21933872 0.1709905 0.09822073
0.014628588 -0.020902978 0.29862303 0.15914007 -0.06493273 -0.15624595 -0.08409862 -0.9537873
-0.34842995 0.5104491 -0.21106526 -1.016049 -0.024864819 0.07218257 -0.013020847 0.00016897524
-0.019707907 -0.02327787 0.092466496 -0.06317113 0.31511062 0.21790756 -0.48241135 0.0831216
0.07578528 0.24099667 -0.28803784 -0.0516198 -0.021016369 0.26146647 -0.21053542 -0.29814726
-0.07438657 -0.023148227 0.010105831 -0.28294405 -0.2818096 -0.0019566289 0.016962942 -0.14086697
0.023496196 0.32203344 -0.51030916 -1.650951 -0.053337637 0.11025383 0.034434665 -0.4737554
-0.08266383 -0.10520282 0.055378683 -0.11582858 -0.24681664 -0.038926568 -0.06856918 -0.4436065
0.03087092 -0.29932323 -2.1653051 0.08529397 -0.0032866085 -0.41376916 0.20237096 -0.24282548
-0.1787259 0.24479784 0.17223918 -0.15516315 -0.66152513 0.06653515 -0.1078802 0.07304565
-0.7101509 -0.014292417 0.19855274 -0.0040589506 0.1514416 -0.20477314 -0.30138078 -0.14215435
-0.37586385 0.16536094 0.2960208 -0.20041406 -0.09214102 -0.047202177 0.18526319 0.056563962
-0.12392945 -0.25793332 -0.17385167 -0.06851254 -0.029919485 -0.06878579 0.11678921 0.21016732
-0.08803276 -0.28118464 0.31984785 0.04063573 0.4673076 0.013551719 0.0205509 0.15104616
0.105241984 0.22467798 0.090602234 -0.0048948396 -0.14973707 0.27380896 0.07953827 0.12875865
0.029694831 -0.08425661 -0.13020131 0.15153797 -0.31550252 -0.10289033 0.3089194 -0.28498188
-0.1928465 -0.59670496 -1.6156886 0.049692247 -0.37855247 0.032969415 -0.15543081 0.1347216
-0.20422845 -0.079331234 0.15214445 -0.074148975 -0.25818115 0.00379674 -0.036814824 0.23262137
0.07056114 -0.024989795 -0.060481437 0.14003547 0.02413374 -0.15121649 0.0052581127 -0.020884953
-0.067164205 -0.07976427 -0.0112264445 -0.10632887 0.09165393 0.056772318 0.01991307 -0.21268177
0.015766928 0.17230678 0.14709185 -0.3344078 -0.031204293 0.07871123 0.16576873 0.25935495
-0.015612475 0.11490656 0.122864515 -0.10665612 -0.30738112 -0.21091554 -0.12374094 0.053660963
0.19944204 0.29193655 -0.13018689 0.03337081 0.09999535 -0.103941254 0.3780031 -0.16433123
-0.1495858 0.010776053 0.16465846 0.093223006 -0.032552924 0.0060354727 -0.06456001 0.027915305
00000000: 244d 263e 8a8f d53c 1fe9 ddbd 8f3f 0b3c
00000010: 5070 a8be b8b9 933d b8ff 903c ec63 de3d
00000020: bcb7 693c 9814 cc3c 2335 c63c 1024 5c3b
00000030: 95aa 40be a995 603d c249 cdbd 9511 1a3e
00000040: ed8c 5cb9 5037 9abc 9e78 7c3e 4910 ad3d
00000050: 9638 d33e 6390 9abe 8d81 6ebd b9ec cabd
00000060: e3da 71bf 4250 2ebe c636 aa3e 6c2e b0bd
00000070: 13dc b3bd 86fe 0fbe 9f1a f6bd bc66 df3d
00000080: 6527 653e 9754 a33d 469b 0a3e e45a cebc
00000090: 45f7 86ba efa3 ac3e 3b0f 9b3d ba27 85bd
000000a0: 6fea 5fbe 4b39 b4be 478e 633e bc5f c8bd
000000b0: 2101 98be 16b6 0ebf e10b 14bf f013 94bc
000000c0: 3259 a0bd 9253 2b3e 0c66 5f3d dec9 9ebc
000000d0: 1f28 8f3c 874e 8dbc 5ae8 363e c309 e6bc
000000e0: f7d5 cdbd eeb0 f0bd 8086 b7bd 7951 02be
000000f0: 2692 8ebb 17c2 6f3e ebd9 48be 686d 2e3d
00000100: fb45 263e 5fc0 1d3e 108b 7f3e 8b85 19be
00000110: d639 213e 549a 603e 2218 2f3e f327 c93d
00000120: bfac 6f3c b93c abbc 1ee5 983e 9df5 223e
00000130: 73fb 84bd f0fe 1fbe e63b acbd 682b 74bf
00000140: 6965 b2be cbac 023f 7e21 58be e50d 82bf
00000150: 4eb1 cbbc 75d4 933d 6455 55bc f22e 3139
00000160: 7a72 a1bc 3bb1 bebc 135f bd3d de5f 81bd
00000170: 2e56 a13e 2923 5f3e 9ffe f6be a83b aa3d
00000180: 5035 9b3d d5c7 763e b279 93be 496f 53bd
00000190: 852a acbc efde 853e 9996 57be c2a6 98be
000001a0: fc57 98bd 5aa1 bdbc ed92 253c 0bde 90be
000001b0: 5949 90be c93a 00bb def5 8a3c 6e3f 10be
000001c0: 187b c03c 91e1 a43e 9fa3 02bf 5d52 d3bf
000001d0: 9178 5abd c3cc e13d 5d0b 0d3d 1190 f2be
000001e0: a74b a9bd 9374 d7bd c2d4 623d 8937 edbd
000001f0: 80bd 7cbe 7771 1fbd 006e 8cbd 6420 e3be
00000200: 03e5 fc3c e540 99be 5c94 0ac0 9bae ae3d
00000210: 2464 57bb 8dd9 d3be 553a 4f3e 3ea7 78be
00000220: ec03 37be 49ac 7a3e 785f 303e 17e3 1ebe
00000230: b659 29bf 9543 883d 4bf0 dcbd f598 953d
00000240: 73cc 35bf be2a 6abc 6951 4b3e f200 85bb
00000250: 8213 1b3e 0db0 51be 954e 9abe e990 11be
00000260: 3a71 c0be 6154 293e 0a90 973e 5839 4dbe
00000270: 6eb4 bcbd 1257 41bd a2b5 3d3e 9daf 673d
00000280: b9ce fdbd d60f 84be 2c06 32be 4d50 8cbd
00000290: b519 f5bc 90df 8cbd 2e2f ef3d 1a36 573e
000002a0: 854a b4bd 6ff7 8fbe 19c3 a33e a771 263d
000002b0: f142 ef3e 0708 5e3c 5c5a a83c d8ab 1a3e
000002c0: 1c89 d73d fc11 663e aa8d b93d e464 a0bb
000002d0: ad54 19be b030 8c3e f6e4 a23d 4fd9 033e
000002e0: 9342 f33c bb8e acbd 7e53 05be c52c 1b3e
000002f0: 8c89 a1be 2ab8 d2bd af2a 9e3e 25e9 91be
00000300: 8e79 45be a8c1 18bf e2ce cebf 198a 4b3d
00000310: a1d1 c1be f00a 073d 4129 1fbe 76f4 093e
00000320: 4321 51be 6a78 a2bd c1cb 1b3e 6bdb 97bd
00000330: 5230 84be bad2 783b 24cb 16bd 4c34 6e3e
00000340: 5c82 903d 66b7 ccbc 62bb 77bd 7565 0f3e
00000350: 1fb4 c53c 7fd8 1abe 3f4c ac3b ec16 abbc
00000360: 638d 89bd 735b a3bd 1fef 37bc f3c2 d9bd
00000370: 0eb5 bb3d 178a 683d bc20 a33c 40c9 59be
00000380: a529 813c 3071 303e 3f9f 163e 8037 abbe
00000390: 25a0 ffbc 5a33 a13d 47bf 293e 2cca 843e
000003a0: 77cb 7fbc 2154 eb3d 64a0 fb3d 866e dabd
000003b0: 0f61 9dbe 3efa 57be e46b fdbd 99cb 5b3d
000003c0: 893a 4c3e b578 953e b64f 05be d5af 083d
000003d0: 5dca cc3d 27df d4bd 9f89 c13e 7246 28be
000003e0: 052d 19be 0b8e 303c 3a9c 283e b4eb be3d
000003f0: 3756 05bd 37c5 c53b 0a38 84bd a3ae e43c

fcs.0.bias f4 [128]
0.08054716 0.041239668 -0.045731395 -0.082349725 0.01326893 -0.12283242 0.037685882 0.072980516
-0.247566 0.05674309 -0.15406515 0.05496234 -0.025350057 -0.20841652 -0.07367963 -0.037087645
0.071112834 -0.14768952 -0.06653335 0.0247042 -0.047153525 0.022325069 0.15495925 -0.07796022
0.25887203 0.062040146 0.06927817 -0.040418994 0.067944154 -0.052480057 0.128413 0.15270412
-0.14000486 0.008996605 0.120544456 -0.12551165 0.048782583 0.23629351 0.08435766 -0.06921263
0.11260381 0.11284423 0.10595906 0.049861703 0.015915979 -0.069323406 -0.01941109 -0.00021040776
-0.12282335 0.11139758 0.058470562 0.007816704 0.102199115 0.083243415 -0.051968735 0.16649339
-0.12333064 -0.21867009 0.009182056 -0.11924947 -0.07650689 0.10111888 0.15100457 -0.050029334
0.22766234 0.030110111 0.09580444 -0.06638788 -0.21740243 -0.11001493 0.064003 -0.10800883
0.015704133 -0.14087541 -0.07521645 -0.077039815 0.17156087 -0.10934469 0.23703146 0.029827734
0.022043718 0.002830423 0.041651618 -0.06938646 -0.023907958 0.19629629 0.15681198 -0.044570815
0.05359649 0.08398693 0.04346721 -0.07548836 -0.09305567 -0.22602096 -0.108332895 0.07210785
-0.038256567 -0.20268102 -0.021901298 0.104466304 -0.099383585 -0.20422105 0.28631794 0.14346446
-0.18036447 -0.20398912 0.006088777 0.04770481 -0.05756955 -0.019431118 0.023837563 -0.0040064077
-0.16879024 -0.05687563 0.17984325 0.14968981 0.08816175 0.12698823 0.017613145 -0.08622579
-0.14245687 0.09358261 -0.14628267 -0.31228977 -0.019295067 -0.028019745 0.18079376 -0.088366374
00000000: e9f5 a43d edea 283d d850 3bbd f9a6 a8bd
00000010: ed65 593c 908f fbbd 835c 1a3d cf76 953d
00000020: f181 7dbe 716b 683d 41c3 1dbe 3120 613d
00000030: ecaa cfbc 246b 55be 59e5 96bd 37e9 17bd
00000040: 9ba3 913d ec3b 17be a342 88bd 7660 ca3c
00000050: 0e24 41bd 10e3 b63c a3ad 1e3e 9ca9 9fbd
00000060: e08a 843e cf1d 7e3d b7e1 8d3d 638e 25bd
00000070: 4e26 8b3d 54f5 56bd b37e 033e 785e 1c3e
00000080: 6f5d 0fbe 7f66 133c 03e0 f63d 2086 00be
00000090: 3fd0 473d edf6 713e b5c3 ac3d 5abf 8dbd
000000a0: d49c e63d e01a e73d 1001 d93d c93b 4c3d
000000b0: 3a62 823c 6ef9 8dbd 0204 9fbc e7a0 5cb9
000000c0: cf8a fbbd 6a24 e43d d47e 6f3d a211 003c
000000d0: c54d d13d 867b aa3d 2bdd 54bd 3e7d 2a3e
000000e0: c694 fcbd 0deb 5fbe 5670 163c 1139 f4bd
000000f0: a5af 9cbd 6a17 cf3d f1a0 1a3e 8feb 4cbd
00000100: 5120 693e 7ba9 f63c 1e35 c43d 5ef6 87bd
00000110: be9e 5ebe 824f e1bd 0114 833d bc33 ddbd
00000120: f4a5 803c a541 10be 150b 9abd 0dc7 9dbd
00000130: a7ad 2f3e 1cf0 dfbd 60b8 723e 4b59 f43c
00000140: 0795 b43c 9e7e 393b e39a 2a3d 7d1a 8ebd
00000150: 9fda c3bc e501 493e 5293 203e e38f 36bd
00000160: fe87 5b3d 5701 ac3d ac0a 323d a499 9abd
00000170: f993 bebd 0a72 67be a3dd ddbd 48ad 933d
00000180: ebb2 1cbd 9d8b 4fbe 5a6a b3bc 6ef2 d53d
00000190: 9f89 cbbd 531f 51be 4498 923e 59e8 123e
000001a0: 77b1 38be 86e2 50be 5d84 c73b 1e66 433d
000001b0: 0cce 6bbd 022e 9fbc fe46 c33c 2f48 83bb
000001c0: 59d7 2cbe 6cf6 68bd d428 383e 4948 193e
000001d0: 268e b43d 3409 023e 7149 903c 2697 b0bd
000001e0: 37e0 11be 3da8 bf3d 20cb 15be 72e4 9fbe
000001f0: b010 9ebc aa89 e5bc 0022 393e 6ef9 b4bd

fcs.1.weight f4 [64, 128]
0.15099598 0.07344937 0.3730275 0.3154577 0.08116531 0.06427457 -0.0044523715 0.029671557
-0.03803543 -0.17677973 -0.10271532 0.31256533 -0.3269077 -0.1191024 0.17177284 0.121691465
0.009236537 -0.1046901 -0.13060147 0.069961175 0.1618715 -0.22672166 0.16476087 -0.5306982
-0.027824165 -0.008366257 -0.2961208 -0.047898214 0.07274394 0.19902778 0.19810835 0.09870017
-0.1659175 -0.27878982 0.051762275 -0.3270883 -0.014174636 0.0024795986 0.0911369 -0.3516806
0.044505205 0.16942304 -0.577237 0.039643075 -0.011353929 0.14984907 -0.192681 0.03665399
-0.12988201 -0.104641505 0.091663636 -0.007185624 -0.06370409 -0.20700423 0.4326754 -0.073149
0.07241243 0.03595957 0.24020366 -0.35800278 0.3942345 0.08394069 0.013484843 0.3076226
0.026638808 0.057939623 -0.0732519 0.123533875 -0.18675147 0.09390174 -0.33853918 -0.14768393
-0.19607157 0.03539958 0.21768475 -0.81089485 -0.13905737 0.030124271 -0.053322572 -0.42229477
0.001726589 0.021220725 0.29124638 -1.4203782 0.05945213 0.25418922 -0.046271287 -0.13352813
-0.074407995 0.32231295 0.045662217 0.23413412 0.13940579 -0.5430056 0.37295893 -0.06963084
0.13640684 -0.10913783 -0.21863173 -0.14725582 0.0715963 -0.033593055 -0.101990186 0.16554181
-0.039954256 -0.1991459 -1.2266809 -0.041213933 -0.78272694 -0.30390054 -0.026638636 0.0656101
-0.26965028 0.2375839 -0.15213877 -0.11635856 -0.053014625 0.18050303 -0.04109042 0.08169627
0.12803692 0.039271798 -0.08425028 -0.09299679 0.15488814 -0.06587683 0.13544194 0.24598718
-0.1741861 -0.19161198 0.037884522 -0.14527106 -0.0068394714 -0.46194324 0.03200196 -0.07369657
0.0020186557 0.5162534 0.03866273 0.095448196 0.056581568 -0.07605442 0.15854254 -0.35766593
-0.24159169 0.24694735 0.012424132 0.12739222 0.044882968 0.33836877 0.17630614 0.030631375
-0.091985114 0.1253202 0.018771823 -0.09104721 0.03181749 0.100203454 -0.55080247 0.05817403
0.09727559 -0.19210394 0.0494327 -0.0148727745 0.16025516 -0.04621973 -0.28059986 -0.18807104
-0.24636632 -0.025119552 0.09909019 0.019755226 0.16808212 -0.35007456 0.008615475 -0.06015182
-0.21814783 0.061535515 -0.004166415 -0.4376843 -0.13281237 -0.21620853 -0.077477776 -0.07956568
-0.3395155 -0.12561247 -0.23861434 0.08776304 -0.3894689 0.049793072 0.13828397 -0.384287
0.18699388 0.20039539 0.34482524 -0.03787468 -0.03740482 -0.14099558 0.28249493 0.31740266
0.08935227 0.05115859 0.026164507 -0.2016217 0.21837501 -0.05114857 -0.05943346 0.374803
-0.14492865 0.13355264 -0.3160963 -0.6242921 -0.14261892 0.2629394 -0.29387125 -0.19436029
-0.10330426 -0.24310894 -0.15711348 0.049265508 -0.025041362 -0.24403472 0.012646635 -0.6563202
0.10542324 0.014194853 0.035474353 -0.23783563 0.13040133 0.12300032 0.08860865 0.34944546
0.24428813 -0.1334639 0.18103683 0.07899556 -0.15976602 -0.8418908 0.069425 0.100064404
0.20925622 -0.09430567 0.02703241 0.09225255 -0.2985179 0.28684607 -0.0359812 0.021751624
0.37325472 -0.08851403 0.07652628 -0.108870275 -0.2013229 0.17156291 0.06561399 -0.029874796
00000000: b19e 1a3e a06c 963d 76fd be3e ac83 a13e
00000010: 003a a63d 63a2 833d 33e5 91bb c411 f33c
00000020: 0acb 1bbd bf05 35be 695c d2bd 9008 a03e
00000030: 7260 a7be f6eb f3bd 38e5 2f3e 6039 f93d
00000040: d854 173c c367 d6bd 64bc 05be ce47 8f3d
00000050: a4c1 253e b929 68be 13b7 283e d6db 07bf
00000060: 81ef e3bc a012 09bc 259d 97be eb30 44bd
00000070: c6fa 943d f0cd 4b3e eadc 4a3e 5123 ca3d
00000080: 47e6 29be 8abd 8ebe ae04 543d 1e78 a7be
00000090: bc3c 68bc c380 223b fca5 ba3d 7b0f b4be
000000a0: 174b 363d 3c7d 2d3e cec5 13bf c760 223d
000000b0: d405 3abc 0972 193e 2b4e 45be 7f22 163d
000000c0: caff 04be 494e d6bd 25ba bb3d 6275 ebbb
000000d0: 4a77 82bd ebf8 53be a187 dd3e 25cf 95bd
000000e0: f84c 943d 584a 133d f3f7 753e 244c b7be
000000f0: 1bd9 c93e 19e9 ab3d 88ef 5c3c b680 9d3e
00000100: a139 da3c 1952 6d3d 1805 96bd 54ff fc3d
00000110: c73b 3fbe 8e4f c03d 0255 adbe 753a 17be
00000120: fcc6 48be 26ff 103d c0e8 5e3e ce96 4fbf
00000130: 0e65 0ebe 2dc7 f63c c568 5abd 0537 d8be
00000140: b74e e23a 16d7 ad3c 3f1e 953e f4ce b5bf
00000150: 1484 733d 1725 823e f686 3dbd 99bb 08be
00000160: 3863 98bd 3406 a53e 4e08 3b3d dbc0 6f3e
00000170: 64c0 0e3e 6a02 0bbf 79f4 be3e 9d9a 8ebd
00000180: 3cae 0b3e a883 dfbd ffe0 5fbe 3bca 16be
00000190: 15a1 923d df98 09bd 3be0 d0bd cb83 293e
000001a0: 13a7 23bd e7ec 4bbe e103 9dbf f1cf 28bd
000001b0: cb60 48bf da98 9bbe 4539 dabc 975e 863d
000001c0: 9a0f 8abe 3249 733e 44ca 1bbe 664d eebd
000001d0: dd25 59bd c9d5 383e 6e4e 28bd 6050 a73d
000001e0: 1c1c 033e 77db 203d 698b acbd 1a75 bebd
000001f0: ff9a 1e3e 6eea 86bd 4bb1 0a3e 10e4 7b3e
00000200: d75d 32be ee35 44be cd2c 1b3d f0c1 14be
00000210: a51d e0bb d383 ecbe 7d14 033d 3aee 96bd
00000220: 6c4b 043b 2f29 043f d05c 1e3d 587a c33d
00000230: 13c2 673d 6bc2 9bbd fa58 223e fd1f b7be
00000240: d063 77be c4df 7c3e 968e 4b3c 1b73 023e
00000250: 34d7 373d ac3e ad3e 9989 343e a6ee fa3c
00000260: b162 bcbd f053 003e 5ec7 993c f676 babd
00000270: 0e53 023d 7837 cd3d 6401 0dbf e447 6e3d
00000280: 6d38 c73d e5b6 44be f179 4a3d f0ac 73bc
00000290: ee19 243e e650 3dbd c9aa 8fbe b295 40be
000002a0: 7447 7cbe 85c7 cdbc ccef ca3d b6d5 a13c
000002b0: b81d 2c3e f93c b3be ec27 0d3c c161 76bd
000002c0: 2562 5fbe aa0c 7c3d 6c86 88bb 2818 e0be
000002d0: f7ff 07be c565 5dbe abac 9ebd 55f3 a2bd
000002e0: fad4 adbe 8ea0 00be 5157 74be 1cbd b33d
000002f0: 7868 c7be d2f3 4b3d 509a 0d3e 44c1 c4be
00000300: 537b 3f3e 7334 4d3e ef8c b03e 7b22 1bbd
00000310: cc35 19bd 2561 10be 2da3 903e 9a82 a23e
00000320: 53fe b63d ab8b 513d f356 d63c eb75 4ebe
00000330: b39d 5f3e 2a81 51bd 8070 73bd 2ee6 bf3e
00000340: 2d68 14be 06c2 083e 60d7 a1be 9bd1 1fbf
00000350: b20a 12be fe9f 863e 4b76 96be 6206 47be
00000360: 2f91 d3bd 8df1 78be 5be2 20be a1ca 493d
00000370: 8b23 cdbc 3de4 79be d533 4f3c 9a04 28bf
00000380: 24e8 d73d 8791 683c 8e4d 113d 2f8b 73be
00000390: ed87 053e 97e7 fb3d 7478 b53d 84ea b23e
000003a0: ab26 7a3e c3aa 08be b861 393e 6dc8 a13d
000003b0: b499 23be 2886 57bf b22e 8e3d 91ee cc3d
000003c0: 4347 563e 5523 c1bd 1373 dd3c e8ee bc3d
000003d0: 57d7 98be 7ddd 923e 0661 13bd 7630 b23c
000003e0: 3e1b bf3e d846 b5bd cfb9 9c3d 61f7 debd
000003f0: 9727 4ebe 30ae 2f3e a160 863d fdbb f4bc

fcs.1.bias f4 [64]
-0.16581841 -0.1423559 0.093895845 0.052318443 0.1699382 -0.07509677 -0.21421261 -0.14224972
-0.07934546 -0.2459675 -0.07755154 -0.052279443 -0.04759206 -0.21165517 0.008933268 0.035233114
0.18215142 0.14084859 -0.17872111 -0.011090293 0.45072758 0.019991504 -0.027557466 0.2413288
0.12930337 0.12903361 0.5281718 0.014844166 0.1079555 0.015799599 0.06330526 0.20473576
-0.055621143 0.28389722 0.08246146 -0.075468175 -0.121716045 -0.011766171 0.032400444 -0.024169978
-0.0640641 0.014535113 -0.010028781 -0.06627587 0.55438524 0.0420152 -0.023059113 -0.17678611
-0.0809554 0.018778713 0.10956996 -0.010355688 0.37012267 -0.024320453 0.27158836 0.0058226585
-0.052582625 0.17817923 -0.0045690793 -0.0023545844 -0.124181814 -0.020476125 -0.13470533 0.015419076
00000000: 4dcc 29be bfc5 11be 774c c03d dd4b 563d
00000010: 4804 2e3e 56cc 99bd 8d5a 5bbe e9a9 11be
00000020: df7f a2bd e8de 7bbe 58d3 9ebd f822 56bd
00000030: e4ef 42bd 22bc 58be d75c 123c 9950 103d
00000040: e785 3a3e 9d3a 103e ab02 37be 0fb4 35bc
00000050: c4c5 e63e 39c5 a33c 32c0 e1bc e61e 773e
00000060: 1a68 043e 6321 043e 4436 073f f234 733c
00000070: c617 dd3d 296e 813c 30a6 813d 40a6 513e
00000080: ffd2 63bd fa5a 913e 8ee1 a83d 0f8f 9abd
00000090: 4346 f9bd e6c6 40bc 54b6 043d 1e00 c6bc
000000a0: 0a34 83bd af24 6e3c c24f 24bc a5bb 87bd
000000b0: 31ec 0d3f 2118 2c3d 77e6 bcbc 6b07 35be
000000c0: f2cb a5bd d1d5 993c 3766 e03d e7aa 29bc
000000d0: b880 bd3e b03b c7bc a10d 8b3e 00cc be3b
000000e0: e160 57bd 9e74 363e 37b8 95bb 5f4f 1abb
000000f0: 0953 febd 8cbd a7bc 32f0 09be 4ba0 7c3c

fcs.2.weight f4 [16, 64]
-0.010537781 -0.03676455 0.009305453 0.063242294 -0.06718373 -0.08830493 0.09303254 -0.0219415
-0.022030175 -0.082763314 0.10174865 0.10413152 -0.04466375 0.09831603 0.060589083 0.06770101
-0.08807366 -0.06830511 0.0035849058 0.025622815 -0.09953296 0.10075318 0.07244704 -0.02012036
-0.20261331 -0.1611693 0.091189034 -0.008405004 -0.0680379 -0.09386268 -0.062267814 0.059013918
0.055255145 -0.03968679 0.042495914 -0.072971255 -0.039754715 0.018154677 -0.09514567 0.097442105
0.07635696 0.014880144 -0.103669316 0.06137297 -0.095059134 -0.090976834 0.09098014 -0.059062496
0.11387416 -0.013012566 -0.15115361 -0.042710196 -0.1126144 0.08701891 0.05974221 -0.007294834
-0.10849796 0.009591479 0.011061693 0.17315331 -0.06652684 0.067215584 0.07575991 -0.0080364
0.19506238 -0.33709845 -0.19248314 0.36403114 -0.068635516 0.0035981112 -0.29392892 -0.5838787
0.06882948 -0.21011582 -0.05985199 0.36361894 0.20486775 -0.28273466 0.27391967 0.24790967
0.11282753 -0.31677398 -0.44213393 -0.36136186 0.011042551 -0.4408617 0.029450009 0.13714033
-0.08948752 -0.020167043 -0.046473842 -0.19316354 0.30917642 0.08861629 0.31834328 -0.057450876
0.12340725 -0.3657316 0.22393388 0.00010381954 -0.262223 -0.24883327 -0.5596621 0.24615435
-0.3048062 -0.1106192 0.46500337 0.04071084 0.16595228 -0.16832891 -0.30840015 -0.13806008
0.11463376 -0.26418212 0.04825357 0.17168991 -0.14225756 0.25491583 -0.06953936 -0.49988732
-0.63196015 -0.31897244 0.4104703 0.030630782 -0.39694372 0.04572341 0.08939792 -0.350746
-0.2573834 -0.030754654 0.28811425 -0.31064683 -0.0837936 0.06936682 -0.1688805 -0.28094634
0.015840622 -0.1347061 0.026361264 -0.28215778 0.027241295 -0.13372971 0.13660993 -0.0981214
-0.11604317 -0.07948197 0.26521534 -0.7260637 0.05493149 0.037678894 0.009292193 0.09023133
0.09308481 0.15119867 0.005054051 -0.3193621 0.06809834 0.47256345 0.111226834 -3.1606556e-05
0.02548379 0.03548864 0.3177343 -0.05051991 -0.114096604 0.21000141 0.07474516 0.3893772
0.0034784854 -0.094118476 0.6631055 0.099900745 -0.051342577 0.17236143 -0.5459993 0.005491416
-0.005397461 -0.11264409 -0.12630492 0.36809146 -0.09398411 0.1963259 -0.18701522 0.1826722
-0.17445636 0.09812657 -0.0407991 0.17387412 -0.3638105 0.13335592 0.06308049 0.16823907
-0.45138195 -0.23428619 0.30299833 0.4829034 0.28030953 0.01783866 -0.2192692 -0.4573054
-0.07377445 -0.22310458 -0.96898186 0.21442817 -0.14465591 -0.5282628 0.45932758 -0.06959655
0.08822641 0.24666938 -0.33308056 0.10779131 0.39556915 0.040212896 0.15285537 0.24406691
-0.06472827 0.024414089 0.42532638 0.0071250247 0.2454377 0.17882441 -0.18638772 0.30062577
-0.4187898 0.24755017 0.3157725 -0.026895972 -0.19825193 -0.024354858 -0.20662174 0.5568916
-0.4884547 -0.088040136 0.17661774 0.33342242 0.41322172 -0.083620846 0.015354991 -0.8747952
-0.0544014 0.18337789 0.09781618 0.23563132 0.39462188 -0.057033062 0.15854079 0.22011545
-0.009390944 0.28455162 0.2658613 -0.4780944 -0.11402043 0.08575149 -0.1046882 -0.06568313
00000000: a8a6 2cbc 6d96 16bd e675 183c 2d85 813d
00000010: a097 89bd 37d9 b4bd d887 be3d a9be b3bc
00000020: a078 b4bc d07f a9bd 9961 d03d e842 d53d
00000030: 56f1 36bd ea59 c93d 422c 783d d4a6 8a3d
00000040: f75f b4bd 8de3 8bbd bdf0 6a3b f0e6 d13c
00000050: f0d7 cbbd af57 ce3d 1d5f 943d 74d3 a4bc
00000060: dd79 4fbe 9109 25be 51c1 ba3d 24b5 09bc
00000070: 7457 8bbd 143b c0bd 890c 7fbd 94b8 713d
00000080: 3853 623d 9e8e 22bd 3210 2e3d f471 95bd
00000090: d7d5 22bd 1eb9 943c bcdb c2bd ba8f c73d
000000a0: 0a61 9c3d d9cb 733c 9450 d4bd 3962 7b3d
000000b0: 5dae c2bd 1052 babd cc53 ba3d 84eb 71bd
000000c0: db36 e93d a832 55bc 03c8 1abe e3f0 2ebd
000000d0: 61a2 e6bd f836 b23d 3fb4 743d 8109 efbb
000000e0: 2e34 debd 9425 1d3c 1a3c 353c 1a4f 313e
000000f0: 393f 88bd 53a8 893d 0328 9b3d 1bab 03bc
00000100: 6fbe 473e 2b98 acbe 4d1a 45be 4a62 ba3e
00000110: c790 8cbd 4ace 6b3b da7d 96be 1379 15bf
00000120: 78f6 8c3d 9a28 57be 5c27 75bd 432c ba3e
00000130: dac8 513e 99c2 90be 333f 8c3e 08dc 7d3e
00000140: 1f12 e73d 3330 a2be 615f e2be 6c04 b9be
00000150: d1eb 343c a0b8 e1be 2541 f13c 846e 0c3e
00000160: 3c45 b7bd 5b35 a5bc 5b5b 3ebd aacc 45be
00000170: 5f4c 9e3e 757c b53d e4fd a23e 9c51 6bbd
00000180: f1bc fc3d 2c41 bbbe ec4e 653e b1b9 d938
00000190: 1842 86be 26ce 7ebe 0446 0fbf e30f 7c3e
000001a0: 8f0f 9cbe 528c e2bd ec14 ee3e 69c0 263d
000001b0: 65ef 293e 6a5e 2cbe a0e6 9dbe 9f5f 0dbe
000001c0: 1bc5 ea3d e142 87be 89a5 453d 7bcf 2f3e
000001d0: f7ab 11be 5484 823e a76a 8ebd 3bf1 ffbe
000001e0: 24c8 21bf 5b50 a3be 2a29 d23e 68ed fa3c
000001f0: 353c cbbe 7848 3b3d 4216 b73d fb94 b3be
00000200: c2c7 83be 2ff1 fbbc b683 933e 1a0d 9fbe
00000210: fb9b abbd 3110 8e3d 03ef 2cbe 33d8 8fbe
00000220: 31c4 813c 65f0 09be 94f3 d73c fc76 90be
00000230: 2329 df3c 71f0 08be 79e3 0b3e dff3 c8bd
00000240: 0ba8 edbd 71c7 a2bd 4eca 873e 50df 39bf
00000250: d8ff 603d 2f55 1a3d 483e 183c 34cb b83d
00000260: 40a3 be3d d3d3 1a3e 749c a53b 6e83 a3be
00000270: 2477 8b3d d6f3 f13e e5ca e33d 4891 04b8
00000280: 62c3 d03c 895c 113d 12ae a23e f7ed 4ebd
00000290: 7bab e9bd 9c0a 573e fe13 993d 735c c73e
000002a0: 4df7 633b 30c1 c0bd 48c1 293f c398 cc3d
000002b0: 984c 52bd 847f 303e 9cc6 0bbf 56f1 b33b
000002c0: 2fdd b0bb f2b1 e6bd 1456 01be 7c76 bc3e
000002d0: be7a c0bd a809 493e eb80 3fbe 6c0e 3b3e
000002e0: b0a4 32be 95f6 c83d f51c 27bd 0f0c 323e
000002f0: 5f45 babe 748e 083e 5830 813d dd46 2c3e
00000300: 891b e7be b8e8 6fbe 9922 9b3e 1d3f f73e
00000310: bb84 8f3e 6222 923c 1b88 60be ef23 eabe
00000320: 0f17 97bd 8775 64be 320f 78bf 0f93 5b3e
00000330: ae20 14be 3b3c 07bf fc2c eb3e a388 8ebd
00000340: 0cb0 b43d e696 7c3e 8989 aabe b1c1 dc3d
00000350: 0a88 ca3e 47b6 243d 1e86 1c3e adec 793e
00000360: 4190 84bd 0e00 c83c 61c4 d93e 0a79 e93b
00000370: 0554 7b3e bf1d 373e 6cdc 3ebe 9feb 993e
00000380: 9e6b d6be cb7d 7d3e efac a13e f154 dcbc
00000390: 8e02 4bbe d783 c7bc a694 53be 7390 0e3f
000003a0: bc16 fabe 634e b4bd 48db 343e 58b6 aa3e
000003b0: cc91 d33e 6841 abbd 8093 7b3c 94f2 5fbf
000003c0: 01d4 5ebd 6ac7 3b3e d953 c83d 5649 713e
000003d0: e10b ca3e 809b 69bd 8458 223e f265 613e
000003e0: 79dc 19bc c0b0 913e f91e 883e cac8 f4be
000003f0: 8b83 e9bd 7a9e af3d c466 d6bd e084 86bd

fcs.2.bias f4 [16]
-0.055296857 -0.16845761 0.07724053 0.7219805 -0.09750742 -0.039982654 0.14105639 -0.10379087
-0.1090631 0.25516856 0.07348458 0.21936719 0.09927772 -0.10193355 0.04971282 -0.001729219
00000000: f57e 62bd 2780 2cbe 4830 9e3d b7d3 383f
00000010: f8b1 c7bd dac4 23bd 1671 103e 4f90 d4bd
00000020: 795c dfbd 74a5 823e 157f 963d cba1 603e
00000030: 1e52 cb3d 89c2 d0bd ac9f 4b3d f6a6 e2ba

fcs.3.weight f4 [4, 16]
-0.06718334 -0.29498723 -0.40382525 0.44780934 -0.860108 0.0135551095 0.10081131 -0.29399887
-0.14588153 0.43481994 0.09200046 0.4141989 0.47669458 0.16824178 -0.1718798 0.17885973
-0.09092046 -0.15463068 -0.11586571 0.37041217 0.32532793 -0.007940596 0.19991392 -0.10304923
0.14401525 0.372829 0.1072499 0.28209576 0.51522 0.20669433 0.16548227 0.17925987
-0.20484026 -0.5698136 -0.56415594 0.45021453 -0.3041361 0.367906 0.3435025 0.23313196
-0.20502082 -0.32361436 0.17755377 0.090801276 0.4702136 0.087861255 -0.092428125 -0.33544594
0.010283407 -0.502495 -0.003935243 0.40588027 -0.025403751 0.42967764 -0.13918132 -0.48025203
0.23803267 0.52395 0.42496416 0.21772888 0.20300339 -0.20090343 -0.007005974 -0.28617796
00000000: 6b97 89bd 9108 97be 2fc2 cebe 4447 e53e
00000010: 0a30 5cbf 4016 5e3c 2976 ce3d 0587 96be
00000020: f861 15be b8a0 de3e bd6a bc3d e111 d43e
00000030: 5011 f43e 9347 2c3e 4201 30be 0127 373e
00000040: 8234 babd 8157 1ebe 004b edbd aaa6 bd3e
00000050: 6291 a63e 4619 02bc 3cb6 4c3e 7a0b d3bd
00000060: bc78 133e 71e3 be3e d6a5 db3d db6e 903e
00000070: 75e5 033f aea7 533e 2f74 293e e68f 373e
00000080: a5c1 51be 4edf 11bf 866c 10bf 8582 e63e
00000090: bab7 9bbe 2d5e bc3e 8fdf af3e 25ba 6e3e
000000a0: faf0 51be c8b0 a5be a8d0 353e 05f6 b93d
000000b0: d6bf f03e 9af0 b33d f54a bdbd 92bf abbe
000000c0: bc7b 283c 83a3 00bf 36f3 80bb 8acf cf3e
000000d0: 871b d0bc b5fe db3e 8c85 0ebe 98e3 f5be
000000e0: d6be 733e 9621 063f e794 d93e 52f4 5e3e
000000f0: 1fe0 4f3e a1b9 4dbe 5f92 e5bb eb85 92be

fcs.3.bias f4 [4]
0.25418517 0.62965 0.29145157 0.6497021
00000000: 8f24 823e be30 213f 2439 953e e052 263f
