trained_agents/DQN-BENCHMARK.pth (torch_old, 58259 bytes, 8 tensors)

fcs.0.weight f4 [128, 37]
00000000: 105c 09be cf11 f6be 6b79 18be 4fd7 35be
00000010: e0ad 12c0 04e5 3abe c62f 38bf 061c 2b3f
00000020: f3c8 ccbe 2734 cebf bf22 1abf 8c29 d7bc
00000030: c8e7 8bbf 5f32 7dbd 7e80 c83e 9043 3fbe
00000040: e0d7 96bf cbaa b3bd 8cc6 07bf ca7d 00bf
00000050: 3a57 a9be 25e8 37be d57a 6f3e c50d 85bf
00000060: 3132 fcbe e3a5 1dbf a6b3 f53d 0b70 3ebf
00000070: 83b0 05bf 995f eabf 3b58 c7be ac8a 78be
00000080: 2292 a0be a45a 593b 806d 2bc0 48ff 3b3e
00000090: 7108 05bd da67 91bd 3b02 fabe 5863 d5be
000000a0: bb8a 7abd 724a 183f 307a c9bf 2ccd 9dbf
000000b0: da26 d53d 1824 74bf 0e8e 42c0 28f9 48be
000000c0: 67de 65bd 5000 ccbe b933 24bf ceac e8be
000000d0: bb34 a5bd 322d bcbd 7182 af3d b737 d0bf
000000e0: a985 21be f574 b8bf e5dc 143e 7e32 d6bd
000000f0: d9da afbf 6cb7 06c0 8fcf f93d dda8 1fbe
00000100: 9d5b e5be 85b1 c7bf 89d6 d3bf b0a1 4ebf
00000110: 8f8e e4bd c455 1fbd c40d c8bf 6445 31c0
00000120: 5f9e 66be dab5 25bd edfe 383d 7358 b8be
00000130: 5ae1 edbd 1bfe 85bd e307 223e 69e7 cdbe
00000140: 5b47 b8be 26c8 54bc e928 babe 5602 66c0
00000150: cdbf 85be 19c6 8e3e 0270 04bf 6bc7 b3be
00000160: 4e79 2f3e d48a ca3e 71b6 70bf c982 cebe
00000170: fa4e 10be 37e5 70bf 3ab6 13be 06d0 1ebf
00000180: e3d1 89bc fe3f 04be 1c83 63bc f948 8dbf
00000190: 7809 543f c130 ad3d 9541 59bf 99b8 a7c0
000001a0: d3fc f7bc 04a4 a0be b49e ddbe 06f6 16bf
000001b0: 85af d8be 6c71 a2bd f45b 4dbc 617c 77bd
000001c0: 0026 8b3d dc36 cebc 9aac 683b 9237 ec3b
000001d0: 64f6 c6bd fd12 d53e 5e14 063f 38b1 403f
000001e0: 447f 703f 7772 bbbd b964 133d 5669 91bc
000001f0: ef7b 983c 4988 bbba 46f2 45bd 0396 94bc
00000200: afd7 533d e988 7a3d 6ae2 2e3e 767f 1f3f
00000210: 85c6 06c0 df11 2ec0 9951 4bc0 c2b9 19c1
00000220: 806b 083e 24de 473e 1bc1 633e 4b5c c63e
00000230: 642b 923e 2c02 df3d e7fc f13e 263e 893e
00000240: 7690 183f d966 303f ed70 e2bb 9005 c63b
00000250: 00a5 1f3e 8ad3 ad3e 9729 f13e ce39 733e
00000260: 3280 623e a2c4 a1bd 165b 2dbf 39db cc3d
00000270: 39aa 99bf 1671 1ac0 5c1d ee3e c87f 0b3f
00000280: 8a4c 3a3f 506e 703f 16ae 253f 1f88 bbbd
00000290: 969a c13f 5b56 083f d1bd aabf 887c 19c0
000002a0: 2718 20bf df70 983f fd3f 05be 6ae8 6bbf
000002b0: 22b2 5cc0 8ce3 1abe 3525 5d3e 018b 903e
000002c0: ee8d b8bf b6f9 42c0 a22d 473e b494 8e3d
000002d0: 9e80 bdbd ad3a 14bf a5b6 38bf 9aa7 a9bb
000002e0: d413 28bd c1b4 edbc 3394 40be c399 b2be
000002f0: 7351 85be 4212 d9be 22f9 04bf c189 8f3d
00000300: 087d 24bf e5c7 1d3e f409 8fc0 21e9 19bf
00000310: ed8f abbe 1e13 30bf 7453 c03e 6bfd dabd
00000320: 0970 20be b050 59bf f333 59bf a57d 70bf
00000330: c473 ebbf 001e 8f3e a8ee 3bbf 7d85 023f
00000340: ff79 bbbe a8e8 34c0 3e95 0fbf 3d48 e9be
00000350: ccee 4dbf 5332 41bf f57a 1dc0 4eb8 29bf
00000360: 0f93 78bf c24b d7be 2d52 c0bf c2a9 06c1
00000370: b269 0e3f d699 3dbc d69c babd 9b30 63bd
00000380: b29f 643d 885c 333d 2d41 f33d 25fa 83bc
00000390: d027 1b3e 14ef d63e d259 843f c606 933f
000003a0: 5568 41bd 219f e0bd 97e4 f2bd a022 88bd
000003b0: 2519 f7bc 643e 6bbb a657 563d a4e2 023e
000003c0: 837e 6b3e 3147 943e 8fa7 2dbd 71c2 d4ba
000003d0: abf7 803c 0058 643c 7bc7 e13d 195a 58bd
000003e0: cf85 b43e cce6 243e 6885 493f 2f9c 7d3f
000003f0: e457 233f b59b 32c0 1d47 56c0 7b34 73c0
-0.13414025 -0.48060462 -0.14890067 -0.17757915 -2.2918625 -0.18251425 -0.71947896 0.66839635
-0.39997062 -1.6109666 -0.6020927 -0.026264928 -1.0930109 -0.061815616 0.39160532 -0.18678117
-1.178463 -0.087728105 -0.53037333 -0.5019194 -0.3307436 -0.1795965 0.233867 -1.0394827
-0.49257043 -0.6158125 0.11997156 -0.74389714 -0.5222246 -1.8310424 -0.38934502 -0.24271649
-0.3136149 0.0033165598 -2.6785583 0.18359101 -0.032478753 -0.07099886 -0.48829827 -0.41677356
-0.06116746 0.59488595 -1.5740414 -1.2328238 0.10407801 -0.95367575 -3.0399203 -0.19626296
-0.056120303 -0.39843988 -0.6414142 -0.4544434 -0.08066698 -0.09188308 0.085698016 -1.6267003
-0.15773644 -1.4410692 0.1453739 -0.10458849 -1.3738662 -2.1049452 0.12197792 -0.1559176
-0.44796458 -1.560105 -1.6549846 -0.80715466 -0.111600034 -0.03890015 -1.5629201 -2.7698603
-0.22521351 -0.04045663 0.04516499 -0.3600498 -0.11615248 -0.065426074 0.15823321 -0.40215614
-0.3599194 -0.012987172 -0.36359337 -3.5938926 -0.26122895 0.27885512 -0.5173341 -0.3511308
0.17136118 0.39559042 -0.94028383 -0.40334156 -0.14092627 -0.94099754 -0.14424983 -0.6203617
-0.016823715 -0.12915036 -0.013886239 -1.1037894 0.8282695 0.08456565 -0.84865695 -5.241284
-0.030271923 -0.31375134 -0.43285143 -0.5896915 -0.4232141 -0.0793179 -0.01253413 -0.06042135
0.06794357 -0.025172643 0.003550327 0.007208773 -0.09714964 0.4161605 0.5237483 0.75270414
0.9394419 -0.09152692 0.03598473 -0.017750423 0.018613784 -0.0014307584 -0.048326753 -0.018137937
0.051719364 0.061165724 0.17078558 0.62303865 -2.1058667 -2.7198408 -3.1768553 -9.607851
0.13322258 0.19518334 0.22241633 0.3874229 0.2854873 0.10889086 0.47263262 0.26805228
0.5959543 0.68906933 -0.0069104345 0.0060431436 0.15590286 0.33950454 0.47102043 0.2375252
0.22119215 -0.07898833 -0.6771711 0.10002751 -1.2005073 -2.4131522 0.46506774 0.54491854
0.7277304 0.93918324 0.6471876 -0.091568224 1.5125301 0.5325677 -1.3339177 -2.3982258
-0.62536854 1.1909446 -0.13012691 -0.9215151 -3.4483724 -0.15125865 0.21596225 0.28231052
-1.4418314 -3.0464911 0.19451001 0.069619566 -0.092530474 -0.5790203 -0.72153693 -0.0051774504
-0.041034535 -0.029016854 -0.18806534 -0.34882936 -0.26038703 -0.42396742 -0.51942647 0.07008696
-0.6425328 0.15408285 -4.469965 -0.6012135 -0.33508244 -0.6877917 0.3756367 -0.10692867
-0.15667738 -0.84888744 -0.84844893 -0.9394172 -1.8394704 0.27952576 -0.73411036 0.50984937
-0.36616513 -2.8267002 -0.560871 -0.45562926 -0.804425 -0.75467414 -2.4606297 -0.6629685
-0.97099394 -0.42049986 -1.5025078 -8.416445 0.5563003 -0.011572322 -0.09111945 -0.055466276
0.05581636 0.043789417 0.11877666 -0.01611049 0.15151906 0.41979277 1.0339911 1.1486442
-0.04721864 -0.109678514 -0.11860006 -0.06647229 -0.030163357 -0.0035895342 0.05232968 0.12781769
0.22997479 0.28960565 -0.042396124 -0.0016232264 0.015743097 0.013936996 0.11024376 -0.0528203
0.35258338 0.16103667 0.78719187 0.9906644 0.63805985 -2.7907536 -3.3480904 -3.8000782

fcs.0.bias f4 [128]
00000000: e9dd f3be 1fd5 f1be 5183 ddbe 9586 2a3d
00000010: 94cc 88be ecc3 45bf cc40 9d3e 0c93 d5be
00000020: ebc7 5bbf fcb6 723f 6ecd 5dbe fbf9 053e
00000030: a090 15bf cf47 21bf 818f 13bf fb43 bebe
00000040: 88b8 6bbf d189 89be 92c4 15bf 5902 f0be
00000050: e69d 8e3e 8979 363e 3464 aabe ba68 febe
00000060: e10a 37bf c688 85be c2e8 e3be fcee 4abf
00000070: dc3a 8cbe 76dc d7be a6e1 d63c b4f7 5ebe
00000080: a172 54bf da3f d3be 5e34 c13d 4478 43bf
00000090: 6a28 aa3e 71da 5a3f 1b8b d6be e2a4 08bf
000000a0: 834d 2a3d 6320 38bf 458d 193e da65 933e
000000b0: 6fca 38bf 49ef 02bf d498 fdbe 3c31 14bf
000000c0: 0e08 83bf 002a 9ebe 0a57 d1be 2de5 943e
000000d0: a49e 11bf 42a2 41bf 1822 ddbe 7965 d5be
000000e0: 82f3 24bf 843e 583f 4ec2 15bf dc8f 22bf
000000f0: 47f8 cebe 5809 383f 14a4 f8bd f51d 2bbf
00000100: 7c2b eabe 6a73 07bf 84b9 abbe 370e 20bf
00000110: e47d c2be 879a fdbe 5c6f 11bf e723 2cbf
00000120: 534f 6cbe a9d1 cbbe d4fe ebbe d0f6 5c3a
00000130: 6222 0abf fc39 14bf 504a d7be 0919 0abf
00000140: 915d 043e c0dd d2be a2b9 e8be 7fbc 55bf
00000150: d8f1 26bf bd53 b8be 958b bdbe 8f63 07bf
00000160: 8922 23bf f6a9 a3be d609 18bf f2c9 cfbe
00000170: 4017 2dbf 6264 1bbf 3f64 8abe a929 40bf
00000180: 56f0 a0be 9f03 06bf cf6c 54be 17b2 09bf
00000190: 29c0 40bf 3906 51bf 75f7 833e 5faf 1a3e
000001a0: e669 62bf 9a4c 23bf 8495 5bbf 6c2b 683c
000001b0: 18fc d7be 23b6 0abf d98f b2be c357 5ebd
000001c0: 2068 ecbe 3323 fcbe d155 05bf 6015 a9be
000001d0: 2797 f7be 5f51 b7be 56ec 8a3d e759 04bf
000001e0: 6af9 55bf b81e adbe ec26 92be eea4 6ebf
000001f0: 1789 0abf 4c02 d13d aae4 a0be 2445 10bf
-0.47630242 -0.4723291 -0.4326425 0.041632254 -0.2671858 -0.7725208 0.307135 -0.4171375
-0.85851926 0.9481046 -0.21660396 0.13083641 -0.58423805 -0.63000196 -0.57640845 -0.3716124
-0.9207845 -0.26862958 -0.5850307 -0.4687679 0.27854842 0.178198 -0.33279574 -0.49689275
-0.71500975 -0.26080912 -0.44513518 -0.7927091 -0.27388656 -0.42160386 0.026230644 -0.21774179
-0.8298741 -0.41259652 0.094338164 -0.76355386 0.33233958 0.85489565 -0.41903004 -0.5337659
0.041577827 -0.7192442 0.14995296 0.28788644 -0.7218389 -0.5114637 -0.4953066 -0.57887626
-1.0236833 -0.30891418 -0.40886718 0.29081097 -0.5688269 -0.7563821 -0.43190074 -0.4167898
-0.64434063 0.8447039 -0.5849961 -0.6350076 -0.40423796 0.7188926 -0.121406704 -0.66842586
-0.457363 -0.5291048 -0.33539975 -0.6252169 -0.37986672 -0.49531958 -0.56810546 -0.6724228
-0.23077135 -0.39808396 -0.46092856 0.0008429112 -0.53958714 -0.5790098 -0.42048883 -0.5394445
0.12926318 -0.41184807 -0.45454127 -0.8349075 -0.65212774 -0.36001387 -0.37020555 -0.5288629
-0.6372457 -0.31965607 -0.5939001 -0.4058376 -0.676136 -0.60700047 -0.27029607 -0.7506357
-0.31433362 -0.52349275 -0.20744632 -0.5378737 -0.75293213 -0.8165012 0.25774732 0.15105961
-0.8844284 -0.6378876 -0.8577502 0.014170509 -0.4218452 -0.5418417 -0.34875372 -0.054282915
-0.4617319 -0.49245605 -0.5208407 -0.3302412 -0.48357508 -0.3580427 0.06783359 -0.5169968
-0.835837 -0.338125 -0.2854532 -0.9322041 -0.5411543 0.10205516 -0.31424457 -0.563555

fcs.1.weight f4 [64, 128]
00000000: 4397 74bf 285e 29c0 da49 23be a8b2 cfbd
00000010: f3ca 32bd 83a1 ca3d 9abb 1f3c 6700 9e3f
00000020: 738d a1bf 1f17 a0bc 9328 e03e 841e 5f3f
00000030: e9c5 ba3e 60b8 42be a908 4fbf 4569 05bb
00000040: 0d32 a23e 8573 7f3e a23b 57bf b31f a4bd
00000050: 0447 ec3d 50fc b7bf dbfe eebf b832 5d3e
00000060: 012e e2be 14bb 4bbf c8df 89be 3639 85bf
00000070: f2cd a9be 258b b03e 21b6 0540 467b 47bf
00000080: c4fe 1e3f 86cf 36bf 597c 943e e411 93bf
00000090: 36b1 aabd c4bb 77bd 619b 8dbd c4f7 a5be
000000a0: e7ba 0e3f 209f adbf 4864 24c1 7af4 073f
000000b0: 2435 4abf c121 b5be bef4 3abe 0424 9b3f
000000c0: 0357 bc3e 14a0 67bf 615a dbbf 3fcf aebe
000000d0: 12d0 85bf a76c e5bf 2c54 643e cda3 c7bc
000000e0: e212 2bbf 3edd 31be 5a30 863e f1b2 9dbf
000000f0: 1632 76be 0e7c 72bc d33b 183f a679 ebbe
00000100: a14e 3abf 261d edbe 3cf4 393e 616a 8ebf
00000110: 6d0e 10bf e434 1dbf 5167 24bf 3fb9 e03f
00000120: fefc 9bbf f59a 41be 0292 50bf 39c9 c83c
00000130: ccb0 c4be 194d f3be dd9c 75bf 452b 6fbe
00000140: 9d7d 5a3f e73b 08bf a5da ad3e 01ff 12bf
00000150: 044d c63e 0946 073f f720 993d 047f d03f
00000160: d7f7 12be 81b8 633f f913 6fc0 9df1 cdbe
00000170: 2531 5abd 90ad db3e a527 0d40 5723 813f
00000180: 5303 863e 705c 30be ac3a 6d3d 080f ebbf
00000190: 8847 5d3e 4125 f5be 61d7 463e 5e0b 5f3f
000001a0: 9ef9 47bf b897 8c3e 2dc6 2ebf 3d52 1c3e
000001b0: 75af 40be 8d19 973e f744 87bf 7188 01c0
000001c0: b428 65be ebad 83bf 9a42 11bf 5419 5bbf
000001d0: 728b 95bd eca1 fa3e dc44 fbbe d3f1 12c0
000001e0: c49e 6dbf 15ab 31bd 2fad b3be 4fa1 a2be
000001f0: ceed 1abe b04a 243f b76d e43d 2ee0 053f
00000200: 6278 773e 740e 2dbf d988 b23f c4e2 6d3f
00000210: c191 a4bd 19a0 e4bf 86cd f93c ba65 0d3f
00000220: fe05 193f 6991 04bb bf94 bb3e 8468 dcbe
00000230: f485 5a3f e827 31bf 76a0 8dbd 750a 5cbe
00000240: a47c 33bd 4fff 40bf c0cb bf3e eba0 56c0
00000250: 7bda 203f c74e 96be d03b a0bf 7921 25bf
00000260: be63 833f 7479 11bf 6961 a13d 88d6 4f3f
00000270: 20e2 963f 94d8 d33e ba60 81bf 9b6b 2cbf
00000280: c5b1 f03e 6c4f 133f 85d5 ffc0 8aa6 a63f
00000290: 0458 08bf e889 983d b96d 7ebf 4fcc 8dbf
000002a0: 4114 88bd 9359 3ebf 44b5 bbba 7497 0c40
000002b0: 90a6 ac3e f7fc b2bf 689b 96bd c328 3ebf
000002c0: 011e 943e aa4d 3d3f a33d 2c3d 3287 aa3e
000002d0: 66fd c9be b243 00bf 39a1 03bf 7587 d9be
000002e0: ff1c 80be f4d1 28be c081 82bf fd78 39bf
000002f0: 2d83 56be 4b8d 223e c7d2 86bf 8c74 ff3e
00000300: fdbf 0ebf a285 21bf 9afe f43e 8481 d9bf
00000310: ef75 e5bb 69f2 97be b966 833e 66c8 c4bf
00000320: 4da3 5abe 4a24 4c3e 209b dbbf f8e6 9abf
00000330: 1f7f f43e 63c0 f23e f72f 1bc0 3802 b7bf
00000340: 3ece b7bf e04a 5b3d a14d 24bf 04e5 b2be
00000350: cd56 2fbe b7c5 a8be 1db4 993e c4f6 d5bf
00000360: eb25 05be 6ff4 233f 87a4 0f3e 8e9f 5f3e
00000370: c23b 2c3f c53e d03b 87d3 5140 862b 73bf
00000380: 1f68 2a3f 4163 a1bf 7339 08bd ccf2 973e
00000390: 99cc 593d e886 3b3e 2d80 da3e 3e5b 99be
000003a0: 4fbb dc3f 0879 c93d 9dc7 7bbd c30b 73bf
000003b0: e59c 4c3e 76a1 19be 15de 913f aa7b f3be
000003c0: 8227 e43e 6c5f d13e 5af1 40bf 3c8b f83e
000003d0: 3a3e 42bf ad4d 003f a73a ef3d 2842 673f
000003e0: bd56 b2bf b250 093d 1513 c6bf 7c90 33bf
000003f0: e89d cebf 9369 8e3e d6bc fdbb 4fa5 56bf
-0.9554331 -2.6463718 -0.15946141 -0.10141498 -0.04365058 0.09894087 0.009749318 1.2343873
-1.2621292 -0.019542275 0.43780956 0.8715594 0.36479118 -0.19015646 -0.8087259 -0.0020356935
0.3167881 0.24946411 -0.8407537 -0.08013859 0.11536983 -1.4373875 -1.8671526 0.21601379
-0.44175723 -0.79582334 -0.26928544 -1.0408084 -0.33164936 0.3448116 2.0892413 -0.77922475
0.6210749 -0.71410406 0.2900112 -1.1489835 -0.083345816 -0.0604818 -0.06914402 -0.32415593
0.5575394 -1.3564186 -10.274483 0.53107417 -0.78987336 -0.35377315 -0.18257424 1.2120366
0.36785135 -0.90478635 -1.7136956 -0.3414249 -1.0454123 -1.7923783 0.22297734 -0.024370098
-0.6682569 -0.17369553 0.26208764 -1.2320234 -0.24042544 -0.014800085 0.59466285 -0.45991248
-0.7277623 -0.463113 0.18159574 -1.1126214 -0.5627201 -0.6140883 -0.6422015 1.7556533
-1.2186582 -0.18906768 -0.8147279 0.024510013 -0.38416135 -0.47519758 -0.9594248 -0.2335635
0.8534792 -0.53216404 0.33955875 -0.57420355 0.38730633 0.5284124 0.07476991 1.6288762
-0.14352356 0.88953406 -3.735594 -0.402234 -0.053269524 0.42905855 2.2055447 1.008891
0.2617441 -0.17222762 0.057917282 -1.8363962 0.21609318 -0.47879985 0.19418098 0.8712672
-0.7811526 0.27459502 -0.6827114 0.15265746 -0.18816932 0.2951168 -1.0567921 -2.0239527
-0.22378808 -1.028745 -0.5674225 -0.8558552 -0.07301988 0.48951662 -0.49075973 -2.2960098
-0.9282038 -0.043376047 -0.35093066 -0.31763694 -0.15129778 0.64176464 0.11153739 0.52295196
0.24167016 -0.6760018 1.3948013 0.9292414 -0.08035613 -1.7861358 0.030493509 0.5523335
0.5977477 -0.0020228273 0.36636922 -0.4304849 0.85360646 -0.6920152 -0.06915371 -0.21488364
-0.04382004 -0.7538957 0.37460136 -3.3535717 0.62833375 -0.29356977 -1.2518253 -0.645042
1.0264814 -0.5682595 0.07879908 0.81186724 1.1787758 0.41376173 -1.0107644 -0.6735169
0.47010627 0.57543063 -7.9948144 1.3019574 -0.532593 0.074481785 -0.99386173 -1.1077975
-0.06644488 -0.7435543 -0.0014320989 2.196744 0.33720827 -1.3983449 -0.0735386 -0.7428095
0.2892914 0.7394663 0.04205097 0.3330627 -0.3945114 -0.50103295 -0.5141788 -0.42486158
-0.25022122 -0.16486341 -1.0195847 -0.7245024 -0.20948477 0.15874211 -1.0533074 0.49893606
-0.557617 -0.6309453 0.47850496 -1.699265 -0.007002584 -0.29677132 0.2566431 -1.5373657
-0.21351357 0.19935718 -1.7156715 -1.2101736 0.47753236 0.47412404 -2.4248025 -1.4297552
-1.4359815 0.053538203 -0.6418095 -0.3494035 -0.17122956 -0.32963344 0.30020228 -1.6715932
-0.13002746 0.6404485 0.14027606 0.21838209 0.67278683 0.006355139 3.2785356 -0.94988286
0.66565126 -1.2608415 -0.033257913 0.29677427 0.053173635 0.18313181 0.42675915 -0.29952425
1.7244662 0.09837538 -0.061469663 -0.9493982 0.19981726 -0.15002999 1.1395899 -0.47555286
0.44561392 0.40893114 -0.75368273 0.48543727 -0.758762 0.50118524 0.11681109 0.9033532
-1.393272 0.033524223 -1.5474573 -0.7014234 -1.6141939 0.27814922 -0.0077434583 -0.8384599

fcs.1.bias f4 [64]
00000000: c30e 46bf 1fce 08bf 8375 d13f 3ace a73c
00000010: 5c4b 1d3f e4dc d53d d6ba c03f 2a2e 92bd
00000020: f986 91bd 59c1 34bf 1e7b bcbc 9038 c03d
00000030: da18 e6bd 92dc cabd 1461 ea3e 2ec3 7e3e
00000040: 3b9d 013f ed9b 42be d4ef edbd 2533 5f3f
00000050: c320 d33f b8d2 42bf d811 93be 0075 d83d
00000060: ed5d 0bbe 0c04 c83e 35e5 c83e 161b 163f
00000070: 1895 b63f 095c 40be 3ba7 33bf 03cd 1d3d
00000080: 9b0b 25be 184b b73f 0762 86bd 8606 fcbd
00000090: 7432 10be 7252 833e 302c 18bd 040f fcbe
000000a0: 24bb 313e bbdc d7be aa3e 19be 576f f03c
000000b0: f030 ea3e 12dd 1fbf a381 9e3e e6ff 62be
000000c0: 7b50 923d ec53 013f 09a5 283f 1afb f43e
000000d0: 5176 783e 76d5 e0bd 574f 463e 6dfa c23f
000000e0: 3b08 3ebd 5e25 563e 5cd6 d1be d34f 7fbe
000000f0: 5bae aebd ce90 a63e 3410 3fbe f763 263f
-0.77366275 -0.53439516 1.6363987 0.020484079 0.61443114 0.10442522 1.5057018 -0.07137711
-0.07105822 -0.70607525 -0.023007926 0.093857884 -0.11235209 -0.09905352 0.4577719 0.24879143
0.5063054 -0.19004793 -0.11618009 0.87187415 1.6494373 -0.7610278 -0.2872455 0.10569191
-0.13610049 0.39065588 0.3923737 0.5863508 1.426425 -0.18785109 -0.7017705 0.038525593
-0.16117708 1.4319792 -0.06561666 -0.12305932 -0.14081746 0.25648838 -0.037151515 -0.49230206
0.17356545 -0.4216059 -0.1496531 0.029349966 0.4574046 -0.624467 0.3095828 -0.2216793
0.07144257 0.5051868 0.65876824 0.47847825 0.24263884 -0.109782144 0.19366203 1.5232674
-0.046394568 0.20912692 -0.40983856 -0.24932794 -0.085293494 0.32532352 -0.18658525 0.64996284

fcs.2.weight f4 [16, 64]
00000000: 2fab 573d c9f8 2b3d f087 9d38 3b10 4a3d
00000010: 75ed c6bc eab0 76bd 8889 863d 2e06 6abd
00000020: 114e d4bc 6d96 a1bd 143d ae3d b5d0 883d
00000030: af62 3abd 5c67 dc3d b88e a03d 4b8f 0e3b
00000040: ff95 e5bd 3dbd f2bd d018 913c 57fd 933c
00000050: 81ee edbd f320 c13d f561 f73b 4c30 dc3b
00000060: d576 0dbe 219e ecbd 2a9c 663d aa34 80bd
00000070: 3645 7fbd 26ce 9ebd 55cd 9fbd 3d32 a83d
00000080: 07e9 263d 4322 3ebd f502 c93d f471 95bd
00000090: e3d3 3dbd b1bf 243d ac03 b6bd 38f3 153e
000000a0: 07dd 423d 2416 cebc b6d1 d2bd 8f3d d33d
000000b0: 8805 64bd 54ee 74bd 7092 1e3e 9c1a 39bd
000000c0: 3f74 d03d 9ee0 8bbd a055 bebd 321c 85bd
000000d0: c0ce 2cbe 3607 a23d 72d5 413c 64a1 bbbc
000000e0: b1c9 e8bd 14ae 863d a306 a33d f2ac 933d
000000f0: ab52 19bd eb2b f83c 5995 ad3d 9761 40bd
00000100: f490 a73b 63ee 483d e691 bbbc 739a 5cbd
00000110: 806c 233d c706 973b 14c6 a2bd aa8c a5bc
00000120: 4fa8 8d3d fb85 e43d ac2b 07bd 24e7 803d
00000130: 13fa dd3d 251e 8f3d b770 5b3d 3b16 00be
00000140: d303 b8bd bbba 99bd 8239 f93d 4d97 88bc
00000150: 4d25 11be a67c 08be b6e6 e9bd 387c ddbd
00000160: 8c77 b1bd 62a6 a2bd 46da 813d cbc9 a5bd
00000170: 8045 9d3d aa40 18bd c23f f3bd bf1c 8dbd
00000180: 6c88 86bd 245a dfbd 6bf4 e8bd 8df7 d7ba
00000190: 6294 ddbd 6ca7 3bbd f893 06bd eed6 8ebd
000001a0: f435 52bc 326d f8bd 6cb5 58bd c0df ce3d
000001b0: 0cda a63d af13 e3ba 6c6d 0e3d cd6a a73d
000001c0: e2f4 e93d c2fd b5bd b158 5a3a 41d9 68bd
000001d0: 6d83 dbbd b461 b53d 8b5a 903d 8917 edbc
000001e0: 3ac2 bf3d da31 d63c 7ce5 543d b9aa 273d
000001f0: 84fd 3f3d e68e c23b 7bc0 553d e8b3 cb3d
00000200: f88a 68c0 726f 9ebf 9341 7abd 3eb7 0bbf
00000210: de75 cebd 12a4 6b3d d791 7ebd c089 debe
00000220: d65d 843c 6485 d3be 5ec6 a1bb 8feb 853f
00000230: 6eb9 b4bf 8970 05bd a3b0 60bf 1057 10bf
00000240: f6f4 5c3e a7ad 96bf f12b 1b3b 4bfe 37c0
00000250: 3738 5f3e 3ddb 6cbf 6e96 adc0 a877 26c0
00000260: 005c f83e 2a4b 74be c2ed a03f fc17 81be
00000270: 4083 e5be 1a13 673d 4533 09c0 fffd 89bf
00000280: 1489 1ebf 6281 4dbe 0d07 cfbe 9b2c 2d3f
00000290: 0f61 b2bd 81d8 33bd f99f f23e 0548 773f
000002a0: a832 a43f ce82 90bf de94 393e f386 883f
000002b0: 0be4 693f bf6b 6b3f bfa2 d1be 3c48 1dbf
000002c0: 485d debf 1c0a 243f 0768 973f 823c 693f
000002d0: a73f 7f3f c4ba 253f 3d93 ca3e 2a60 8c3d
000002e0: 4044 133f 7c9c 76bf b762 1fbf 35de 6bbf
000002f0: 7370 d6bc f84d 1dbf 0b36 843f f8c4 29bf
00000300: 3c59 bbbd 99b3 fcbd 78d4 023f d381 f73d
00000310: e157 b53d 5b98 c23e db25 b83e 6d2a e33e
00000320: b380 94bd 5728 90bf 67bc babd 0ede 2fbd
00000330: 1613 b2be 613b 533d ad4b 0c3c 3462 333f
00000340: e050 753d dc1f 9b3e 6ca6 aebd c0c5 6b3d
00000350: d2cb 233f ac07 74bd c868 9abe 56a9 e6bd
00000360: 76d8 55bf 4f39 df3d 6470 1fbf c865 303e
00000370: 7ffe dd3e 9b20 273e 2095 8ebd 2472 773e
00000380: 526d f6bf e3c9 b53e b8ca 063e 7684 473f
00000390: 1a1e 7dbf f5e5 483e b273 82bf fbb1 d2be
000003a0: 8172 403d 5ca5 8fbf 018d 103f 946c f83d
000003b0: 7e76 243e 97a2 fabd 25f5 3f3e 4bb6 033f
000003c0: e1bd 2bbb 952f b03c fbd5 343e 2db7 1e3e
000003d0: 898e 12bf 2b4e 7cbf ad66 193d 6120 043f
000003e0: 7d39 303f e1fa a43d a51f acbd cad2 31bf
000003f0: 1dd6 78be cb25 2f3f 2410 99bf ce36 e93d
0.052653488 0.041985307 7.511664e-05 0.049331885 -0.02428315 -0.060227312 0.06569201 -0.0571348
-0.025916131 -0.078900196 0.085077435 0.06680433 -0.04550427 0.10761902 0.078397214 0.002175289
-0.1121025 -0.118525006 0.017712027 0.018065138 -0.11617757 0.09430113 0.007549519 0.0067196246
-0.13814862 -0.11553598 0.056301273 -0.06260045 -0.062321864 -0.077541634 -0.07802836 0.08212707
0.040749576 -0.046419393 0.09815017 -0.072971255 -0.04634465 0.040221874 -0.08887419 0.14643562
0.04757407 -0.025157042 -0.102939054 0.10314476 -0.055669338 -0.0597976 0.15485549 -0.045191392
0.10178422 -0.06829952 -0.092936754 -0.064995185 -0.16875744 0.079115316 0.0118306745 -0.022904105
-0.113665946 0.065761715 0.0796025 0.07210721 -0.037432354 0.03029438 0.084757514 -0.04696807
0.0051137153 0.04905547 -0.022896718 -0.05385823 0.039898396 0.004608962 -0.07947937 -0.020208675
0.06916868 0.11158367 -0.033000633 0.062940866 0.108387135 0.069881715 0.05357429 -0.1250848
-0.089851044 -0.07506319 0.12169172 -0.016673708 -0.14174385 -0.133288 -0.11420958 -0.108147085
-0.0866538 -0.07941891 0.063404605 -0.080951296 0.07679272 -0.037171043 -0.11877395 -0.068902485
-0.06568989 -0.10905865 -0.11374744 -0.0016476974 -0.108193174 -0.045813963 -0.032855958 -0.06974588
-0.012830246 -0.12130202 -0.052907392 0.10101271 0.08147058 -0.0017324592 0.03477232 0.081746675
0.11423661 -0.08886291 0.0008329256 -0.056847814 -0.10718427 0.08856526 0.0704852 -0.028941886
0.09363218 0.026146818 0.051976666 0.0409343 0.04687263 0.005937445 0.052185517 0.09946424
-3.633482 -1.237776 -0.061097693 -0.5457648 -0.10081075 0.057529517 -0.062150802 -0.4346447
0.016158026 -0.41312706 -0.0049369773 1.0462512 -1.4119089 -0.032578025 -0.87769526 -0.56382847
0.2157782 -1.1771744 0.0023677314 -2.8748958 0.21798788 -0.9252203 -5.424613 -2.6010532
0.4850769 -0.23856798 1.2572558 -0.2521361 -0.44826698 0.0564147 -2.1437542 -1.0780638
-0.61927915 -0.20068887 -0.40435067 0.6764619 -0.08709919 -0.043907646 0.47387674 0.9659427
1.2827959 -1.1289918 0.18123195 1.0666183 0.9136359 0.9196128 -0.40944478 -0.61438346
-1.7372217 0.64077926 1.1828622 0.9110795 0.997065 0.64738107 0.3956546 0.06854279
0.57526016 -0.96332526 -0.6226 -0.92135936 -0.026176667 -0.61447096 1.0328993 -0.66316175
-0.091478795 -0.12338943 0.5110545 0.12085309 0.08854652 0.38006863 0.3596638 0.44368306
-0.0725111 -1.1262311 -0.09117966 -0.042936377 -0.34780186 0.0515703 0.008562964 0.7007172
0.05989158 0.30297744 -0.08527836 0.057561636 0.6398288 -0.05957763 -0.30158067 -0.11262767
-0.8353342 0.108996026 -0.6228087 0.17226326 0.43358228 0.16321032 -0.06962037 0.24164635
-1.9252112 0.3550559 0.13163269 0.77936494 -0.98874056 0.19618972 -1.0191557 -0.41151413
0.0469842 -1.1222339 0.56465155 0.12130085 0.16060826 -0.12238043 0.18745859 0.5145003
-0.0026205706 0.021507064 0.17659752 0.15499564 -0.5724874 -0.98556775 0.037451435 0.51611906
0.6883772 0.08055664 -0.08404473 -0.69462264 -0.24300428 0.6841704 -1.1958051 0.11387406

fcs.2.bias f4 [16]
00000000: 7fba d4bd 5f08 f6bd 6026 463f 9d82 0d40
00000010: 1a50 08be 7c79 d8bd a5a1 e83f 55a6 46bf
00000020: 44f5 f4bd 16a9 2fba 8e23 de3f 00c4 f53f
00000030: 1a5e 0140 1176 dc3f 81dc 91bf 627d 9a3d
-0.10387134 -0.120133154 0.77402306 2.211097 -0.13311806 -0.10570046 1.817433 -0.7759755
-0.11960843 -0.0006700916 1.73546 1.920044 2.0213685 1.7223531 -1.1395417 0.07543446

fcs.3.weight f4 [4, 16]
00000000: b117 ccbd 683e 7ebc 13b9 873d 8abb 393f
00000010: d3cc 73be 17f5 99bd 2486 a63e e1ca 4dbc
00000020: 114a e0bd a885 833f d90b b43e 0036 0a3f
00000030: b2d8 1b3f 3f7a f43e 02d0 debd fb75 82bd
00000040: 160e acbd c6ae 66bc a98c 163d 8096 d13e
00000050: 0937 63bd 4fa3 cd3d 60cd ff3e 2fb6 ddbb
00000060: cd10 8b3d ba31 613f 680b dd3e 4b33 203f
00000070: 5d38 3e3f bf8b 253f 5037 b3bd 5a6f 3dbe
00000080: 4641 98bd 2936 02bb 787d 14bd d3e7 3e3f
00000090: a134 8fbd b88f 0c3d 3586 0a3f b90d 453d
000000a0: 1a3a 60be 13a5 14bf 4219 f93e e251 943e
000000b0: 6565 1c3f 72f5 d73e dc81 cebd 327a 71bf
000000c0: 6587 a03d 7489 04be 4184 803d 5417 2b3f
000000d0: 2cd6 233e c37a df3c 6b92 e73e 07d1 88bd
000000e0: fe3d 633e 9023 523f 7487 233f 8cbc 1f3f
000000f0: 74c3 033f 2d02 913e 8759 9ebd 033d 74be
-0.09965456 -0.0155178085 0.06627097 0.72551787 -0.23808603 -0.0751745 0.32524216 -0.012560577
-0.10951627 1.0275164 0.3516529 0.5398865 0.60877526 0.47749516 -0.10879518 -0.06370159
-0.08401124 -0.014079755 0.036755238 0.40935135 -0.055472407 0.10040914 0.49961376 -0.0067661027
0.06790314 0.879665 0.43172765 0.62578267 0.74304754 0.6466636 -0.087507844 -0.18499509
-0.07434325 -0.0019868708 -0.03625247 0.74572486 -0.0699246 0.03431675 0.54111034 0.04810879
-0.21897164 -0.58064383 0.48652083 0.28968722 0.61092216 0.42179447 -0.100833625 -0.9432708
0.078383245 -0.12943059 0.062752254 0.6683247 0.15999669 0.027280217 0.45228896 -0.06680494
0.22191617 0.82085514 0.6387856 0.62397075 0.5147011 0.28321972 -0.0773192 -0.23851399

fcs.3.bias f4 [4]
00000000: f123 f43f f66e bb3f 0637 bb3f db18 de3f
1.9073468 1.4643238 1.4626167 1.7351335
