trained_agents/dqn_vanilla-Best.pth (torch_old, 58259 bytes, 8 tensors)

fcs.0.weight f4 [128, 37]
0.18658294 -0.017010465 -0.3723477 -0.44686428 0.11824751 0.24575898 -0.2744004 0.22947937
-0.56850636 -0.16973533 -0.10912541 -0.027900144 -0.17700137 -0.14491904 -0.028633965 0.13939056
-0.21992874 0.20641921 -0.8509166 -0.47465608 -0.054390606 0.1092381 0.2542402 -0.570437
0.018258123 -0.24502519 0.5102887 -0.739897 -0.1654425 -0.13927062 -0.07163682 -0.73173004
0.2317945 -0.13572463 -0.3267818 -0.026271217 -0.025548827 0.0554145 -0.055855904 0.14724176
0.015307183 -0.060699817 -0.35292065 0.018004695 0.077916116 -0.045428254 0.38616058 -0.039826155
-0.2176432 0.06079455 0.27287313 0.23454708 0.1070713 -0.10881682 0.16404223 -0.10024849
-0.31501666 -0.2410513 -0.58535904 0.06893993 0.2654737 -0.26863495 -0.1600875 0.0726092
0.13609204 -0.30215952 -0.42603257 -0.12202535 0.1832344 0.25937754 -0.19116113 -0.17697525
-0.09203937 0.009366002 0.28811583 0.10777242 0.009539352 0.08032081 0.27180582 -0.8093987
0.31357843 0.30675334 -0.108556435 -1.6439772 0.04624394 0.07025667 -0.022690758 -0.038448285
-0.19023475 -0.18283927 0.15258104 0.08131745 0.08864262 -0.18025318 -0.21207424 0.005264165
-0.17427652 0.19142365 0.025261112 -0.29804718 0.2833131 0.31625688 -0.3228431 -1.1364838
0.060277358 -0.062174764 0.081858 -0.21957316 -0.13564993 0.109973714 -0.012862449 0.079179995
0.06920831 0.11223118 0.08618153 -0.042359978 -0.15686207 0.06222037 0.1547584 0.25496313
0.310975 -0.012848356 0.05711564 0.008446179 0.024790583 -0.0012773526 -0.071860604 -0.039552268
-0.028077936 -2.859744e-05 0.008295197 0.49169165 -0.896306 -0.5887892 -0.6855553 -2.8240542
-0.09300955 0.10312999 0.09054611 0.12281371 0.22313319 0.04594695 0.13841186 0.1817672
0.12698185 0.062477287 -0.002221911 -0.0014518728 -0.19653234 -0.0067909434 0.032514345 -0.26117402
-0.3261253 0.32039565 0.19834533 -0.085446596 -0.5086039 -0.4675498 0.1491516 -0.04932237
-0.017312402 -0.13541955 -0.20340031 -0.05820167 0.4418804 0.019554937 -0.3614261 -1.4379523
-0.16917732 0.31273508 0.27734408 -0.24068938 -0.8138621 0.14138989 0.44862777 0.26830035
-0.33255172 -1.5350038 0.2577149 0.3257248 0.06741718 -0.57163566 -0.73639363 -0.058082025
-0.018654717 0.07970409 0.0021925557 0.0054869964 -0.4286226 0.030992832 -0.2084333 0.5170942
0.06712864 -0.03088779 -0.42215014 0.0016265296 -0.053743478 -0.11643896 0.054024775 0.051775195
0.23976105 -0.11969034 -0.26889962 -0.22524713 -0.38673007 0.26095957 -0.6889943 0.29818395
-0.5633348 0.34483907 -0.21501425 0.08912932 0.04802636 0.13204166 -0.052961763 0.0024098987
-0.40414974 0.19419609 -0.5731065 -1.1984946 0.012901465 -0.022461126 0.007675299 0.032374837
0.034961022 0.0027616052 -0.077932745 -0.12614879 0.0037802374 0.04735572 0.32423267 0.34827906
0.09269848 0.10637201 0.05872358 0.10465542 0.042191196 -0.022254303 -0.015612232 0.047689427
-0.041065093 0.0604619 -0.017192146 0.020919979 0.042247385 0.06109166 0.06457774 -0.08287637
-0.022718461 0.0050454307 0.093962796 0.1632761 0.3346775 -0.37941983 -0.5183568 -0.7799753
00000000: 990f 3f3e 8859 8bbc 5ca4 bebe 65cb e4be
00000010: c02b f23d 3ea8 7b3e 367e 8cbe a4fc 6a3e
00000020: a289 11bf 19cf 2dbe 257d dfbd d88e e4bc
00000030: d93f 35be a865 14be c791 eabc 66bc 0e3e
00000040: 0035 61be 8f5f 533e acd5 59bf 1f06 f3be
00000050: afc8 5ebd 3ab8 df3d c62b 823e 2908 12bf
00000060: 0f92 953c e2e7 7abe 48a2 023f e469 3dbf
00000070: c269 29be f59c 0ebe 53b6 92bd a952 3bbf
00000080: 8a5b 6d3e 66fb 0abe f24f a7be bc36 d7bc
00000090: c64b d1bc 51fa 623d 29c9 64bd 8bc6 163e
000000a0: fbca 7a3c 5fa0 78bd 04b2 b4be 957e 933c
000000b0: 7c92 9f3d fa12 3abd d7b6 c53e c020 23bd
000000c0: dcdd 5ebe b503 793d 07b6 8b3e 1c2d 703e
000000d0: 3348 db3d 5adb debd b0fa 273e 154f cdbd
000000e0: dd49 a1be 27d6 76be 17da 15bf 6130 8d3d
000000f0: 2bec 873e 858a 89be faed 23be 22b4 943d
00000100: b65b 0b3e a7b4 9abe f120 dabe 6de8 f9bd
00000110: cca1 3b3e 22cd 843e bebf 43be 0039 35be
00000120: 237f bcbd dc73 193c eb83 933e c9b7 dc3d
00000130: f14a 1c3c 3d7f a43d 222a 8b3e c134 4fbf
00000140: 5a8d a03e c60e 9d3e d652 debd d86d d2bf
00000150: 496a 3d3d bbe2 8f3d f8e1 b9bc f37b 1dbd
00000160: e6cc 42be 383a 3bbe 343e 1c3e c389 a63d
00000170: 438a b53d 4a94 38be fd29 59be 047f ac3b
00000180: 8b75 32be 9004 443e 64f0 ce3c a499 98be
00000190: 6a0e 913e 6cec a13e b14b a5be 4d78 91bf
000001a0: 64e5 763d f7aa 7ebd 2ba5 a73d c9d7 60be
000001b0: d1e7 0abe e639 e13d 05bd 52bc 1f29 a23d
000001c0: 16bd 8d3d 76d9 e53d f17f b03d a881 2dbd
000001d0: 73a0 20be c9da 7e3d fc78 1e3e 878a 823e
000001e0: 1d38 9f3e e981 52bc 17f2 693d d861 0a3c
000001f0: 9f15 cb3c d76c a7ba a72b 93bd 8f01 22bd
00000200: b303 e6bc 89e4 efb7 94e8 073c 02bf fb3e
00000210: 4f74 65bf e4ba 16bf 8d80 2fbf 4ebd 34c0
00000220: ca7b bebd d135 d33d 3d70 b93d c185 fb3d
00000230: 077d 643e de32 3c3d d7bb 0d3e 2e21 3a3e
00000240: 8807 023e 2fe8 7f3d 7b9d 11bb c44c beba
00000250: c63f 49be 9086 debb c32d 053d 9ab8 85be
00000260: e5f9 a6be e60a a43e 0a1b 4b3e a0fe aebd
00000270: dd33 02bf b062 efbe 32bb 183e 4106 4abd
00000280: bdd2 8dbc 6cab 0abe 2c48 50be e064 6ebd
00000290: 263e e23e ad31 a03c d70c b9be d20e b8bf
000002a0: d23c 2dbe d01e a03e 0b00 8e3e 4777 76be
000002b0: 4459 50bf 83c8 103e 8ab2 e53e aa5e 893e
000002c0: 3844 aabe 017b c4bf 35f3 833e 67c5 a63e
000002d0: 0512 8a3d b756 12bf 4b84 3cbf 6be7 6dbd
000002e0: c7d1 98bc e63b a33d fbb0 0f3b 43cc b33b
000002f0: 6c74 dbbe aee4 fd3c 8a6f 55be 4960 043f
00000300: be7a 893d 6408 fdbc 1024 d8be 4731 d53a
00000310: 1f22 5cbd 8d77 eebd 1549 5d3d 3a12 543d
00000320: ec83 753e 3520 f5bd 36ad 89be 2fa7 66be
00000330: 7c01 c6be 7e9c 853e ee61 30bf 91ab 983e
00000340: b636 10bf bf8e b03e b22c 5cbe 6f89 b63d
00000350: 4ab7 443d ee35 073e 6fee 58bd 64ef 1d3b
00000360: b7ec cebe 57db 463e 1cb7 12bf 4568 99bf
00000370: ab60 533c 6500 b8bc 1381 fb3b 7a9b 043d
00000380: 4a33 0f3d 0cfc 343b 349b 9fbd 262d 01be
00000390: dcbd 773b 12f8 413d d301 a63e a251 b23e
000003a0: b3d8 bd3d 92d9 d93d 2388 703d 9555 d63d
000003b0: add0 2c3d a84e b6bc 72ca 7fbc fd55 433d
000003c0: df33 28bd e6a6 773d 8bd6 8cbc 6060 ab3c
000003d0: 980b 2d3d 403b 7a3d 5641 843d 16bb a9bd
000003e0: 111c babc 2454 a53b 916f c03d da31 273e
000003f0: d95a ab3e 5143 c2be 08b3 04bf 76ac 47bf

fcs.0.bias f4 [128]
-0.12130499 -0.023110338 -0.02946504 -0.030583343 0.16720594 -0.08080621 0.11792753 0.015467088
-0.2370805 0.29856884 -0.09213865 0.0727249 0.10723764 -0.17375639 -0.1391154 -0.0863679
-0.024837188 0.002540831 -0.1618365 -0.11000976 -0.026798975 0.16235699 0.1209477 -0.039017905
0.108048365 0.18403476 0.12280205 -0.15983018 -0.088551216 -0.0856424 0.038249772 0.036655318
-0.26266885 -0.03274947 0.0052742492 -0.15000208 0.17441589 0.27985474 -0.08388094 0.0010059408
0.07826478 0.15990344 0.16645804 0.016608542 0.052182075 -0.098689675 0.0139120435 -0.11575014
-0.18257247 -0.06240614 0.020165207 0.016949218 -0.028158655 -0.11634765 -0.16677569 -0.016495172
-0.092120714 0.24369438 0.10307618 -0.13139081 -0.108723044 0.21630862 0.0049742702 -0.075049944
0.10182835 0.015521855 0.1326429 -0.13608259 -0.1498233 -0.18408011 0.036600526 0.05298415
0.027319819 -0.119373865 -0.16597445 -0.07321685 0.1612163 -0.3096097 0.059182446 0.02763761
-0.010337484 0.033599965 -0.12412069 -0.1275231 -0.08858378 0.060839057 0.17451727 -0.14905123
-0.12387893 0.010924822 0.062851205 -0.09608725 -0.22543064 -0.317588 -0.002889728 0.024640696
-0.009373137 -0.26147377 -0.090194836 0.043628894 -0.090446524 -0.27007997 0.11570785 0.13818988
-0.2735876 -0.27587804 -0.11142049 0.08839782 -0.19110711 -0.11785682 -0.009296954 0.01430854
-0.123508126 -0.17942065 -0.028402342 0.05145968 -0.002433332 0.01850191 0.052990623 -0.00047951075
-0.07754434 0.14912039 0.030132502 -0.40089914 -0.08462617 0.12368174 0.12083817 -0.195046
00000000: c06e f8bd e451 bdbc ab60 f1bc eb89 fabc
00000010: 0938 2b3e ba7d a5bd fd83 f13d ab69 7d3c
00000020: 3bc5 72be 04de 983e 30b3 bcbd cbf0 943d
00000030: 689f db3d 32ed 31be 4474 0ebe a7e1 b0bd
00000040: 5c77 cbbc 1284 263b 78b8 25be cc4c e1bd
00000050: 8689 dbbc e940 263e 6eb3 f73d 3dd1 1fbd
00000060: 7648 dd3d 9c73 3c3e a47f fb3d 86aa 23be
00000070: 575a b5bd 4865 afbd cbab 1c3d e323 163d
00000080: 887c 86be 4f24 06bd 9cd3 ac3b 259a 19be
00000090: 149a 323e 1f49 8f3e c5c9 abbd c6d9 833a
000000a0: 4949 a03d babd 233e fa73 2a3e a30e 883c
000000b0: dfbc 553d d01d cabd 57ef 633c 690e edbd
000000c0: 47f4 3abe 959d 7fbd 8131 a53c 16d9 8a3c
000000d0: fbac e6bc ad47 eebd 3fc7 2abe e220 87bc
000000e0: c9a9 bcbd 058b 793e 9b19 d33d 508b 06be
000000f0: 30aa debd 0280 5d3e 34ff a23b c9b3 99bd
00000100: 628b d03d 614f 7e3c 8ad3 073e 3c59 0bbe
00000110: 476b 19be 7f7f 3cbe 6fea 153d e805 593d
00000120: d0cd df3c 497a f4bd 35f5 29be b7f2 95bd
00000130: e315 253e 2a85 9ebe 4b69 723d 4568 e23c
00000140: 8d5e 29bc 1ea0 093d fd32 febd 6a95 02be
00000150: 6a6b b5bd 6032 793d a8b4 323e e3a0 18be
00000160: 3db4 fdbd 06fe 323c 22b8 803d 64c9 c4bd
00000170: 4ad7 66be e59a a2be 9761 3dbb 49db c93c
00000180: c991 19bc e4df 85be 12b8 b8bd 36b4 323d
00000190: 073c b9bd ec47 8abe 3df8 ec3d a681 0d3e
000001a0: ad13 8cbe e33f 8dbe 6d30 e4bd eb09 b53d
000001b0: 95b1 43be eb5e f1bd 4052 18bc 5e6e 6a3c
000001c0: d4f1 fcbd 0cba 37be 07ac e8bc 63c7 523d
000001d0: 8978 1fbb 5191 973c b20c 593d d866 fbb9
000001e0: 91cf 9ebd 04b3 183e 70d8 f63c a742 cdbe
000001f0: 7c50 adbd da4c fd3d 017a f73d 23ba 47be

fcs.1.weight f4 [64, 128]
-0.22312951 -0.5808284 0.28310275 0.329622 -0.12344574 0.3385592 0.26266527 0.09329534
-0.16992219 -0.073926635 0.091000594 0.2878125 0.014136212 -0.26804933 -0.64568216 0.012579603
-0.08448427 0.1020986 -0.017976863 0.043064613 0.49985948 -0.6766766 0.17340891 0.5806266
-0.07661271 0.009065091 -0.25199088 0.07832056 -0.17878294 -0.5764326 0.06873084 0.2998414
0.3896369 -0.22607134 0.25874534 0.09988464 0.072588295 0.037028354 0.30861863 0.20070824
0.28321138 -0.07292015 0.2815795 -0.007940199 0.19756095 0.094174564 -0.1889774 -0.06904571
0.0077024647 -0.23554906 -0.025469273 -0.002831526 -0.12151084 -0.51977605 0.0366154 -0.1355163
0.008501762 -0.0061957785 0.26671082 0.1432141 0.09926858 -0.09222497 0.025156645 0.09451821
-0.020459834 0.100075565 0.29826912 -0.23989502 0.28333092 -0.010084986 0.1518835 0.088504955
-0.17749159 0.02551051 0.050568532 -0.01778634 -0.2575502 -0.07455929 0.106505044 0.17747873
0.103186004 -0.02686196 0.49561614 -0.12486113 0.0037249606 -0.022171099 -0.049771387 0.014757659
0.09002481 0.07427657 -0.3651195 0.24609876 -0.021555562 -0.0903292 -0.07294303 -0.039567742
0.6704515 0.10253111 -0.46634513 -0.7314346 0.08702417 -0.518417 0.21304558 0.15798186
-0.21523643 0.08477228 0.24260302 -0.10371433 0.14144546 -0.22732021 0.18883151 0.100997016
-0.07447519 -0.31175107 -0.20671344 -0.066177204 0.23460586 0.13484757 -0.0274798 -0.06635856
0.24635525 -0.08595845 0.1943295 -0.2094205 0.27058306 -0.037972324 -0.6251084 0.083746925
-0.044367503 0.10291486 0.23792446 -0.28003225 0.08569601 0.074301995 0.010886425 -0.015682854
-0.033524822 -0.06839113 0.0035400682 0.0792338 -0.08590057 -0.03195918 0.3380295 -0.08995466
-0.43553308 0.15870681 -0.22586687 -0.0899824 -0.06556062 0.44052622 -0.01863266 -0.38865438
0.035309955 0.083400406 0.46026278 -0.34517968 -0.27487722 -0.026467599 0.31582046 -0.24721451
0.05647173 -0.12020809 -0.089878425 -0.44673577 0.07881325 -0.046890177 0.18051133 -0.096129015
0.06634124 0.15986888 -0.06137522 0.32345748 0.055345226 -0.5192704 -0.082595356 0.110912696
-0.12144863 0.2443277 0.1386209 0.15982795 0.0025161053 0.04079558 -0.61808515 -0.24804462
-0.27058116 -0.068807274 0.28141278 -0.17714183 0.036154885 -0.1481562 0.12846589 -0.09542053
0.105417356 0.014873685 -0.64666235 -0.394876 -0.2720274 0.13664941 0.14230973 -0.012553298
0.24378674 0.2036994 0.32116464 -0.72418696 0.13019091 0.21207155 -0.014608209 0.0659538
-0.34468454 -0.07382499 0.06859319 0.04651018 -0.3064991 0.07051868 0.068106204 0.06865355
0.48034984 0.28405946 -0.5932573 -0.13872814 -0.41230604 0.2757467 -0.30439946 -0.28668195
-0.01397074 -0.6155978 0.14618893 0.3879107 0.3096243 -0.28138953 0.20433207 0.068159014
0.06398288 0.17339297 0.130869 -0.59386694 -0.036170553 -0.36591014 -0.019741068 0.40670207
0.15772234 0.19696145 -0.064121164 0.15488334 -0.1330722 0.2531568 0.12669097 -0.13623925
-0.22946657 0.008132801 -0.08478759 0.12658006 -0.42451844 -0.060263317 -0.026132885 0.25631383
00000000: 107c 64be 2cb1 14bf d8f2 903e 37c4 a83e
00000010: 1fd1 fcbd a257 ad3e 107c 863e a111 bf3d
00000020: 1500 2ebe d966 97bd 855e ba3d 295c 933e
00000030: 929b 673c c33d 89be 6d4b 25bf ae1a 4e3c
00000040: 1706 adbd 1219 d13d 3744 93bc 8564 303d
00000050: 95ed ff3e ad3a 2dbf 1b92 313e f2a3 143f
00000060: 20e7 9cbd bf85 143c f304 81be 8866 a03d
00000070: e012 37be 1691 13bf c1c2 8c3d d084 993e
00000080: 7d7e c73e 3f7f 67be 457a 843e 5190 cc3d
00000090: 2ca9 943d 0bab 173d 4303 9e3e 7686 4d3e
000000a0: 1501 913e 2957 95bd 302b 903e 9c17 02bc
000000b0: 6b4d 4a3e 98de c03d 4b83 41be d667 8dbd
000000c0: f564 fc3b c633 71be f0a4 d0bc 2091 39bb
000000d0: adda f8bd 0b10 05bf 08fa 153d c9c4 0abe
000000e0: f94a 0b3c f505 cbbb 528e 883e b8a6 123e
000000f0: 534d cb3d 72e0 bcbd 4f15 ce3c c392 c13d
00000100: 629b a7bc 6bf4 cc3d bbb6 983e 0aa7 75be
00000110: c010 913e 7f3b 25bc 5987 1b3e 1642 b53d
00000120: 5bc0 35be 6bfb d03c f320 4f3d a9b4 91bc
00000130: 9fdd 83be 8bb2 98bd 511f da3d fcbc 353e
00000140: 2f53 d33d 9d0d dcbc 66c1 fd3e 31b7 ffbd
00000150: 781e 743b 2aa0 b5bc 15dd 4bbd 1cca 713c
00000160: ed5e b83d 501e 983d f1f0 babe 5001 7c3e
00000170: 4a95 b0bc 84fe b8bd 2863 95bd c911 22bd
00000180: b6a2 2b3f d5fb d13d cac4 eebe 4c3f 3bbf
00000190: ba39 b23d fab6 04bf 9f28 5a3e ffc5 213e
000001a0: f066 5cbe 179d ad3d ed6c 783e 2e68 d4bd
000001b0: 14d7 103e a1c6 68be 0c5d 413e 86d7 ce3d
000001c0: 7386 98bd d69d 9fbe b0ac 53be ea87 87bd
000001d0: 853c 703e 7b15 0a3e 511d e1bc ffe6 87bd
000001e0: 8d44 7c3e fc0a b0bd 50fe 463e 5472 56be
000001f0: dd89 8a3e de88 1bbd 1b07 20bf 8283 ab3d
00000200: b3ba 35bd 07c5 d23d 78a2 733e 6360 8fbe
00000210: 6481 af3d a52b 983d fa5c 323c 5479 80bc
00000220: 5351 09bd a610 8cbd 7d00 683b 5545 a23d
00000230: a3ec afbd a1e7 02bd 3412 ad3e 263a b8bd
00000240: 31fe debe 0a84 223e a549 67be b148 b8bd
00000250: a544 86bd a78c e13e 85a3 98bc b5fd c6be
00000260: 2ca1 103d d5cd aa3d 90a7 eb3e 64bb b0be
00000270: b5bc 8cbe 94d2 d8bc 38b3 a13e cd25 7dbe
00000280: e74e 673d a92f f6bd 2e12 b8bd 8dba e4be
00000290: d768 a13d ea0f 40bd f6d7 383e 4adf c4bd
000002a0: ebdd 873d abb4 233e 9564 7bbd 389c a53e
000002b0: adb1 623d e8ee 04bf c127 a9bd 3226 e33d
000002c0: 0fba f8bd 0a31 7a3e a3f2 0d3e f0a9 233e
000002d0: 3ee5 243b 4419 273d d43a 1ebf 69ff 7dbe
000002e0: 9d89 8abe d4ea 8cbd 5615 903e ab64 35be
000002f0: 2517 143d 42b6 17be 908c 033e d76b c3bd
00000300: 0ee5 d73d c2b0 733c aa8b 25bf 302d cabe
00000310: 2d47 8bbe d3ed 0b3e a4b9 113e 59ac 4dbc
00000320: 3ba3 793e 9396 503e b16f a43e 5164 39bf
00000330: c450 053e 4929 593e 4557 6fbc c912 873d
00000340: 7e7a b0be 8e31 97bd 967a 8c3d 7581 3e3d
00000350: 73ed 9cbe 196c 903d 447b 8b3d 3c9a 8c3d
00000360: 6af0 f53e 3e70 913e b6df 17bf c00e 0ebe
00000370: c719 d3be ac2e 8d3e 3fda 9bbe fac7 92be
00000380: 88e5 64bc d197 1dbf 8db2 153e 3b9c c63e
00000390: 1487 9e3e 4a12 90be 6d3c 513e f496 8b3d
000003a0: 7509 833d ed8d 313e 8602 063e aa07 18bf
000003b0: 9327 14bd 9358 bbbe 05b8 a1bc 413b d03e
000003c0: f781 213e 43b0 493e f551 83bd bd99 1e3e
000003d0: 1444 08be c59d 813e 47bb 013e 4d82 0bbe
000003e0: 49f9 6abe 713f 053c 1ea5 adbd 349e 013e
000003f0: 7b5a d9be abd6 76bd a214 d6bc 913b 833e

fcs.1.bias f4 [64]
-0.26378277 -0.21357948 0.5971717 0.113369 0.13995141 0.09720962 0.51335293 0.024660708
-0.07105822 -0.2796021 -0.0072581545 0.15687509 -0.012260288 -0.09905352 -0.02940685 0.2928666
0.45198807 -0.04610172 -0.11618009 0.35098532 0.5852089 -0.13541625 0.18808539 0.14687473
-0.008459999 0.14787428 0.29549915 0.2642105 0.46179378 -0.26409793 -0.10184764 0.09623151
-0.10391299 0.5482414 -0.024152419 -0.0403583 -0.09273965 0.098637715 0.011767296 -0.22491181
0.19714965 -0.10500247 -0.06207487 -0.016282674 0.20472923 -0.20578742 0.04880077 -0.14914787
0.082139164 0.30061305 0.17884076 0.11115611 0.32013753 -0.039676722 0.043556534 0.532148
-0.030514158 0.06783232 -0.12250724 0.099082954 -0.03961714 0.28028548 -0.12557606 0.15547426
00000000: 890e 87be 94b4 5abe 3fe0 183f 022e e83d
00000010: 6c4f 0f3e d615 c73d 196b 033f 4105 ca3c
00000020: f986 91bd 0228 8fbe d0d5 edbb dda3 203e
00000030: 60df 48bc 92dc cabd a2e6 f0bc 9cf2 953e
00000040: fb6a e73e 28d5 3cbd d4ef edbd 59b4 b33e
00000050: 40d0 153f 8faa 0abe 7599 403e 5466 163e
00000060: cf9b 0abc 5b6c 173e aa4b 973e 9946 873e
00000070: 3c70 ec3e d837 87be 7f95 d0bd 0715 c53d
00000080: 55d0 d4bd 8c59 0c3f 4bdb c5bc bf4e 25bd
00000090: 49ee bdbd 9202 ca3d 9ecb 403c 484f 66be
000000a0: 99e1 493e 890b d7bd 3842 7ebd 3e63 85bc
000000b0: 8aa4 513e f0b9 52be 51e3 473d 38ba 18be
000000c0: 9438 a83d f4e9 993e 0822 373e d1a5 e33d
000000d0: 11e9 a33e 0f84 22bd 5668 323d da3a 083f
000000e0: d4f8 f9bc aceb 8a3d 13e5 fabd 01ec ca3d
000000f0: 9545 22bd 9481 8f3e 0397 00be a534 1f3e

fcs.2.weight f4 [16, 64]
0.052653488 0.041985307 7.511664e-05 0.049331885 -0.02428315 -0.060227312 0.06569201 -0.0571348
-0.025916131 -0.078900196 0.085077435 0.06680433 -0.04550427 0.10761902 0.078397214 0.002175289
-0.1121025 -0.118525006 0.017712027 0.018065138 -0.11617757 0.09430113 0.007549519 0.0067196246
-0.13814862 -0.11553598 0.056301273 -0.06260045 -0.062321864 -0.077541634 -0.07802836 0.08212707
0.040749576 -0.046419393 0.09815017 -0.072971255 -0.04634465 0.040221874 -0.08887419 0.14643562
0.04757407 -0.025157042 -0.102939054 0.10314476 -0.055669338 -0.0597976 0.15485549 -0.045191392
0.10178422 -0.06829952 -0.092936754 -0.064995185 -0.16875744 0.079115316 0.0118306745 -0.022904105
-0.113665946 0.065761715 0.0796025 0.07210721 -0.037432354 0.03029438 0.084757514 -0.04696807
0.0051137153 0.04905547 -0.022896718 -0.05385823 0.039898396 0.004608962 -0.07947937 -0.020208675
0.06916868 0.11158367 -0.033000633 0.062940866 0.108387135 0.069881715 0.05357429 -0.1250848
-0.089851044 -0.07506319 0.12169172 -0.016673708 -0.14174385 -0.133288 -0.11420958 -0.108147085
-0.0866538 -0.07941891 0.063404605 -0.080951296 0.07679272 -0.037171043 -0.11877395 -0.068902485
-0.06568989 -0.10905865 -0.11374744 -0.0016476974 -0.108193174 -0.045813963 -0.032855958 -0.06974588
-0.012830246 -0.12130202 -0.052907392 0.10101271 0.08147058 -0.0017324592 0.03477232 0.081746675
0.11423661 -0.08886291 0.0008329256 -0.056847814 -0.10718427 0.08856526 0.0704852 -0.028941886
0.09363218 0.026146818 0.051976666 0.0409343 0.04687263 0.005937445 0.052185517 0.09946424
0.25687593 -0.058369417 -0.024421329 0.14585096 0.043600213 0.15707074 -0.037171137 -0.6954876
0.016158026 0.12174067 -0.0046955943 0.22653322 0.07543508 -0.032578025 0.16795407 -0.12130421
-0.06690504 -0.6328741 0.0023677314 -0.26229563 0.10839979 -0.14851685 -1.1219355 0.18723531
0.15724677 -0.07800461 0.057172947 0.10314709 0.053901196 0.015868798 0.14998932 -0.1421855
-0.69160986 -0.13883935 -0.4472125 0.43280095 -0.020509206 -0.026494628 0.3874714 -0.02330294
0.10891886 -0.90976244 0.40430912 0.1571214 0.24403737 0.14247155 -0.14390893 -0.4040971
0.14292672 0.25511128 0.18213752 0.18137832 -0.2333935 0.14633442 -0.47262412 0.089653134
0.5904621 0.32552588 0.3351457 0.07282087 0.04442652 -0.2054455 1.111347 -0.21326762
-0.18119499 -0.3039781 0.25779364 0.112644635 0.47135693 0.08997433 0.120921195 0.46638498
-0.0725111 -0.23330697 -0.10143676 0.07403059 -0.07441134 0.0515703 0.4172939 0.05660427
0.22608185 -0.075249515 -0.08527836 0.111377545 0.33486262 -0.013386969 -0.045984186 0.06853977
-1.0885797 0.009352481 0.10357654 0.15295772 0.1830195 -0.1846965 -0.20840266 0.24199529
-1.8817829 0.2033874 0.09124265 0.68241715 -0.49056068 0.30944702 -1.0745596 -0.03314928
0.31950456 -0.28405926 0.27851334 0.028552765 0.18180996 -0.10556949 0.46711805 0.12960972
-0.075737484 0.18480405 0.21707056 0.13472395 0.09906018 -0.7458383 0.14857087 0.24811818
0.7041824 0.3436556 -0.26057243 -0.20775904 -0.26455992 0.08535349 -1.098479 0.1229346
00000000: 2fab 573d c9f8 2b3d f087 9d38 3b10 4a3d
00000010: 75ed c6bc eab0 76bd 8889 863d 2e06 6abd
00000020: 114e d4bc 6d96 a1bd 143d ae3d b5d0 883d
00000030: af62 3abd 5c67 dc3d b88e a03d 4b8f 0e3b
00000040: ff95 e5bd 3dbd f2bd d018 913c 57fd 933c
00000050: 81ee edbd f320 c13d f561 f73b 4c30 dc3b
00000060: d576 0dbe 219e ecbd 2a9c 663d aa34 80bd
00000070: 3645 7fbd 26ce 9ebd 55cd 9fbd 3d32 a83d
00000080: 07e9 263d 4322 3ebd f502 c93d f471 95bd
00000090: e3d3 3dbd b1bf 243d ac03 b6bd 38f3 153e
000000a0: 07dd 423d 2416 cebc b6d1 d2bd 8f3d d33d
000000b0: 8805 64bd 54ee 74bd 7092 1e3e 9c1a 39bd
000000c0: 3f74 d03d 9ee0 8bbd a055 bebd 321c 85bd
000000d0: c0ce 2cbe 3607 a23d 72d5 413c 64a1 bbbc
000000e0: b1c9 e8bd 14ae 863d a306 a33d f2ac 933d
000000f0: ab52 19bd eb2b f83c 5995 ad3d 9761 40bd
00000100: f490 a73b 63ee 483d e691 bbbc 739a 5cbd
00000110: 806c 233d c706 973b 14c6 a2bd aa8c a5bc
00000120: 4fa8 8d3d fb85 e43d ac2b 07bd 24e7 803d
00000130: 13fa dd3d 251e 8f3d b770 5b3d 3b16 00be
00000140: d303 b8bd bbba 99bd 8239 f93d 4d97 88bc
00000150: 4d25 11be a67c 08be b6e6 e9bd 387c ddbd
00000160: 8c77 b1bd 62a6 a2bd 46da 813d cbc9 a5bd
00000170: 8045 9d3d aa40 18bd c23f f3bd bf1c 8dbd
00000180: 6c88 86bd 245a dfbd 6bf4 e8bd 8df7 d7ba
00000190: 6294 ddbd 6ca7 3bbd f893 06bd eed6 8ebd
000001a0: f435 52bc 326d f8bd 6cb5 58bd c0df ce3d
000001b0: 0cda a63d af13 e3ba 6c6d 0e3d cd6a a73d
000001c0: e2f4 e93d c2fd b5bd b158 5a3a 41d9 68bd
000001d0: 6d83 dbbd b461 b53d 8b5a 903d 8917 edbc
000001e0: 3ac2 bf3d da31 d63c 7ce5 543d b9aa 273d
000001f0: 84fd 3f3d e68e c23b 7bc0 553d e8b3 cb3d
00000200: 3e85 833e c514 6fbd 3d0f c8bc f459 153e
00000210: 2396 323d 27d7 203e c340 18bd 7a0b 32bf
00000220: d65d 843c 2c53 f93d 80dd 99bb 53f8 673e
00000230: b57d 9a3d 8970 05bd 27fc 2b3e 576e f8bd
00000240: 8205 89bd 0904 22bf f12b 1b3b 9d4b 86be
00000250: b600 de3d cd14 18be 959b 8fbf 9dba 3f3e
00000260: 4c05 213e e2c0 9fbd 2e2e 6a3d c83e d33d
00000270: 80c7 5c3d 48ff 813c cd96 193e 1399 11be
00000280: 580d 31bf e72b 0ebe 09f9 e4be 1698 dd3e
00000290: ec02 a8bc 430b d9bc a762 c63e cfe5 bebc
000002a0: da10 df3d 31e6 68bf 9b01 cf3e 6fe4 203e
000002b0: efe4 793e 10e4 113e dd5c 13be d1e5 cebe
000002c0: 625b 123e f29d 823e 4282 3a3e 3dbb 393e
000002d0: b5fe 6ebe b1d8 153e cafb f1be 109c b73d
000002e0: 8628 173f 54ab a63e 3898 ab3e 1c23 953d
000002f0: 95f8 353d 4e60 52be 9e40 8e3f d462 5abe
00000300: 2e8b 39be 04a3 9bbe 87fd 833e 3bb2 e63d
00000310: b255 f13e 7644 b83d 88a5 f73d 03ca ee3e
00000320: b380 94bd 06e8 6ebe 13be cfbd 5a9d 973d
00000330: f964 98bd 613b 533d 8ca7 d53e e1d9 673d
00000340: 0082 673e 6b1c 9abd 6ca6 aebd e919 e43d
00000350: 1d73 ab3e 0555 5bbc ea59 3cbd 945e 8c3d
00000360: 9456 8bbf 263b 193c f01f d43d f3a0 1c3e
00000370: 7769 3b3e 1421 3dbe 8267 55be 9dcd 773e
00000380: 43de f0bf c944 503e 6ddd ba3d e4b2 2e3f
00000390: c52a fbbe d76f 9e3e 2b8b 89bf 8ac7 07bd
000003a0: 1a96 a33e 3770 91be 4d99 8e3e 7de7 e93c
000003b0: 642c 3a3e d134 d8bd 192a ef3e 69b8 043e
000003c0: 411c 9bbd 463d 3d3e bf47 5e3e 13f5 093e
000003d0: 10e0 ca3d 42ef 3ebf f622 183e b112 7e3e
000003e0: 4c45 343f a0f3 af3e c069 85be c9be 54be
000003f0: 6674 87be d0cd ae3d f69a 8cbf 23c5 fb3d

fcs.2.bias f4 [16]
-0.10387134 -0.120133154 0.20648994 0.74942666 -0.13311806 -0.10570046 0.57417077 -0.18400042
-0.10915373 0.068066664 0.4811291 0.57032955 0.61121833 0.46020836 -0.14084826 0.17687759
00000000: 7fba d4bd 5f08 f6bd 1972 533e 6dda 3f3f
00000010: 1a50 08be 7c79 d8bd dbfc 123f 9b6a 3cbe
00000020: fe8b dfbd 8966 8b3d 8e56 f63e 1e01 123f
00000030: ce78 1c3f 6ea0 eb3e 873a 10be 661f 353e

fcs.3.weight f4 [4, 16]
-0.09965456 -0.0155178085 -0.013029744 0.44058272 -0.23808603 -0.0751745 0.13783905 -0.07735427
-0.1533803 0.7737086 0.14411236 0.36540985 0.29651338 0.34912285 -0.48148915 0.11937804
-0.08401124 -0.014079755 0.11849011 0.049244296 -0.055472407 0.10040914 0.28996083 -0.04212388
0.1300783 0.49028927 0.24847142 0.4513879 0.42564407 0.42780736 -0.38657817 0.085504755
-0.07434325 -0.0019868708 0.074845985 0.46659565 -0.0699246 0.03431675 0.3144507 0.16309197
-0.20502082 -0.58028543 0.208013 -0.009706128 0.34468955 0.2560917 -0.49220067 -0.2967405
0.078383245 -0.12943059 0.50969183 0.35801762 0.15999669 0.027280217 0.29587936 -0.2994297
0.23803267 0.7158575 0.4198586 0.44560295 0.20807223 -0.049532663 -0.12166475 -0.11566114
00000000: b117 ccbd 683e 7ebc b57a 55bc 0f94 e13e
00000010: d3cc 73be 17f5 99bd ae25 0d3e ea6b 9ebd
00000020: ba0f 1dbe c411 463f 3192 133e 0017 bb3e
00000030: 9ad0 973e 3bc0 b23e bf85 f6be 797c f43d
00000040: 160e acbd c6ae 66bc f1aa f23d 63b4 493d
00000050: 0937 63bd 4fa3 cd3d bf75 943e 178a 2cbd
00000060: 3f33 053e 3207 fb3e 4b6f 7e3e 511c e73e
00000070: 05ee d93e 9109 db3e 93ed c5be 1e1d af3d
00000080: 4641 98bd 2936 02bb da48 993d a0e5 ee3e
00000090: a134 8fbd b88f 0c3d afff a03e 9501 273e
000000a0: faf0 51be 968d 14bf 5c01 553e 7406 1fbc
000000b0: 267b b03e 741e 833e ba01 fcbe 5fee 97be
000000c0: 6587 a03d 7489 04be 2a7b 023f 164e b73e
000000d0: 2cd6 233e c37a df3c 807d 973e da4e 99be
000000e0: d6be 733e 7042 373f b5f7 d63e 1226 e43e
000000f0: e310 553e c3e2 4abd 5e2b f9bd bfdf ecbd

fcs.3.bias f4 [4]
0.3598621 0.3497259 0.34289742 0.62919927
00000000: d83f b83e 460f b33e 4090 af3e 3413 213f
