trained_agents/dueling_dqn-Best.pth (torch_old, 70821 bytes, 17 tensors)

shared_fcs.0.weight f4 [128, 37]
0.07438188 -0.2113812 -0.031431075 -0.27629513 0.096174784 -0.34041378 0.14992708 0.12161518
0.001644001 -0.4319788 0.0654946 -0.033729795 -0.06475089 -0.20436381 -0.50324804 -0.16564608
-0.022682127 0.34877914 -0.48426664 0.19048911 0.10227882 0.04589054 0.051506326 -0.03164026
0.3923592 -0.29672137 0.4154443 -0.3064258 -0.18632977 -0.047842298 -0.12665573 0.08512361
-0.13404332 0.18995853 -0.4232839 -0.010882119 -0.045867316 0.24351151 -0.19133238 -0.06913925
0.08614177 -0.2765159 0.07089702 -0.13048975 -0.15257896 -0.52452683 -0.18051738 0.029521327
0.006441798 -0.13148159 0.1111776 0.1598895 0.27106515 -0.16260174 -0.07182894 -0.15779214
-0.038812216 -0.03085358 -0.31418458 -0.2177219 0.0049310373 0.09812822 0.1033578 -0.19384924
-0.1125765 0.095577054 0.40492457 0.015122729 0.089181714 0.14171334 -0.19913238 0.002634133
0.018484447 0.061854832 -0.05090109 0.16579613 -0.015323421 -0.18139665 -0.49341968 -0.5843234
0.10814584 0.32635593 -0.015372216 -0.22350715 0.22119029 -0.2430393 -0.20404671 -0.07470562
0.25213793 0.08882426 0.021656424 -0.059908602 0.20370212 -0.01364722 -0.21953431 -0.33403346
0.061163153 0.16018474 0.07861028 0.003075375 -0.007854689 0.2583416 -0.41262951 0.27141088
-0.14651397 -0.31114763 0.12261214 -0.16726008 -0.13138683 -0.028684845 -0.016850756 0.13891082
0.029654585 0.08147617 0.03279618 -0.20472284 0.0021518674 0.27223134 -0.5036414 -0.07531259
-0.42430735 0.109229065 -0.0062564714 0.006268086 -0.65984106 0.114750564 -0.020391345 0.25449872
-0.49196324 -0.30589586 -0.24042228 0.1828091 -0.2096762 -0.39423972 0.21586555 0.04784501
-0.17249128 -0.7304757 0.36573985 0.33411697 -0.2619725 0.33231437 -0.2581633 -0.7256203
-0.69436675 -0.96479136 -0.006799573 -0.06218157 0.16878133 -0.26517674 -0.27341473 -0.19912605
-0.36593896 0.26846194 -0.044224624 -0.67895466 -0.89781076 -1.2178473 -0.120603025 -0.17469145
0.16622442 -0.17488785 -0.39129496 -0.14202628 0.15742801 -0.39720947 -0.08748817 0.028677663
-0.2720378 -0.08347926 0.21657105 0.27284136 0.0759422 0.13410115 -0.117298596 -0.030736389
-0.25342143 0.02857139 0.016582636 0.11481418 -0.23112768 0.35730612 0.5100733 0.09449036
0.031492013 -0.24967103 -0.075384066 0.10332612 -0.18218867 0.15229659 -0.123698905 0.14574687
0.108618885 -0.2555105 -0.7386121 -0.05454836 0.12163494 -0.4689534 -0.07910542 -0.008055414
-0.08622415 -0.07952892 0.061383888 -0.120913 0.0643824 0.063624375 0.1945477 -0.1375224
0.035257626 -0.42869535 -0.16141097 0.15281601 -0.35985956 0.1256164 0.19117679 -0.032395348
-0.03650273 -0.31187713 0.134231 -1.0603012 0.16314718 0.08205739 0.18262145 -0.042647444
-0.13617197 -0.038781054 -0.7601036 -0.3143439 -0.21751139 0.30293104 0.025571294 0.54847383
-0.07547617 0.07887661 0.17311265 0.1822516 -0.042510252 -0.147251 -0.1415159 0.035357963
0.22042102 0.35165873 -0.027737187 -0.03530921 0.1410197 -0.1820556 0.4091128 0.0045681815
-0.1218954 -0.17341483 -0.111873426 -0.35011026 -0.0059808735 0.18740746 -0.10719066 -0.24067527
00000000: 8755 983d 5074 58be dfbd 00bd 8e76 8dbe
00000010: 49f7 c43d b74a aebe 7c86 193e 6111 f93d
00000020: 857b d73a 532c ddbe 0822 863d 4128 0abd
00000030: 1d9c 84bd bf44 51be ddd4 00bf 209f 29be
00000040: decf b9bc 2e93 b23e ccf1 f7be 940f 433e
00000050: 8f77 d13d b8f7 3b3d 4cf8 523d 3899 01bd
00000060: 4ee3 c83e ddeb 97be 1eb5 d43e d8e3 9cbe
00000070: 3bcd 3ebe 49f6 43bd 0ab2 01be 4a55 ae3d
00000080: a742 09be 7d84 423e abb8 d8be ea4a 32bc
00000090: 5edf 3bbd 155b 793e a3ec 43be e198 8dbd
000000a0: 196b b03d 7e93 8dbe 7532 913d 1b9f 05be
000000b0: a93d 1cbe 6447 06bf 8cd9 38be b6d6 f13c
000000c0: b815 d33b 1ca3 06be 15b1 e33d 13ba 233e
000000d0: 0dc9 8a3e 1281 26be 0d1b 93bd 4394 21be
000000e0: 8ff9 1ebd a6c0 fcbc cddc a0be 7df2 5ebe
000000f0: 8a94 a13b 73f7 c83d 41ad d33d 6a80 46be
00000100: 828e e6bd e7bd c33d 4652 cf3e 53c5 773c
00000110: e7a4 b63d 4d1d 113e 5ce9 4bbe 6ba1 2c3b
00000120: b26c 973c 7e5b 7d3d a97d 50bd 76c6 293e
00000130: 160f 7bbc 0bc0 39be 81a1 fcbe 3896 15bf
00000140: 917b dd3d 2018 a73e bfdb 7bbc 0fdf 64be
00000150: b57f 623e 4bdf 78be 9ff1 50be 43ff 98bd
00000160: 3918 813e 7ee9 b53d d068 b13c b962 75bd
00000170: 4a97 503e 9798 5fbc 9acd 60be 6f06 abbe
00000180: 3786 7a3d 7807 243e 6dfe a03d 3b8c 493b
00000190: f4b0 00bc 5a45 843e 2d44 d3be 5ef6 8a3e
000001a0: c207 16be be4e 9fbe 131c fb3d 3a46 2bbe
000001b0: 458a 06be 7bfc eabc 990a 8abc a33e 0e3e
000001c0: 2cee f23c fadc a63d 4a55 063d dda2 51be
000001d0: 5806 0d3b e861 8b3e a5ee 00bf 7d3d 9abd
000001e0: d03e d9be 7db3 df3d 1603 cdbb 8464 cd3b
000001f0: 58eb 28bf 5802 eb3d c00b a7bc a84d 823e
00000200: 9be2 fbbe 629e 9cbe 4231 76be 4f32 3b3e
00000210: 5cb5 56be cad9 c9be dc0b 5d3e 21f9 433d
00000220: 8ea1 30be 7500 3bbf 4142 bb3e 6111 ab3e
00000230: 4221 86be 1c25 aa3e fb2d 84be 41c2 39bf
00000240: 05c2 31bf 91fc 76bf f4ce debb 1ab2 7ebd
00000250: 03d5 2c3e 3fc5 87be 04fd 8bbe b3e7 4bbe
00000260: 5a5c bbbe d873 893e e124 35bd f9cf 2dbf
00000270: edd6 65bf 6ce2 9bbf b8fe f6bd 51e2 32be
00000280: bc36 2a3e cd15 33be d057 c8be 566f 11be
00000290: cf34 213e 0a5f cbbe ff2c b3bd 6bed ea3c
000002a0: 8a48 8bbe 2df7 aabd cdc4 5d3e ddb1 8b3e
000002b0: 9687 9b3d d051 093e 3f3a f0bd e1ca fbbc
000002c0: 74c0 81be 8c0e ea3c 4fd8 873c b223 eb3d
000002d0: bcac 6cbe d4f0 b63e 2a94 023f 2984 c13d
000002e0: c5fd 003d c3a9 7fbe f662 9abd a59c d33d
000002f0: ab8f 3abe a3f3 1b3e da55 fdbd ab3e 153e
00000300: 9473 de3d 46d2 82be af15 3dbf 1a6e 5fbd
00000310: bd1b f93d a91a f0be 0602 a2bd dbfa 03bc
00000320: 4a96 b0bd 0fe0 a2bd ac6d 7b3d 3ca1 f7bd
00000330: ebda 833d 7f4d 823d 8337 473e acd2 0cbe
00000340: 4d6a 103d f57d dbbe eb48 25be cd7b 1c3e
00000350: 833f b8be 96a1 003e d9c3 433e fcb0 04bd
00000360: e383 15bd 5cae 9fbe da73 093e f3b7 87bf
00000370: 0e10 273e b40d a83d 1e01 3b3e 16af 2ebd
00000380: aa70 0bbe e2d8 1ebd 2696 42bf aff1 a0be
00000390: 4ebb 5ebe c719 9b3e e47a d13c c868 0c3f
000003a0: 4093 9abd 0f8a a13d 7144 313e 2aa0 3a3e
000003b0: 3b1f 2ebd f7c8 16be 8be9 10be 83d3 103d
000003c0: 0cb6 613e 9d0c b43e 1939 e3bc 64a0 10bd
000003d0: 7867 103e c96c 3abe 3c77 d13e afb0 953b
000003e0: 4ca4 f9bd a893 31be e51d e5bd a741 b3be
000003f0: 34fb c3bb bee7 3f3e c786 dbbd 9473 76be

shared_fcs.0.bias f4 [128]
-0.047006674 -0.0710616 -0.058370233 -0.005790863 0.038799673 -0.20864889 0.02584766 0.08304078
-0.21086796 0.07379941 -0.19677396 -0.018645028 -0.15411489 -0.013260751 -0.13352276 -0.1155512
-0.074710794 -0.21754827 -0.1134851 0.08185772 -0.07865666 0.020470852 0.07392033 -0.05963345
0.14951591 0.07277767 0.17440844 -0.06180088 0.016684009 -0.050189536 0.09842918 0.18059282
-0.12623265 -0.011748813 -0.006398199 -0.06442523 -0.04697481 -0.060473572 0.10900158 -0.03309231
-0.14942478 0.06753503 0.09004924 -0.10604363 -0.042807747 -0.18922794 0.004038081 -0.056345526
-0.2465826 0.06967342 -0.042499937 -0.0046097757 -0.029912373 0.17974345 0.02711739 0.0858853
-0.106250644 -0.109245874 0.042359818 -0.0035930586 -0.14145368 -0.019069534 0.07357977 -0.12605733
0.066349775 -0.034721036 0.14027204 -0.25901952 -0.10189681 -0.067483395 -0.11733779 0.002623459
0.18066107 -0.06929458 -0.22507556 -0.00942486 0.073851906 -0.166447 -0.0035617799 0.10543071
-0.035983652 0.02097616 -0.06830685 -0.098189935 -0.101413175 0.12781677 0.021122996 -0.028201314
0.10039432 0.029084062 0.12762019 -0.15662338 -0.2377722 -0.10642861 -0.045618877 0.023424003
-0.10790582 -0.13729794 -0.08169803 0.043231644 -0.2603737 -0.20425428 0.12491925 0.22796823
-0.21493562 -0.12810013 -0.16422194 0.06279256 -0.04191769 -0.024561588 0.029874139 -0.015499717
-0.17226063 -0.03230405 -0.104403 0.08154339 0.12836352 0.14963354 -0.056856133 -0.039218947
-0.13850003 0.13291174 -0.13148034 -0.22251539 -0.08192471 0.13681427 0.09297883 -0.1000519
00000000: 128a 40bd bf88 91bd a015 6fbd 48c1 bdbb
00000010: 68ec 1e3d 0ea8 55be 79be d33c 4911 aa3d
00000020: c5ed 57be 2524 973d 1d7f 49be 75bd 98bc
00000030: 4bd0 1dbe 9f43 59bc 31ba 08be 1ca6 ecbd
00000040: f901 99bd f9c4 5ebe e06a e8bd 05a5 a73d
00000050: be16 a1bd 7db2 a73c 8b63 973d 3442 74bd
00000060: b31a 193e 760c 953d 2098 323e eb22 7dbd
00000070: e7ac 883c 8b93 4dbd 3d95 c93d 53ed 383e
00000080: 2243 01be 187e 40bc fca7 d1bb 60f1 83bd
00000090: a968 40bd 23b3 77bd 383c df3d cd8b 07bd
000000a0: cf02 19be ce4f 8a3d bc6b b83d 672d d9bd
000000b0: 2d57 2fbd f8c4 41be e151 843b 91ca 66bd
000000c0: 2680 7cbe f0b0 8e3d 6a14 2ebd 9a0d 97bb
000000d0: cb0a f5bc ab0e 383e 4a25 de3c a2e4 af3d
000000e0: f099 d9bd 4dbc dfbd 7d81 2d3d 8579 6bbb
000000f0: 3cd9 10be b637 9cbc feb0 963d 2c15 01be
00000100: 64e2 873d a537 0ebd 79a3 0f3e 359e 84be
00000110: 46af d0bd bc34 8abd cc4e f0bd 57ee 2b3b
00000120: 37ff 383e 51ea 8dbd 357a 66be ba6a 1abc
00000130: ab3f 973d 1571 2abe c06c 69bb 0eec d73d
00000140: 9863 13bd 32d6 ab3c 76e4 8bbd ce17 c9bd
00000150: b6b1 cfbd 66e2 023e 220a ad3c 7106 e7bc
00000160: 8a9b cd3d b341 ee3c deae 023e e161 20be
00000170: 8e7a 73be 3ef7 d9bd dcda 3abd b2e3 bf3c
00000180: bafd dcbd d597 0cbe 4c51 a7bd aa13 313d
00000190: b44f 85be 0928 51be aad5 ff3d 8170 693e
000001a0: 1518 5cbe ae2c 03be cc29 28be 6399 803d
000001b0: e2b1 2bbd 6235 c9bc 9cba f43c 86f2 7dbc
000001c0: 1765 30be 4051 04bd 3dd1 d5bd 3900 a73d
000001d0: ba71 033e 8939 193e fae1 68bd 0ca4 20bd
000001e0: f4d2 0dbe 041a 083e c8a2 06be 13db 63be
000001f0: 24c8 a7bd 0a19 0c3e af6b be3d 03e8 ccbd

shared_fcs.1.weight f4 [64, 128]
-0.025412578 -0.13877645 -0.22098649 -0.11498184 0.1697482 -0.23415653 0.12041452 -0.41272953
0.28339085 0.42286718 0.09926349 0.39096418 0.37392986 -0.2534219 -0.18088627 0.108990856
0.34957403 -0.0061348416 -0.062287293 -0.72188497 0.03493948 0.038296092 -0.09235669 0.004753525
-0.0006534503 0.05053488 -0.515411 0.3178605 -0.35470563 -0.3401413 0.09024761 -0.0683641
0.08164463 -0.051394932 -0.21673377 0.15996695 -0.12696466 0.1875652 -0.22784029 0.15183447
0.073052734 -0.5805997 -0.14425676 0.042317502 0.051308267 -0.13155492 -0.0025789891 0.11630094
-0.11534376 -0.18710926 -0.16723351 -0.33881912 0.20612392 -0.28189418 0.06627613 -0.41122815
0.3091072 -0.059211396 -0.30745476 -0.116820395 0.049324058 -0.11349833 0.08604889 -0.17899425
-0.11708605 -0.12316151 -0.19469383 -0.33815917 -0.0060215723 0.10701964 -0.013765069 0.14585921
-0.62458605 -0.0071566566 0.10160974 -0.43041277 0.02138904 -0.002741323 0.129965 0.056379247
-0.35228854 0.17267123 0.14764862 -0.5089026 0.03728865 -0.08082858 -0.45762032 -0.31754735
-0.055406723 0.13587138 -0.03192116 0.12056424 -0.19448924 -0.51749086 0.29642388 0.36892256
-0.06830759 -0.030686682 -0.55059725 0.051481653 -0.025610812 0.0093079815 -0.2142186 -0.33328706
-0.3697673 -0.16377017 -0.0042597395 -0.18636239 0.29361665 -0.35322133 -0.027148616 0.2545276
0.13188975 0.026262356 0.16552483 0.13718931 0.04710963 0.1642075 -0.44296446 0.10296288
0.09613038 -0.20935468 0.08519468 -0.5260947 -0.018616103 -0.37951365 0.116369076 -0.24712357
-0.1368034 -0.15834528 0.03012879 -0.1233383 0.036041453 -0.38841194 0.12671122 -0.122595325
0.30224958 -0.044159956 0.13853598 0.042019438 0.21304545 0.037764717 -0.28624815 -0.21897389
0.12030915 0.14722122 0.056138854 0.020628419 -0.04749817 -0.17260866 0.029200044 -0.28149092
-0.13488081 0.12612604 0.2465675 0.16197018 -0.12568574 -0.00638449 0.052118983 -0.31408927
-0.2534382 -0.13230714 -0.02098779 0.13631284 -0.0037145764 0.07691935 -0.38771114 -0.6565267
-0.80247915 0.50886554 0.3101511 -0.075859986 0.05094068 -0.49629363 -0.19809215 0.28052226
0.23428844 0.07694609 -0.23505954 -0.3854089 -0.2076812 0.00018370908 -0.1028224 0.11450091
0.14291364 -0.21431638 -0.15187617 0.13778076 -0.28566608 -0.2126652 0.20915414 -0.36372527
-0.14126673 0.10442804 -0.26018745 0.13333438 0.3229187 -0.24408196 -0.058185622 0.034662265
0.09779168 0.20493719 0.14600831 -0.29939935 -0.25322065 -0.0021051725 -0.5254613 -0.80939955
-0.63576186 -0.06985314 0.10421066 0.34070063 0.07467447 -0.33595648 -0.19247115 -0.25460798
0.17367171 0.23753452 0.11468855 0.03171705 0.21679592 -0.44192904 -0.38944367 -0.47500828
0.1598175 0.18821038 0.3200634 -0.0058354284 -0.002222391 -0.03970342 0.083072715 -0.2647079
0.08822424 0.08276922 0.19795482 0.28038198 -0.18717234 -0.2846916 -0.11444675 -0.012545584
-0.11212436 0.06609825 -0.09543422 -0.46125612 -0.027452623 0.4143126 0.24932878 -0.07530137
-0.11261391 0.11878661 -0.36903703 0.18426432 0.004022523 0.0009908407 -0.5192423 0.16700657
00000000: 0a2e d0bc 6a1b 0ebe 484a 62be 997b ebbd
00000010: 79d2 2d3e bbc6 6fbe e39b f63d 4951 d3be
00000020: 9b18 913e 0c82 d83e a84a cb3d 752c c83e
00000030: bc73 bf3e 84c0 81be 403a 39be 9936 df3d
00000040: 5efb b23e c806 c9bb f620 7fbd 74cd 38bf
00000050: b31c 0f3d 5ddc 1c3d 8125 bdbd 75c3 9b3b
00000060: 4f4c 2bba aafd 4e3d faf1 03bf 9dbe a23e
00000070: fa9b b5be 0027 aebe bdd3 b83d 7a02 8cbd
00000080: 4d35 a73d 7e83 52bd 75ef 5dbe 60ce 233e
00000090: 0603 02be 1711 403e f74e 69be 7f7a 1b3e
000000a0: ac9c 953d 2fa2 14bf 0bb8 13be 1e55 2d3d
000000b0: 9e28 523d 55b6 06be 4204 29bb 302f ee3d
000000c0: 5939 ecbd 9299 3fbe 433f 2bbe b379 adbe
000000d0: 2612 533e 6f54 90be c8bb 873d 7f8c d2be
000000e0: 4d43 9e3e a687 72bd b66a 9dbe 883f efbd
000000f0: 0608 4a3d d071 e8bd 673a b03d 454a 37be
00000100: d0ca efbd 1a3c fcbd d25d 47be 3323 adbe
00000110: 9c50 c5bb 1d2d db3d e286 61bc 1e5c 153e
00000120: dfe4 1fbf 6382 eabb c418 d03d 105f dcbe
00000130: 1138 af3c c5a7 33bb 8c15 053e eded 663d
00000140: 2a5f b4be bad0 303e 3331 173e 7147 02bf
00000150: fcbb 183d 7489 a5bd 364d eabe 9195 a2be
00000160: 29f2 62bd de21 0b3e c3bf 02bd 62ea f63d
00000170: 3028 47be 487a 04bf dfc4 973e 6be3 bc3e
00000180: dae4 8bbd a362 fbbc f1f3 0cbf 6dde 523d
00000190: c4cd d1bc 8180 183c 1f5c 5bbe 9aa4 aabe
000001a0: 2452 bdbe 5eb3 27be 4995 8bbb c8d5 3ebe
000001b0: ec54 963e 6dd9 b4be c666 debc 7151 823e
000001c0: 1b0e 073e 2724 d73c 577f 293e 5b7b 0c3e
000001d0: 07f6 403d 0326 283e 3dcc e2be 34de d23d
000001e0: 01e0 c43d 1361 56be 8c7a ae3d 24ae 06bf
000001f0: cc80 98bc 9d4f c2be e952 ee3d f60d 7dbe
00000200: 3116 0cbe 4425 22be a7d0 f63c ca98 fcbd
00000210: 34a0 133d eedd c6be 96c0 013e 4213 fbbd
00000220: 75c0 9a3e 12e1 34bd 60dc 0d3e 931c 2c3d
00000230: 9628 5a3e 2daf 1a3d 1e8f 92be b13a 60be
00000240: a564 f63d 29c1 163e dbf1 653d eefc a83c
00000250: 718d 42bd 53c0 30be ee34 ef3c 941f 90be
00000260: 321e 0abe 2f27 013e 317c 7c3e 83db 253e
00000270: c3b3 00be fc34 d1bb b77a 553d 4fd0 a0be
00000280: a7c2 81be 867b 07be 96ee abbc 9895 0b3e
00000290: 4070 73bb e487 9d3d 1382 c6be 2212 28bf
000002a0: 466f 4dbf 0345 023f 20cc 9e3e 7b5c 9bbd
000002b0: 2da7 503d 331a febe abd8 4abe 9da0 8f3e
000002c0: 4fe9 6f3e e995 9d3d 73b3 70be 5154 c5be
000002d0: 61aa 54be 08a2 4039 8d94 d2bd 747f ea3d
000002e0: f457 123e c175 5bbe 6d85 1bbe 6616 0d3e
000002f0: d342 92be e8c4 59be 812c 563e 333a babe
00000300: 3aa8 10be 5ede d53d 4a37 85be cf88 083e
00000310: 9a55 a53e 9ff0 79be 0c54 6ebd 05fa 0d3d
00000320: 0147 c83d 0edb 513e 3483 153e df4a 99be
00000330: 23a6 81be eff6 09bb a284 06bf cf34 4fbf
00000340: 4ac1 22bf 2a0f 8fbd 666c d53d 5070 ae3e
00000350: eeee 983d 7d02 acbe 2817 45be fa5b 82be
00000360: ffd6 313e 403c 733e d5e1 ea3d bde9 013d
00000370: c0ff 5d3e 8644 e2be 2965 c7be 4934 f3be
00000380: 33a7 233e 39ba 403e 5adf a33e 1f37 bfbb
00000390: 89a5 11bb 0ea0 22bd 0722 aa3d cb87 87be
000003a0: e9ae b43d e982 a93d abb4 4a3e 3a8e 8f3e
000003b0: 1baa 3fbe 19c3 91be 0f63 eabd fe8b 4dbc
000003c0: 75a1 e5bd 855e 873d 0473 c3bd c329 ecbe
000003d0: 53e4 e0bc c820 d43e 0b50 7f3e 9b37 9abd
000003e0: 1fa2 e6bd 6546 f33d 6cf2 bcbe c9af 3c3e
000003f0: 5ecf 833b 19df 813a 10ed 04bf c503 2b3e

shared_fcs.1.bias f4 [64]
-0.11862449 -0.04925644 0.026177086 -0.101887584 0.16919357 0.080533855 -0.071967036 -0.034050453
-0.17516325 -0.13537915 0.22529876 -0.035239607 -0.07410546 -0.109080985 -0.10345557 -0.09864457
0.027311742 0.054998286 -0.051307824 -0.17657353 -0.03459845 -0.009700995 -0.048000056 -0.09404577
0.069320224 0.00063566957 0.041600477 0.028645668 0.011515831 -0.033232175 0.25063682 -0.053011928
-0.019564528 0.053165585 0.065135695 -0.1990726 -0.008607482 -0.06269368 0.014445412 -0.1154759
0.096570626 -0.13772324 0.102622606 -0.022128236 0.12367622 0.04583429 -0.19723043 0.06197764
-0.0036426152 -0.0060087848 0.041442867 0.036981013 -0.045335427 0.13031477 -0.012765779 -0.019109644
-0.012178962 -0.056597676 0.07506209 0.08784642 0.09567674 -0.06862845 -0.16146396 -0.010105641
00000000: 66f1 f2bd 1fc1 49bd 5471 d63c 70aa d0bd
00000010: 1441 2d3e efee a43d 7463 93bd 7d78 0bbd
00000020: ff5d 33be d5a0 0abe b8b4 663e 6857 10bd
00000030: 9ac4 97bd da65 dfbd 84e0 d3bd 2a06 cabd
00000040: e0bc df3c e245 613d 2728 52bd b1cf 34be
00000050: 1bb7 0dbd ecf0 1ebc b59b 44bd 129b c0bd
00000060: c3f7 8d3d 10a3 263a 4365 2a3d 52aa ea3c
00000070: e5ac 3c3c 761e 08bd 7853 803e 0923 59bd
00000080: ca45 a0bc 28c4 593d dd65 853d b0d9 4bbe
00000090: 6506 0dbc 8b65 80bd 73ac 6c3c a17e ecbd
000000a0: d2c6 c53d 5207 0dbe cd2b d23d 4646 b5bc
000000b0: f549 fd3d bdbc 3b3d c6f6 49be 44dc 7d3d
000000c0: f1b8 6ebb 57e5 c4bb ffbf 293d 6779 173d
000000d0: a4b1 39bd 3c71 053e 8f27 51bc d48b 9cbc
000000e0: 458a 47bc f7d2 67bd 27ba 993d d3e8 b33d
000000f0: 2bf2 c33d 138d 8cbd cf56 25be 2192 25bc

shared_fcs.2.weight f4 [16, 64]
-0.0866463 -0.30614373 0.15523879 0.04720092 0.0761014 -0.87084705 -0.09638326 -0.49525473
-0.11344751 -0.084904365 0.15168908 0.44665635 -0.10894028 -0.0826853 -0.034010142 0.1790214
-0.1095134 -0.092154026 0.06230988 0.19570139 -0.51839453 0.047903452 0.20942457 -0.124865025
-0.25351283 -0.16583073 0.41752303 -0.10061094 -0.09040838 -0.43651167 -0.43478677 0.07310866
-0.28475428 -0.3759535 0.033722676 -0.3944649 0.059987437 0.13337813 -0.22500423 -0.16846977
0.26439732 -0.2914329 -0.13714145 0.06302112 0.15228309 0.06589798 -0.076875634 -0.30774876
0.20600124 -0.5746908 -0.65165305 -0.41858816 0.2311548 0.29275808 0.12613092 -0.16141893
-0.2625127 -0.23513319 0.11743248 0.12023245 -0.5033787 -0.031507898 0.33169395 -0.15225232
-0.10525806 0.20833482 -0.046664275 0.18223365 0.18638714 -0.1021189 -0.2752441 0.24020123
-0.12647553 0.118926674 -0.2895369 0.25163692 0.3154179 0.22741315 0.03185874 -0.17767325
-0.12808912 -0.157202 -0.039504603 -0.084442146 -0.04691795 0.19319151 -0.15711705 -0.14201277
-0.16173963 0.06707364 0.3774845 0.09217195 0.059204783 -0.015806746 -0.36205947 -0.260262
-0.24233694 -0.34158626 -0.22117178 0.18280421 -0.12092412 -0.12531596 -0.8574651 0.15204982
-0.024884326 -0.20342956 0.107521296 0.20046623 -0.06062046 -0.0026002214 -0.25496706 0.30386922
0.066225626 0.047181062 0.08347726 -0.502637 -0.19135068 0.061225053 0.09580438 0.10559707
-0.097781435 -0.089375205 0.2379567 -0.22257175 0.129605 -0.392107 0.32414594 0.093534075
0.0041154255 0.00758436 0.081775464 -0.038788963 0.15084091 0.00121517 -0.15365021 -0.26466775
0.038216747 -0.05176923 0.1360062 0.13353448 -0.0010119599 -0.18239489 0.4769732 -0.50233746
-0.09048569 -0.10608136 -0.010881958 0.029954923 0.0809471 0.25302118 0.06788936 -0.27190706
-0.18953307 -0.011531623 0.286633 -0.29209793 -0.08899408 0.018799925 0.21883541 -0.049862612
-0.17140272 0.007960311 -0.088732064 -0.7233764 0.26351815 0.35828033 0.2358786 0.2325088
0.13095187 -0.3223991 0.520925 0.20115086 1.0054983 -0.08503262 -0.44897482 -0.2253929
-0.18296722 0.099934876 0.032903753 0.2077171 0.02269745 -0.031494427 0.3717898 0.13869613
-0.099634066 0.4302421 -0.03959774 -0.025783813 0.14018843 -0.13174318 -0.031966195 -0.17812544
-0.5968763 -0.13118312 0.02865405 0.29212272 0.03710294 0.07548359 -0.16600746 -0.5918705
0.07770399 -0.115588956 -0.024233775 0.32172775 -0.25497225 0.017654065 -0.16605447 0.03182624
0.06704602 -0.21225967 0.08811001 0.2919375 0.16046302 0.34884384 0.11136657 0.054274444
-0.029965049 0.15009238 0.31435016 0.21237883 0.09058165 0.058044717 -0.490704 0.11151715
-0.1120647 0.2021173 -0.07232325 -0.110737555 -0.21267244 0.3268615 0.13262637 0.27166495
0.13132825 -0.38870063 0.035923515 0.00029243884 0.16343163 0.059092477 -0.12268516 0.17569898
-0.29348564 0.20436728 -0.023401953 -0.16851494 0.2791116 -0.041153025 -0.14292955 0.25236997
0.00071215676 -0.27213982 0.12280214 -0.3470791 -0.42787653 -0.17933975 -0.05847867 0.041997626
00000000: 9e73 b1bd dfbe 9cbe ebf6 1e3e c055 413d
00000010: 0ddb 9b3d d5ef 5ebf 9664 c5bd 0792 fdbe
00000020: 2b57 e8bd 57e2 adbd 6254 1b3e 24b0 e43e
00000030: 151c dfbd e956 a9bd 384e 0bbd 6351 373e
00000040: 9048 e0bd 40bb bcbd a538 7f3d f265 483e
00000050: 81b5 04bf 6936 443d 6573 563e 3cb9 ffbd
00000060: 6fcc 81be 88cf 29be 94c5 d53e 1c0d cebd
00000070: 0728 b9bd 757e dfbe 5f9c debe feb9 953d
00000080: 50cb 91be fa7c c0be ca20 0a3d 4ef7 c9be
00000090: 63b5 753d 4794 083e 8267 66be 5783 2cbe
000000a0: 165f 873e b136 95be cf6e 0cbe 3811 813d
000000b0: 19f0 1b3e 85f5 863d f970 9dbd 3f91 9dbe
000000c0: fdf1 523e f01e 13bf bcd2 26bf 3051 d6be
000000d0: d8b3 6c3e 63e4 953e 7728 013e 014b 25be
000000e0: 1168 86be c1c6 70be 7180 f03d 6e3c f63d
000000f0: 6ddd 00bf 6d0e 01bd cad3 a93e 08e8 1bbe
00000100: 8a91 d7bd b955 553e 0a23 3fbd 759b 3a3e
00000110: 45dc 3e3e b723 d1bd cbec 8cbe 50f7 753e
00000120: cd82 01be d48f f33d 2e3e 94be 8ed6 803e
00000130: 747e a13e fede 683e 4f7e 023d faef 35be
00000140: cb29 03be 90f9 20be 94cf 21bd 01f0 acbd
00000150: 092d 40bd ffd3 453e 4be3 20be cc6b 11be
00000160: 139f 25be e85d 893d a645 c13e a6c4 bc3d
00000170: b780 723d 267d 81bc dc5f b9be 1041 85be
00000180: 2d27 78be 65e4 aebe db7a 62be 0731 3b3e
00000190: 11a7 f7bd d452 00be d582 5bbf f3b2 1b3e
000001a0: 37da cbbc d74f 50be 2034 dc3d 0547 4d3e
000001b0: 294d 78bd 7a68 2abb 0b8b 82be bf94 9b3e
000001c0: 4da1 873d ee40 413d 20f6 aa3d d2ac 00bf
000001d0: 6ff1 43be 1fc7 7a3d 1635 c43d 4743 d83d
000001e0: a241 c8bd 590a b7bd ecaa 733e d9e9 63be
000001f0: 2cb7 043e 40c2 c8be 75f6 a53e cb8e bf3d
00000200: b1da 863b 3986 f83b e579 a73d 2de1 1ebd
00000210: 0a76 1a3e 5746 9f3a 7b56 1dbe 8882 87be
00000220: 2a89 1c3d f90b 54bd 3645 0b3e 43bd 083e
00000230: bda3 84ba bac5 3abe d535 f43e 3099 00bf
00000240: 9050 b9bd 2f41 d9bd 3d4a 32bc 0764 f53c
00000250: 98c7 a53d fe8b 813e 9409 8b3d 6737 8bbe
00000260: f514 42be 22ef 3cbc 90c1 923e dc8d 95be
00000270: 8742 b6bd 4d02 9a3c 6416 603e bd3c 4cbd
00000280: 3284 2fbe f76b 023c 28b9 b5bd 322f 39bf
00000290: daeb 863e 8570 b73e 298a 713e c916 6e3e
000002a0: 3f18 063e 7f11 a5be 575b 053f 7efa 4d3e
000002b0: 2bb4 803f 9525 aebd 07e0 e5be 65cd 66be
000002c0: c25b 3bbe a8aa cc3d 16c6 063d cbb3 543e
000002d0: 01f0 b93c 4d00 01bd 3c5b be3e 5c06 0e3e
000002e0: f20c ccbd b148 dc3e 3d31 22bd 9338 d3bc
000002f0: 8e8d 0f3e afe7 06be fcee 02bd 8466 36be
00000300: e3cc 18bf de54 06be e6bb ea3c 1c91 953e
00000310: 41f9 173d 2497 9a3d dcfd 29be d384 17bf
00000320: 4523 9f3d e7b9 ecbd e985 c6bc 80b9 a43e
00000330: b98b 82be 429f 903c 2f0a 2abe 3b5c 023d
00000340: 6c4f 893d 995a 59be 0573 b43d d578 953e
00000350: 6b50 243e a99b b23e 2814 e43d e14e 5e3d
00000360: 4379 f5bc d1b1 193e 81f2 a03e d679 593e
00000370: df82 b93d 4cc0 6d3d 8e3d fbbe 1b63 e43d
00000380: 2d82 e5bd d6f7 4e3e 361e 94bd 5fca e2bd
00000390: cec6 59be 645a a73e 35cf 073e ab17 8b3e
000003a0: ea7a 063e c503 c7be 8924 133d 7a52 9939
000003b0: 9f5a 273e f40a 723d 5b42 fbbd 6fea 333e
000003c0: c043 96be a845 513e 74b5 bfbc 2e8f 2cbe
000003d0: b7e7 8e3e 1390 28bd 205c 12be a336 813e
000003e0: 08b0 3a3a e955 8bbe b07f fb3d 5ab4 b1be
000003f0: a212 dbbe d7a4 37be 5487 6fbd b405 2c3d

shared_fcs.2.bias f4 [16]
-0.029997038 -0.02788127 0.23274142 0.24235037 0.011344424 0.016737435 0.22705881 0.07340305
-0.042166136 0.3817587 0.070807375 0.09638998 0.047952563 0.03676636 0.04903421 0.06747582
00000000: 59bc f5bc 4367 e4bc c453 6e3e b22a 783e
00000010: f7dd 393c f21c 893c 1b82 683e 5754 963d
00000020: 66b6 2cbd e075 c33e 7503 913d 1c68 c53d
00000030: e869 443d 5398 163d 19d8 483d c330 8a3d

value_fcs.0.weight f4 [32, 16]
-0.7765092 0.00026719237 -0.03213218 0.098822445 -0.10099419 -0.2770047 -0.00832057 -0.1413843
-0.3768628 0.10640071 -0.033785265 0.08122759 0.11982232 0.35626957 -0.16900499 0.22370589
-0.42753512 -0.019650035 0.22449212 -0.038182534 0.037191335 0.1712015 0.24016888 -0.12650637
0.15214953 0.28126624 0.14313352 0.13849065 0.25410697 0.4218374 0.29278836 0.070516914
-0.25759554 -0.12443338 -0.09261667 0.20737712 -0.10555958 0.05027136 0.04944176 0.14609651
-0.08537983 -0.27702042 -0.095727496 -0.08483569 -0.10587973 0.12841235 -0.20262295 -0.44989806
0.107035056 -0.07259867 0.22019485 0.5183458 -0.03944605 -0.0913448 0.018829443 -0.43519083
0.3178827 -0.4687731 -0.004646682 0.19085158 0.089508206 -0.36695135 -0.3380103 -0.064038195
-0.22715037 0.17862192 -0.13743599 0.16003056 -0.1739303 0.07450903 -0.01682961 -0.027831584
0.09511676 -0.25250828 0.20893228 -0.07601586 0.06919092 -0.1889962 -0.13040066 -0.046966985
-0.430097 -0.30580395 0.3429434 0.04653683 -0.20217447 -0.035889365 0.1885238 -0.16437936
0.3944026 -0.046949808 -0.021693293 0.2403472 -0.5445649 -0.13303675 -0.19366603 -0.5311439
0.19468196 0.26158655 0.13328879 0.018110055 -0.33982944 -0.15323292 -0.015880972 -0.124960154
0.1266191 -0.114623114 -0.17290029 0.10714826 -0.41154814 0.025546065 -0.10448695 0.23315527
-0.2737996 0.17876236 0.22140555 -0.09464566 -0.12555915 0.3743579 -0.08345094 0.32946545
-0.32058698 -0.3741243 0.10423251 -0.35966066 -0.047220953 0.046412535 0.045595773 0.16536471
-0.42336157 0.3328547 -0.2892881 0.39484853 -0.1258407 -0.21975642 0.10812106 0.1539958
0.15140018 0.26708812 -0.045516085 -0.16455334 0.08078529 -0.15147391 0.29968742 -0.29254618
0.1088171 0.0938929 -0.22254801 -0.24116811 -0.06305707 0.0032786736 -0.15079576 -0.06638861
-0.05388245 -0.26744503 -0.104749024 -0.13142428 -0.046882518 0.1882293 0.090536386 0.05683099
-0.13531047 -0.021847231 0.256471 -0.11425263 0.12040779 0.1339855 0.13422303 -0.20241284
0.09400759 -0.006758979 0.09376709 -0.073427886 0.0390157 0.054984678 0.030932391 0.03658795
-0.029143084 0.35408047 -0.83157414 0.04309036 -0.4974267 -0.15947777 -0.31763002 0.04581026
-0.0034955312 0.1683266 -0.01324286 0.020779038 -0.39132527 -0.10792519 -0.3818544 -0.34490144
0.05700925 -0.08611626 -0.3288409 -0.06852513 0.16502622 0.054911822 0.046668403 -0.18855236
-0.1928198 -0.21362686 -0.07980321 -0.010470934 -0.14483008 0.0062175663 0.10075444 -0.1202817
-0.5033732 -0.11875957 0.38644388 -0.19400866 0.04107926 0.18132752 -0.011624952 0.27431676
-0.08824967 0.31500947 0.15956901 -0.18419167 0.391066 0.06343487 0.2982078 -0.033647474
-0.4420679 0.13426258 0.048436902 -0.3087282 0.27571023 -0.01366875 -0.04604975 0.14592463
0.20705555 0.31584418 -0.084271885 -0.2138842 0.2474632 -0.11867955 0.20139498 0.05697991
-0.03732949 0.5168489 0.08069017 -0.22984049 -0.16951449 -0.0053011617 -0.3320857 0.13290818
0.041853257 -0.0122748865 -0.0152116455 -0.026144592 0.14320828 -0.18334003 -0.19649954 0.40182263
00000000: 4fc9 46bf f415 8c39 089d 03bd 6c63 ca3d
00000010: 0bd6 cebd 8fd3 8dbe 0053 08bc 0cc7 10be
00000020: 29f4 c0be 9ee8 d93d 6b62 0abd a75a a63d
00000030: 6865 f53d f768 b63e a50f 2dbe 2813 653e
00000040: e2e5 dabe 1cf9 a0bc 43e1 653e 4a65 1cbd
00000050: f155 183d 724f 2f3e d5ee 753e e38a 01be
00000060: 16cd 1b3e 2102 903e 9891 123e 7ed0 0d3e
00000070: 4f1a 823e 12fb d73e 5be8 953e 2c6b 903d
00000080: 90e3 83be eed6 febd cfad bdbd ab5a 543e
00000090: 9f2f d8bd 57e9 4d3d 7183 4a3d 539a 153e
000000a0: 9fdb aebd 9fd5 8dbe c70c c4bd 56be adbd
000000b0: 79d7 d8bd 877e 033e 647c 4fbe 0a59 e6be
000000c0: 3235 db3d 9dae 94bd c27a 613e 4fb2 043f
000000d0: 2e92 21bd fc12 bbbd 3440 9a3c 55d1 debe
000000e0: 85c1 a23e 0703 f0be 3243 98bb 996e 433e
000000f0: 1450 b73d 0ce1 bbbe b00f adbe 7526 83bd
00000100: 1b9a 68be aae8 363e 05bc 0cbe 0ddf 233e
00000110: c91a 32be 3198 983d 40de 89bc 10ff e3bc
00000120: 93cc c23d c448 81be 58f2 553e 34ae 9bbd
00000130: f8b3 8d3d 3888 41be c087 05be 7460 40bd
00000140: ad35 dcbe 5692 9cbe 4796 af3e 679d 3e3d
00000150: d306 4fbe ba00 13bd 620c 413e 1053 28be
00000160: 23ef c93e 714e 40bd 22b6 b1bc 941d 763e
00000170: 9b68 0bbf c93a 08be 6350 46be 0cf9 07bf
00000180: b55a 473e acee 853e db7c 083e 8a5b 943c
00000190: 20fe adbe 17e9 1cbe d018 82bc 1ceb ffbd
000001a0: 70a8 013e 86bf eabd c60c 31be 8c70 db3d
000001b0: 70b6 d2be fb45 d13c 41fd d5bd 41c0 6e3e
000001c0: 762f 8cbe 7b0d 373e 23b8 623e 95d5 c1bd
000001d0: 9492 00be d7ab bf3e 54e8 aabd b2af a83e
000001e0: fa23 a4be 388d bfbe db77 d53d 7125 b8be
000001f0: c26a 41bd 121b 3e3d a2c2 3a3d 5e55 293e
00000200: d9c2 d8be ee6b aa3e 921d 94be 9629 ca3e
00000210: 62dc 00be d407 61be 936e dd3d 13b1 1d3e
00000220: a608 1b3e c6bf 883e 136f 3abd ac80 28be
00000230: c272 a53d fa1b 1bbe a170 993e 9dc8 95be
00000240: 80db de3d ec4a c03d a0e3 63be c6f4 76be
00000250: 1124 81bd 04df 563b 346a 1abe c0f6 87bd
00000260: d8b3 5cbd 8eee 88be a886 d6bd 1694 06be
00000270: e207 40bd 2ebf 403e 246b b93d 9dc7 683d
00000280: d48e 0abe f7f8 b2bc 2b50 833e 48fd e9bd
00000290: 5c98 f63d 7f33 093e c371 093e 5045 4fbe
000002a0: 0d87 c03d 6d7a ddbb f608 c03d 5c61 96bd
000002b0: edce 1f3d 9d37 613d ed65 fd3c 3fdd 153d
000002c0: 7abd eebc 094a b53e 0be2 54bf 847f 303d
000002d0: b6ae febe 244e 23be 67a0 a2be 8aa3 3b3d
000002e0: 4815 65bb cf5d 2c3e 95f8 58bc cd38 aa3c
000002f0: c95b c8be e207 ddbd 6b82 c3be ec96 b0be
00000300: 8882 693d b95d b0bd d65d a8be e756 8cbd
00000310: a2fc 283e 38eb 603d 5e27 3f3d df13 41be
00000320: 8e72 45be 00c1 5abe de6f a3bd 488e 2bbc
00000330: 564e 14be babc cb3b 5858 ce3d 4056 f6bd
00000340: 11dd 00bf 3838 f3bd f9db c53e 35aa 46be
00000350: ba42 283d ecad 393e 9576 3ebc 3f73 8c3e
00000360: 3ebc b4bd ec48 a13e 0f66 233e be9c 3cbe
00000370: ce39 c83e 24ea 813d b1ae 983e efd1 09bd
00000380: b956 e2be 217c 093e c665 463d 9f11 9ebe
00000390: e429 8d3e e5f2 5fbc aa9e 3cbd 446d 153e
000003a0: 5f06 543e 54b6 a13e bd96 acbd 7604 5bbe
000003b0: fe66 7d3e 440e f3bd 7c3a 4e3e c463 693d
000003c0: cfe6 18bd 3650 043f e340 a53d 4e5b 6bbe
000003d0: 3595 2dbe 5eb5 adbb 2307 aabe 1519 083e
000003e0: 526e 2b3d 9b1c 49bc 443a 79bc 2f2d d6bc
000003f0: 31a5 123e 7dbd 3bbe 2d37 49be b2bb cd3e

value_fcs.0.bias f4 [32]
0.47033873 0.35025802 -0.10554691 -0.2330223 -0.12109855 0.14869897 -0.24313597 0.2805464
0.12951607 -0.22948763 0.3307684 0.15334459 -0.18440373 0.39379215 0.41900092 -0.27112514
0.4878211 0.18263417 0.36053458 0.14079839 0.22506613 -0.2720472 0.119872764 0.5040217
-0.2489619 0.009048892 0.51578623 -0.1031129 -0.11406428 0.1831209 0.16156586 -0.38248342
00000000: 3dd0 f03e 0555 b33e fa28 d8bd 669d 6ebe
00000010: 8402 f8bd 8b44 183e a3f8 78be c7a3 8f3e
00000020: dc9f 043e cefe 6abe 7a5a a93e 5d06 1d3e
00000030: 55d4 3cbe 209f c93e 4a87 d63e ead0 8abe
00000040: b0c3 f93e 7404 3b3e fd97 b83e 742d 103e
00000050: bc77 663e c549 8bbe da7f f53d 9107 013f
00000060: deef 7ebe ce41 143c 910a 043f db2c d3bd
00000070: 899a e9bd 0c84 3b3e 8571 253e ded4 c3be

value_fcs.1.weight f4 [16, 32]
0.24552639 0.16777818 0.29693037 -0.42761436 -0.113762274 0.28519225 0.22779045 0.16523379
0.2595802 0.14655778 0.302005 0.23324776 -0.07962002 0.32678485 0.28631246 -0.1669794
0.28491992 -0.52496004 0.2935829 0.039308984 0.26002005 -0.16608644 -0.12146668 0.1923192
0.047221623 -0.031473964 0.34610477 -0.4512414 0.13778615 -0.063631654 0.113577075 -0.21683621
0.027119458 -0.1635794 -0.013727337 0.14568488 0.08855115 -0.005329907 -0.09071454 0.037167847
0.15533222 0.08859326 0.0033728182 0.054005682 0.014321208 -0.042773336 -0.12978476 -0.08394887
-0.075221226 -0.10330352 0.17051454 -0.15069097 0.009027898 0.009909421 -0.088735886 -0.02179633
0.06450944 -0.124015376 0.058698714 -0.009608448 -0.085870095 -0.13597332 -0.017192632 -0.08271547
0.051637884 -0.19238584 0.13381164 0.15418229 0.014383987 -0.12869321 -0.21290529 0.07391824
0.06013678 0.14683153 -0.13192628 0.09222596 -0.07172072 -0.1477054 0.0030590275 -0.051228434
0.06876073 -0.10109261 0.10627092 -0.13605615 0.036356553 0.11767797 -0.057412747 -0.17453966
0.066597685 -0.1603473 -0.101410314 -0.08811529 -0.093141794 0.15465195 -0.21715364 -0.0034499937
-0.08537109 0.23192947 0.13045715 -0.33317807 -0.11819494 0.2049541 0.2650996 -0.108574525
0.20874971 0.057712965 -0.07287137 0.32268336 -0.025875961 0.23311462 0.015368176 -0.1825653
-0.022929352 -0.39018437 0.36299947 0.28140852 0.1584997 -0.28370285 0.1103531 0.33115152
0.10133075 0.18383881 0.26729986 -0.38895765 0.1683303 -0.06659796 0.0942347 -0.5842648
-0.12439487 0.005646197 0.14439857 0.14208925 0.1717328 -0.22279248 -0.05114901 -0.060138177
-0.16301546 0.036728993 0.017954452 -0.089179955 0.10469347 -0.021806074 -0.15184557 0.022121783
-0.126288 0.1991634 -0.101138525 -0.34188974 0.0350632 -0.12574342 0.1447383 0.04185663
0.18517227 0.10125134 -0.20425001 -0.028499158 0.061215293 0.13579239 -0.056471914 0.10739483
0.2513792 0.34247354 0.25519323 -0.7473685 -0.1251868 -0.04392373 -0.27661917 0.16425154
0.0921284 -0.14919676 0.24326058 0.1304587 -0.030868625 0.23982258 0.13939919 -0.030845601
0.13186124 -0.5894072 0.36029994 0.17813131 0.31488892 -0.051509477 -0.6053577 0.3433614
-0.012162383 -0.3204781 0.25447717 -0.24032336 -0.053392958 -0.6063455 0.00062578067 -0.27183416
0.07102909 -0.030918565 0.085075185 -0.20455751 0.091886684 -0.6123407 0.15984151 0.06616285
0.20793693 0.16269584 -0.22632183 0.19849579 0.0300002 0.09858634 0.16281785 0.52168417
-0.12478877 -0.03526474 -0.084031 -0.16746347 -0.29020238 0.16588993 -0.24680823 0.03168597
-0.15358846 -0.13051768 -0.07293331 -0.07879134 -0.4400642 0.07809203 0.8332728 0.39175764
-0.1419202 0.026480347 -0.09998766 -0.15872358 0.16465695 -0.18664396 -0.16676927 -0.15571976
0.08976604 -0.13357224 0.038446363 -0.1483224 0.045760393 0.047422007 -0.15254568 -0.02057369
-0.14563452 0.14353919 -0.06347323 -0.14801079 -0.06742852 0.06590134 -0.13156208 0.1028436
0.02845186 -0.14579184 0.10006565 0.05372887 0.08352242 -0.019214556 -0.09033208 -0.10506259
00000000: 456b 7b3e 0bce 2b3e 4207 983e 45f0 dabe
00000010: 32fc e8bd b804 923e e641 693e 0c33 293e
00000020: b2e7 843e 3e13 163e 66a0 9a3e 80d8 6e3e
00000030: d20f a3bd 5850 a73e 8c97 923e a6fc 2abe
00000040: 06e1 913e c863 06bf 7f50 963e 7502 213d
00000050: 5921 853e 9012 2abe 86c3 f8bd 53ef 443e
00000060: 766b 413d d8ea 00bd a534 b13e 1d09 e7be
00000070: d017 0d3e 5051 82bd 199b e83d 500a 5ebe
00000080: a029 de3c 5c81 27be a0e8 60bc 6b2e 153e
00000090: 4e5a b53d 80a6 aebb 8bc8 b9bd 503d 183d
000000a0: 690f 1f3e 6270 b53d 800a 5d3b 1035 5d3d
000000b0: 80a3 6a3c 1833 2fbd 4ce6 04be 63ed abbd
000000c0: 960d 9abd cc90 d3bd 5d9b 2e3e bc4e 1abe
000000d0: c0e9 133c 205b 223c 29bb b5bd 388e b2bc
000000e0: 861d 843d c6fb fdbd 106e 703d c06c 1dbc
000000f0: a9dc afbd 973c 0bbe 90d7 8cbc ba66 a9bd
00000100: 3f82 533d cb00 45be eb05 093e f6e1 1d3e
00000110: d0aa 6b3c 27c8 03be d803 5abe 7262 973d
00000120: fc51 763d 015b 163e af17 07be f7e0 bc3d
00000130: 50e2 92bd 1640 17be f779 483b e8d4 51bd
00000140: 6dd2 8c3d a409 cfbd 91a4 d93d 4e52 0bbe
00000150: 9cea 143d 2601 f13d a129 6bbd 86ba 32be
00000160: 5e64 883d 1532 24be 36b0 cfbd ca75 b4bd
00000170: 20c1 bebd 155d 1e3e 865d 5ebe 4a19 62bb
00000180: 0ad7 aebd eb7e 6d3e 8f96 053e 5196 aabe
00000190: 3010 f2bd 7ddf 513e 23bb 873e 525c debd
000001a0: 7cc2 553e 6e64 6c3d 963d 95bd c136 a53e
000001b0: d3f9 d3bc 99b5 6e3e cdca 7b3c 66f2 3abe
000001c0: 56d6 bbbc 3fc6 c7be 11db b93e c714 903e
000001d0: bf4d 223e 8041 91be ce00 e23d b18c a93e
000001e0: 7f86 cf3d 3e40 3c3e 87db 883e 7525 c7be
000001f0: c75e 2c3e 8364 88bd 1ffe c03d 6192 15bf
00000200: bdc2 febd bc03 b93b 38dd 133e d87f 113e
00000210: b9da 2f3e b623 64be a081 51bd 7353 76bd
00000220: 86ed 26be 2471 163d 3715 933c fba3 b6bd
00000230: 8869 d63d a7a2 b2bc 687d 1bbe be38 b53c
00000240: a451 01be 7ef1 4b3e b721 cfbd 2c0c afbe
00000250: 6e9e 0f3d e2c2 00be 4736 143e dc71 2b3d
00000260: cd9d 3d3e dd5c cf3d ea26 51be 1177 e9bc
00000270: e3bc 7a3d 290d 0b3e 184f 67bd d2f1 db3d
00000280: c6b4 803e b158 af3e b0a8 823e 8b53 3fbf
00000290: f830 00be 5ee9 33bd 07a1 8dbe 8e31 283e
000002a0: d1ad bc3d 09c7 18be 4d19 793e f796 053e
000002b0: 33e0 fcbc 0d94 753e a9be 0e3e eaaf fcbc
000002c0: a206 073e 64e3 16bf 3c79 b83e 0e68 363e
000002d0: 1f39 a13e 9afb 52bd b9f8 1abf 11cd af3e
000002e0: bb44 47bc b515 a4be d54a 823e 5417 76be
000002f0: 93b2 5abd 7539 1bbf 6e0b 243a d92d 8bbe
00000300: b377 913d ee48 fdbc e63b ae3d 8677 51be
00000310: 162f bc3d 5cc2 1cbf 7ead 233e 6380 873d
00000320: 6bed 543e bd99 263e e9c0 67be 7b42 4b3e
00000330: fbc2 f53c a3e7 c93d b9b9 263e 188d 053f
00000340: 4191 ffbd c371 10bd 7218 acbd 8b7b 2bbe
00000350: 6895 94be 0ddf 293e 4cbb 7cbe 26c9 013d
00000360: 4b46 1dbe 6da6 05be 0f5e 95bd 5b5d a1bd
00000370: 1850 e1be b7ee 9f3d 5e51 553f 7594 c83e
00000380: 8753 11be 50ed d83c 55c6 ccbd 6f88 22be
00000390: d59b 283e 981f 3fbe 90c5 2abe 0075 1fbe
000003a0: 42d7 b73d 29c7 08be ef79 1d3d d4e1 17be
000003b0: 406f 3b3d 943d 423d ef34 1cbe 288a a8bc
000003c0: 3721 15be f0fb 123e 41fe 81bd 2490 17be
000003d0: f717 8abd 48f7 863d 36b8 06be aa9f d23d
000003e0: e013 e93c 754a 15be 38ef cc3d ce12 5c3d
000003f0: cd0d ab3d d867 9dbc 0700 b9bd 0e2b d7bd

value_fcs.1.bias f4 [16]
0.42437464 -0.12570864 0.036390845 0.20057583 -0.009315143 0.53751314 -0.23571815 -0.08391787
0.43995935 0.12402195 -0.15454097 0.5933536 -0.21129793 0.6026706 0.5960554 -0.293297
00000000: a247 d93e c4b9 00be 910e 153d c063 4d3e
00000010: 8b9e 18bc 769a 093f 1960 71be 22dd abbd
00000020: 5a42 e13e 38ff fd3d fd3f 1ebe 06e6 173f
00000030: 7c5e 58be 9f48 1a3f 1697 183f 062b 96be

value_fcs.2.weight f4 [1, 16]
0.35326636 0.061629176 -0.16594051 0.22673027 0.04342575 0.45918086 -0.20918281 -0.0068199877
0.4265839 -0.6816084 -0.18502387 0.4631461 0.35591772 0.37587535 0.3268673 -0.10202357
00000000: 54df b43e e06e 7c3d 4fec 29be fb2b 683e
00000010: 33df 313d c119 eb3e 0534 56be 347a dfbb
00000020: 3469 da3e e37d 2ebf e676 3dbe 7c21 ed3e
00000030: d93a b63e bc72 c03e 275b a73e bcf1 d0bd

advantage_fcs.0.weight f4 [32, 16]
-0.09175659 0.24720943 0.0036663671 -0.40107635 0.19628811 0.2839347 0.18320097 0.28827402
0.38992882 -0.010737604 0.08043347 0.3336432 0.06689245 -0.024314988 0.053057306 -0.10265466
-0.18463863 0.036414742 0.007926397 0.03651165 -0.041666873 0.1778986 -0.19649756 -0.030781796
0.029807987 -0.12562078 -0.0181534 -0.24106494 -0.014385351 -0.0049040793 -0.056380976 -0.24414876
0.9107225 -0.13240877 -0.31238616 0.30775836 0.0921386 0.33332503 0.22991759 -0.056473646
0.32670254 -0.06845584 -0.06562406 -0.36571234 -0.16404621 -0.16965285 -0.10947706 -0.18336222
0.046847433 -0.026405364 -0.10239941 -0.13324167 -0.10341582 0.13426512 0.043520216 -0.04479284
-0.09181926 -0.02954494 -0.17988256 0.21781762 -0.17869493 0.1113064 -0.23275885 -0.17862687
-0.082240984 -0.054489706 -0.3221838 0.13519733 0.09288766 0.19230728 -0.34387776 0.585463
-0.35318962 -0.3398737 -0.59084725 -0.32655156 0.08911107 0.29904804 -0.0630813 0.06752216
0.4658093 0.05845981 0.38904008 0.20315798 0.122868806 0.1041405 0.47340253 -0.17489101
0.65445346 0.031900283 -0.3659358 -0.29012796 -0.41966942 0.03639097 0.09427643 -0.5777823
-0.09350684 0.21556272 -0.18789306 0.51014924 0.0023837818 -0.45860758 0.43208516 -1.2187699
-0.118218906 -0.01046077 0.07088627 -0.79000103 -0.12679017 -0.1254874 0.03025464 0.42519712
-0.14615104 0.30343962 -0.1951778 -0.23436111 -0.008508385 -0.081065714 0.29787302 0.24972603
0.25853673 0.029607395 0.29442355 0.34603688 0.24795368 0.2538343 0.3429559 -0.6420219
-0.32942763 0.78818303 -0.027415939 0.39045405 0.19968878 0.29759732 0.20434302 -0.20984863
0.33958554 -0.33293977 -0.19233659 -0.27739894 0.120831214 0.032971047 -0.30009803 -0.38085562
0.078378014 -0.027668992 0.36100504 0.78216416 -0.110490106 0.6073592 -0.2933612 -0.10001639
-0.008197733 -0.37408882 0.25057968 0.43984413 -0.28840962 0.042336896 -0.20143647 -0.36086103
0.95619994 -0.22601753 0.25549975 0.29670015 0.124143235 0.9894519 -0.6114825 0.082493685
0.24044548 -0.36018604 -0.016620966 0.7203323 0.057497986 -0.12995681 -0.28667566 0.05636863
-0.17896134 0.12323599 0.22710879 0.50122684 0.21294828 -0.22740076 -0.57535505 -0.34861606
0.07781522 -0.419046 -0.3012509 -0.32773364 -0.07971761 0.15363052 -0.007382427 0.3778937
0.09916673 -0.33967116 0.03559058 0.32006413 -0.5932424 0.099800594 -0.43721908 -0.32906443
-0.035874613 -0.5907625 -0.2097378 0.54628056 -0.11230814 -0.19472714 -0.6281339 0.2373844
0.32359213 -0.18361074 -0.29205626 -0.16297318 -0.13973933 0.5907768 0.17663957 -0.10782212
-0.26654208 0.18924503 -0.84579957 -0.7371879 0.12925483 -0.3070455 -0.28656372 0.011418277
0.06874518 0.3084716 0.3852315 0.21020782 -0.48945108 0.06294948 -0.61171824 -0.14191939
-0.28252622 -0.19552676 -0.058850624 0.01906886 0.2488864 -0.828549 0.08703031 0.11066997
0.5674815 -0.7873881 -0.4275228 -0.06409587 0.03958708 0.5329744 0.045830403 0.14743261
0.0633843 0.12771459 -1.2283027 -0.29422224 -0.17199753 -0.569917 -0.37751642 -0.05993666
00000000: e1ea bbbd 7824 7d3e 6f47 703b e159 cdbe
00000010: c0ff 483e e45f 913e 0999 3b3e a798 933e
00000020: c0a4 c73e c7ec 2fbc 4eba a43d 48d3 aa3e
00000030: e9fe 883d 3a30 c7bc 9e52 593d 9b3c d2bd
00000040: e911 3dbe a027 153d b8dd 013c 3d8d 153d
00000050: e2aa 2abd 0d2b 363e a836 49be 1b2a fcbc
00000060: e12f f43c bca2 00be 70b6 94bc bad9 76be
00000070: 89b0 6bbc 66b2 a0bb bdef 66bd 2202 7abe
00000080: 1c25 693f 2a96 07be 14f1 9fbe 8192 9d3e
00000090: 2ab3 bc3d 94a9 aa3e 846f 6b3e e950 67bd
000000a0: 8e45 a73e 9332 8cbd e865 86bd a63e bbbe
000000b0: bbfb 27be 7ab9 2dbe 8235 e0bd 4ec3 3bbe
000000c0: 18e3 3f3d 1050 d8bc c8b6 d1bd 8170 08be
000000d0: accb d3bd cc7c 093e 4142 323d b278 37bd
000000e0: bc0b bcbd 3b08 f2bc 2233 38be 950b 5f3e
000000f0: cefb 36be 9cf4 e33d 5658 6ebe f6e9 36be
00000100: f66d a8bd 9930 5fbd 46f5 a4be 2b71 0a3e
00000110: e33b be3d 33ec 443e bf10 b0be e7e0 153f
00000120: 45d5 b4be ed03 aebe c441 17bf c431 a7be
00000130: dd7f b63d d31c 993e c530 81bd 0f49 8a3d
00000140: 8e7e ee3e 8e73 6f3d 4330 c73e a508 503e
00000150: a4a2 fb3d 9d47 d53d d161 f23e a116 33be
00000160: 438a 273f dfa9 023d f05b bbbe a78b 94be
00000170: e9de d6be b30e 153d 0014 c13d 8ae9 13bf
00000180: 8480 bfbd 79bc 5c3e 0a67 40be 2499 023f
00000190: 3939 1c3b 9dce eabe 443a dd3e a700 9cbf
000001a0: c11c f2bd a663 2bbc d22c 913d 823d 4abf
000001b0: 48d5 01be c57f 00be 94d8 f73c 70b3 d93e
000001c0: 9ea8 15be 705c 9b3e b0dc 47be 5cfc 6fbe
000001d0: c166 0bbc c805 a6bd d082 983e 2eb8 7f3e
000001e0: ed5e 843e 358b f23c afbe 963e bf2b b13e
000001f0: 92e7 7d3e 92f6 813e ea97 af3e 8c5b 24bf
00000200: bdaa a8be 5dc6 493f 6497 e0bc 98e9 c73e
00000210: 377b 4c3e ad5e 983e 4c3f 513e 8fe2 56be
00000220: 28de ad3e 1577 aabe e2f3 44be 3c07 8ebe
00000230: 5b76 f73d a60c 073d 73a6 99be 82ff c2be
00000240: a784 a03d 15aa e2bc a7d5 b83e e93b 483f
00000250: a348 e2bd e47b 1b3f 7033 96be 65d5 ccbd
00000260: c94f 06bc 9288 bfbe fb4b 803e 4033 e13e
00000270: 6daa 93be 7469 2d3d 5d45 4ebe c7c2 b8be
00000280: 85c9 743f 2471 67be ddd0 823e 15e9 973e
00000290: cf3e fe3d b84c 7d3f 1e8a 1cbf 73f2 a83d
000002a0: 5737 763e 4e6a b8be b128 88bc b367 383f
000002b0: 0283 6b3d 6613 05be 27c7 92be cbe2 663d
000002c0: a441 37be 2763 fc3d 358f 683e 6750 003f
000002d0: 1d0f 5a3e bfdb 68be 784a 13bf ce7d b2be
000002e0: 965d 9f3d 338d d6be 8f3d 9abe b4cc a7be
000002f0: fc42 a3bd 5251 1d3e 49e8 f1bb 487b c13e
00000300: ed17 cb3d 61e9 adbe 6ec7 113d 72df a33e
00000310: bcde 17bf 4164 cc3d 2edb dfbe 227b a8be
00000320: 42f1 12bd 363c 17bf 81c5 56be 0bd9 0b3f
00000330: cf01 e6bd 8d66 47be 62cd 20bf e514 733e
00000340: dead a53e 7404 3cbe 6688 95be 71e2 26be
00000350: d417 0fbe 263d 173f 01e1 343e d8d1 dcbd
00000360: 3478 88be 73c9 413e 5286 58bf 59b8 3cbf
00000370: 615b 043e 1135 9dbe 7bb8 92be ba13 3b3c
00000380: 46ca 8c3d fdef 9d3e 103d c53e b840 573e
00000390: 5599 fabe a8eb 803d 9199 1cbf 5153 11be
000003a0: 47a7 90be 2b38 48be 5a0d 71bd 4c36 9c3c
000003b0: 14dc 7e3e ca1b 54bf f23c b23d f0a6 e23d
000003c0: 7846 113f 4492 49bf 45e4 dabe b244 83bd
000003d0: 1026 223d 0371 083f a9b8 3b3d 93f8 163e
000003e0: a1cf 813d 9dc7 023e 0639 9dbf 4ca4 96be
000003f0: 1f20 30be 15e6 11bf d549 c1be 2580 75bd

advantage_fcs.0.bias f4 [32]
-0.37440857 -0.106105365 0.29325926 -0.25026077 -0.00083980255 -0.08855886 0.0689114 -0.15009119
0.007857172 -0.116704576 0.17209323 0.09926849 -0.056534387 -0.02498026 -0.0050537228 0.18683597
-0.09580684 -0.018376391 -0.19799364 -0.22143649 0.13204677 -0.0350335 0.17836249 0.15775493
-0.079131134 -0.21115535 -0.11562975 0.21993707 0.16213235 0.005190894 0.23860405 0.000623107
00000000: 7bb2 bfbe c54d d9bd 1426 963e 2e22 80be
00000010: 3226 5cba 595e b5bd 6c21 8d3d 81b1 19be
00000020: 5ebb 003c cf02 efbd 3539 303e 474d cb3d
00000030: 9a90 67bd 67a3 ccbc b399 a5bb ee51 3f3e
00000040: 6036 c4bd 168a 96bc d8be 4abe 3fc0 62be
00000050: 4537 073e 4a7f 0fbd a8a4 363e 828a 213e
00000060: 810f a2bd 1c39 58be 4acf ecbd 2f37 613e
00000070: 0606 263e 6018 aa3b 9f54 743e 0158 233a
