trained_agents/dueling_double_dqn-Best.pth (torch_old, 70821 bytes, 17 tensors)

shared_fcs.0.weight f4 [128, 37]
000000 95 10 6c be a9 4d 1a bd 8d 46 61 3c 0c 53 b0 3d
       -0.230532 -0.03767172 0.013749731 0.0860959
000010 9c 95 e1 bd c5 c0 4a 3e d4 45 e4 bd a5 4c 3b 3d
       -0.11014864 0.19800098 -0.11146131 0.04572739
000020 ce e3 3d be 52 5e 8e bd 9a b0 89 3e 2d 0a 97 be
       -0.18543932 -0.06951584 0.2689255 -0.2949995
000030 6e ce 0e be aa 90 bd be 3a 66 b4 be 35 83 58 3e
       -0.13945934 -0.37024432 -0.35234243 0.21143802
000040 84 78 43 3e 17 4b 61 be 56 84 e4 be 62 dd 1c 3c
       0.19088942 -0.22001301 -0.44632214 0.009574266
000050 39 4f 19 3e e7 56 9b 3c c3 7c 39 be 2c 73 fa 3e
       0.14971627 0.018962337 -0.18113999 0.48915994
000060 e5 64 97 3d 0b b3 91 3e 37 49 a8 3c 28 2c 9f be
       0.07392291 0.2845691 0.020542724 -0.31088376
000070 fc 49 0d bf 85 87 b0 be 0c e1 1e be 29 3d 66 3e
       -0.55191016 -0.34478393 -0.15515536 0.22484268
000080 c0 bd 0e be d9 9c aa be 10 a3 78 be 6e 39 98 be
       -0.13939571 -0.3332279 -0.24280953 -0.29731315
000090 a4 c1 02 be 8a c5 e9 3e d9 91 80 be a3 4c e9 be
       -0.1276918 0.45658523 -0.25111273 -0.45566282
0000a0 a2 86 c9 be 1a f4 10 c0 d5 ad 57 bc 6f ad f3 bd
       -0.3936053 -2.2648988 -0.013164003 -0.11898314
0000b0 56 37 5c bd 36 be fe bd c0 12 75 bd d9 55 98 3d
       -0.05376371 -0.124386236 -0.059832335 0.07438249
0000c0 25 ab ff ba e9 01 89 3d b3 13 3c 3c 67 d8 71 bc
       -0.0019505961 0.066898175 0.011479306 -0.014761067
0000d0 47 00 02 3c d4 a0 d8 3c cd fe 75 3d c5 5c 26 3e
       0.007934636 0.026443876 0.06005745 0.16246326
0000e0 0f c9 8a 3e f5 77 10 be a4 e6 a7 bd 8a 76 08 bd
       0.2710652 -0.1410826 -0.08198288 -0.033316173
0000f0 77 c6 d2 bd f8 58 32 3a d7 3e 8a 3c df a6 42 3d
       -0.102917604 0.00068034185 0.016875667 0.047522422
000100 ba 02 b6 3d f2 3e 24 3e f5 1b 2f 3e d4 af a7 3d
       0.08887239 0.16039637 0.17100509 0.081878334
000110 53 97 30 3e 08 f4 b4 3d 9b a6 73 3d 24 29 65 bc
       0.17245226 0.08835608 0.05948506 -0.0139868595
000120 1e 66 09 3c 6f be c8 3b 8b aa 02 3e 3e d7 a2 be
       0.008386163 0.006126217 0.1276037 -0.31804842
000130 e0 a8 11 3e 2e 73 fd be 68 f6 f8 be 9e f4 46 bf
       0.14224577 -0.49501938 -0.48625493 -0.77717006
000140 a9 45 67 3e dc aa 8f 3e 4f 49 f9 be 90 f5 14 bd
       0.22585167 0.28060043 -0.48688743 -0.036367
000150 d0 9c 47 bd c0 7c 36 3d b5 04 a5 bc 01 1e 4a bf
       -0.048733532 0.044552565 -0.020143846 -0.7895203
000160 61 6b 82 3e 5f 7d f8 3d 07 a4 5f bd 68 fc c3 be
       0.2547255 0.12133288 -0.054599788 -0.38278508
000170 76 b8 84 3e 82 7c ce be 75 1e 8e be 79 d8 ab be
       0.25921983 -0.40329367 -0.27757612 -0.33563593
000180 a3 ee 4c 3e a7 7b 6c bf b8 4d 07 bf 4b 01 8b be
       0.20012908 -0.9237618 -0.52852964 -0.27149424
000190 97 ea 43 3d 36 53 87 3e 45 9c da be 4c 70 98 bc
       0.047831144 0.26430672 -0.4269735 -0.018608235
0001a0 b8 fc 3b 3c 19 7c e5 be df 8b 7d be 48 71 61 be
       0.011473827 -0.44821241 -0.24760388 -0.2201587
0001b0 ce bb d4 3e 66 23 e1 3b 49 2a 11 be 20 d6 3c 3e
       0.41549534 0.006870675 -0.14176287 0.18441057
0001c0 d2 ec 2c 3e 94 cc 28 3e 20 0e e1 be e1 9c 2f 3d
       0.16887215 0.1648429 -0.4395609 0.04287422
0001d0 66 9b 21 3d a9 39 d0 3c f3 3a 63 be 65 93 b3 3d
       0.03945484 0.02541812 -0.22190456 0.08768348
0001e0 ed fe 4f bf e2 b1 05 be 4c b5 ef 3c 84 9f 4b bd
       -0.8124836 -0.13056138 0.029261254 -0.049712673
0001f0 16 a5 c4 bc b7 39 57 be ac b0 32 be c1 15 c8 3e
       -0.0240045 -0.2101811 -0.17450207 0.39079097
000200 bf 2f 5c bc ed b3 0c bf de 1e 32 c0 71 e6 9c 3d
       -0.013439118 -0.54962045 -2.783134 0.07661141
000210 f2 ed e8 3d 86 76 c1 bd ae df 03 3e 72 ff 7a be
       0.113735095 -0.09446435 0.12878296 -0.24511507
000220 fd 65 fc bc 13 47 aa 3e 10 d3 40 3e de 8a d6 be
       -0.03081035 0.3325735 0.18830514 -0.41902822
000230 0d bf b8 bf f0 66 10 3e 0d 5f fe 3d 83 a2 59 bc
       -1.4433304 0.14101768 0.12420473 -0.013283375
000240 4a 88 69 3e be 42 d8 be ba bb 92 38 96 79 77 3c
       0.22805896 -0.4223842 6.996789e-05 0.015104672
000250 eb a5 05 be 14 e4 40 be 92 d9 b2 bd b3 9d b3 bd
       -0.13051574 -0.18837005 -0.087329045 -0.08770313
000260 94 23 41 3e ec 99 2b 3d 2c 0a 16 3e bb 99 1e be
       0.18861228 0.04189484 0.14652318 -0.15488331
000270 27 df c1 3d b4 b7 c3 bd ef 08 02 bd 0d e8 1b bc
       0.09466391 -0.09556523 -0.0317468 -0.009515774
000280 48 ca d6 bc b4 b9 3a be 1a 88 5b be 03 ab c1 bd
       -0.026219502 -0.18234903 -0.21438637 -0.09456446
000290 ca 3a 1a bd 70 6e b4 bd 3c f3 10 3d 0a 6c b0 3e
       -0.037653722 -0.08810127 0.035388216 0.34457427
0002a0 85 b1 3f be 34 9f 7a bd e4 9a 22 3e e8 67 d2 3c
       -0.18720062 -0.061186984 0.15879399 0.025684312
0002b0 20 b2 e7 3c 72 3a 00 3e ae 64 be be e3 f5 29 3d
       0.028283179 0.12522295 -0.37186188 0.04149426
0002c0 84 42 a0 3d 20 81 bd 3d eb a9 62 3d be 11 96 bd
       0.07825187 0.09253144 0.055337828 -0.07327603
0002d0 d2 c0 31 bd b7 cf 2a 3e d0 e1 35 3e 89 58 a5 3e
       -0.04339678 0.166808 0.17761922 0.3229411
0002e0 b8 57 8d 3d d3 29 3d 3e b9 3a 64 be 4e ae f3 3d
       0.06901497 0.18472986 -0.22288026 0.1189848
0002f0 59 49 2d be 01 e5 14 be b4 c2 72 3e f3 b5 80 3e
       -0.16922511 -0.14540483 0.23707086 0.25138816
000300 55 20 1a bf f4 39 9d be 7d 56 b6 be 6a 42 c0 bd
       -0.60205585 -0.30708277 -0.3561286 -0.093876675
000310 d0 e5 ec bc d4 ee db bc d6 41 70 bd f9 3d 2b 3c
       -0.028918177 -0.02684728 -0.058656536 0.010451787
000320 d3 1e 06 3d 65 31 b3 3d 54 61 4b bd 0a 8c d4 3d
       0.03274424 0.08749656 -0.049653366 0.10378273
000330 78 b0 a9 be 0f 21 d4 bd 87 5d 68 3e 79 c9 68 3d
       -0.33142447 -0.10357868 0.22691928 0.056832764
000340 78 e7 ca 3e 33 f4 62 3e db dd 10 be 7b ec 0c 3e
       0.39629722 0.22163467 -0.14147131 0.13762085
000350 cc e5 d2 bd b3 f7 0f 3e e1 00 a0 3e cc ef 95 3e
       -0.102977365 0.14059334 0.3125067 0.29284513
000360 9f dc a4 be 6c 13 c5 be 94 73 38 be 4d 63 ca bf
       -0.3219957 -0.3849138 -0.1801284 -1.5811554
000370 1e bc 11 3d 2a ff a7 3c c2 94 2a 3e 35 f6 03 3e
       0.035579793 0.020507414 0.16658309 0.1288689
000380 62 e1 f1 be 48 dd 93 bd df 18 8c bf 7f b9 e5 bd
       -0.47242266 -0.072199404 -1.094509 -0.11217021
000390 4a f5 bb bd be 33 90 3d 21 4d 7c 3d ad 4a 88 3e
       -0.091776446 0.07041119 0.061596993 0.26619473
0003a0 1c 2c 3b bd a7 7e 3e 3e 6d 02 86 3d 63 85 27 be
       -0.045696363 0.18603002 0.065434314 -0.16359477
0003b0 e7 92 a6 bd b8 e8 40 bf df 50 2b be 9d 9c 5f 3e
       -0.08133488 -0.753551 -0.16730069 0.21837087
0003c0 16 8a 74 3d 77 89 18 3e 2a 0e 9a be cf 71 4a be
       0.059702 0.14896189 -0.3008893 -0.19769977
0003d0 15 58 b7 3d fe 10 63 3e 4a a1 2f 3e c3 a7 7c be
       0.08952347 0.22174451 0.1715137 -0.24673371
0003e0 8d 56 91 3e 4a 2c af be cf e5 74 be 58 f5 f7 3d
       0.28386346 -0.34213477 -0.2391579 0.121073425
0003f0 a2 0a b8 3d b6 a3 36 bf c3 81 a2 bd 9f e7 32 3e
       0.08986403 -0.71343553 -0.07934906 0.17471169

shared_fcs.0.bias f4 [128]
000000 a8 cb d6 bc 35 ec c5 3c 73 2c b2 bd d1 3b 95 3c
       -0.026220158 0.024160484 -0.08699884 0.018217
000010 0a 50 a5 bd c6 89 87 bd c7 0e 34 3c 00 04 97 3d
       -0.08071907 -0.06618075 0.010989851 0.0737381
000020 ba 90 58 be ef 75 c8 3b e4 cc 26 be bf 18 1f bd
       -0.21148959 0.0061175744 -0.16289097 -0.03884196
000030 76 60 4e bd cb e8 d3 bd da 51 b6 bd f9 d0 cc bd
       -0.05038496 -0.10347136 -0.08902331 -0.10000796
000040 b9 3e 10 3b 3b 64 1a be 1e 7e f3 bd 15 55 a0 bd
       0.0022010042 -0.15077297 -0.11889289 -0.07828728
000050 59 7b 2a be 1f 95 ba 3d d5 4d 3a 3e 80 4a 09 bd
       -0.16648616 0.09110474 0.18193753 -0.033518314
000060 8c 05 97 3d 3d c6 a4 3d 6b a7 f3 3d 99 e9 01 be
       0.07374105 0.080456235 0.11897167 -0.12686767
000070 c5 2a 20 bd c1 1c 3d be 2a 82 e1 3d fe 73 3c 3d
       -0.03910329 -0.18468 0.11011155 0.046009056
000080 fa 5d e1 bd e3 51 68 bd a5 ba c5 bd dd 2d 19 be
       -0.11004253 -0.05671872 -0.0965474 -0.14958902
000090 9e 37 9f bc e7 ae f6 3d c0 87 0c 3d d7 03 2a 3e
       -0.0194357 0.12045079 0.03430915 0.16603027
0000a0 c0 37 25 bd a9 d7 3f 3e 6b a6 8e 3c 42 ef 2d 3c
       -0.04033637 0.18734612 0.017413339 0.010616126
0000b0 ef 32 d2 3a 68 f9 0e be f9 59 49 3d 5a 06 92 bd
       0.0016036908 -0.13962328 0.04915807 -0.07130118
0000c0 60 bc 53 be b7 44 0d 3c af 4b 05 3d b2 25 29 3c
       -0.20677328 0.00862234 0.03254288 0.010323929
0000d0 00 7c 20 bd 94 2d c2 3d e9 ce 2b 3c cd 00 44 bd
       -0.039180756 0.094813496 0.010486343 -0.047852326
0000e0 fc 3f 16 bd 8f 64 82 bc f0 a9 4b be 63 28 94 3d
       -0.036682114 -0.01591709 -0.19889045 0.07234266
0000f0 4b ae 59 be a2 f0 6a 3d 1d 13 81 3d b8 b9 65 bc
       -0.21257894 0.05735839 0.06302474 -0.01402133
000100 56 53 ba 3d bd 85 13 3d 39 05 0f 3d d5 9f 50 bd
       0.09097926 0.036016215 0.03491709 -0.050933678
000110 71 1e b2 bc cf 8c 44 be d2 7e 0a be 27 c7 7e bd
       -0.021743031 -0.19194339 -0.1352494 -0.062201645
000120 7c 0b b6 3b 76 24 6f be 6f 5d 05 be 6d a1 a7 bd
       0.0055555683 -0.23353752 -0.13023923 -0.081850864
000130 ae 1e a4 3d 72 c8 50 be c5 42 2c 3d ad 48 d9 3d
       0.08013664 -0.20388964 0.042055864 0.10609565
000140 1c 88 ec bd b8 64 95 bd 98 10 09 3d 28 f5 22 be
       -0.11549398 -0.07294601 0.03346309 -0.15913832
000150 96 f8 1f be 78 b3 43 3e 5f 47 28 3e bb 2d ec bd
       -0.15622172 0.1911143 0.16433476 -0.1153216
000160 c0 f4 14 be 83 3b 7f 3d 86 f5 55 3d 35 ee 95 bb
       -0.1454649 0.062312614 0.052236103 -0.0045755156
000170 06 fc 4d be 32 2f df bd 57 d7 1f bd 44 c5 6f 3d
       -0.2011567 -0.10897674 -0.039023723 0.058537737
000180 1e c1 e3 3c 0b 37 24 be 62 74 8e 3c db 25 ae 3d
       0.027802046 -0.16036622 0.01738948 0.08503314
000190 b3 e6 3a be a5 38 22 be 36 f0 ed 3d 3a 20 98 bd
       -0.18252067 -0.1584192 0.11618082 -0.07428022
0001a0 ae 67 50 be e8 56 44 be 92 a8 9f bd b3 2e 2d 3e
       -0.2035205 -0.19173777 -0.07795824 0.16912346
0001b0 15 43 f4 bd 16 06 da bd 02 96 b6 bc e9 5a ef bd
       -0.119268574 -0.10645692 -0.022288326 -0.116872616
0001c0 9c f2 d4 bd 27 b1 01 be e9 14 99 bd cd 60 a6 3d
       -0.103978366 -0.12665235 -0.074746914 0.08123932
0001d0 70 46 2a 3e 3d f1 e9 3d c5 40 33 bd 56 79 db bd
       0.16628432 0.11422966 -0.04376294 -0.10716502
0001e0 ad a6 2f be cc 95 4a bd 7d 20 38 be 90 ab 5e be
       -0.17153426 -0.049459264 -0.17981143 -0.21745133
0001f0 af be f6 bc a8 0e 10 3d 3e f9 88 3e f9 b4 a2 bb
       -0.030120222 0.035170227 0.26752657 -0.0049654213

shared_fcs.1.weight f4 [64, 128]
000000 fe 94 9b bd f3 55 37 bd 68 3e 29 be 3c b4 d7 bc
       -0.075967774 -0.044759702 -0.16527712 -0.02633106
000010 7d 98 d6 3d f8 66 0f 3d 5b cd 82 3d cf 99 b4 3d
       0.104783036 0.035010308 0.06386825 0.08818399
000020 6d b3 ad 3d 37 5d 39 3d 2b 1d 05 bd b6 81 6d 3d
       0.084814884 0.045254912 -0.03249852 0.05798503
000030 23 40 73 3d 80 71 a2 3c 97 c6 4d bd de 0a 8b bc
       0.059387337 0.019829512 -0.05023822 -0.016972955
000040 de 1b 88 bd 91 aa 28 be 16 2a 78 bd ba f9 d6 bd
       -0.0664594 -0.16471316 -0.06058701 -0.1049685
000050 77 f7 20 3d 65 37 8d bc 2b db bd bd fc 90 f1 b9
       0.0392985 -0.017238328 -0.092703186 -0.00046075124
000060 7d 8f 94 3c 7e 3d d4 3d 5f e7 13 be c1 26 3a bd
       0.018134827 0.10363291 -0.1444373 -0.045447115
000070 44 83 8c bd e6 e4 70 bd 07 53 42 bd c1 2c 4f bd
       -0.068609744 -0.058812045 -0.047442462 -0.05057979
000080 93 41 65 3d a3 26 39 bd 4a 97 97 3c d5 f0 bc 3b
       0.05597074 -0.045202862 0.018504757 0.005766014
000090 d5 88 35 bc b2 d3 c7 bd 76 37 a7 bb 59 31 44 bc
       -0.011079987 -0.097571746 -0.005103047 -0.011974656
0000a0 5c 3f 00 be 16 12 94 bd de be 27 bd 75 0e cf 3d
       -0.1252417 -0.07230012 -0.04095351 0.10110179
0000b0 db f8 95 3d ae da df 3b c9 4e 75 bd 5d e6 30 be
       0.07322856 0.0068314886 -0.05988959 -0.17275377
0000c0 83 ed 92 bd 50 23 c0 bc 97 40 38 bb 91 7f b3 bd
       -0.07174208 -0.023454338 -0.002811467 -0.08764566
0000d0 84 80 88 bd 36 88 f5 bd f2 49 b8 3d de e4 8a bd
       -0.066651374 -0.11988871 0.08998479 -0.06781934
0000e0 c3 a5 7c 3d b1 3f 87 bd d2 62 8d 3d bb e5 af 3d
       0.06168152 -0.06603945 0.06903614 0.085887395
0000f0 25 66 1b bb 90 84 c3 bd 61 5e d0 3d fa 51 8a bd
       -0.0023712006 -0.09546769 0.10174251 -0.06753917
000100 b6 a6 11 bd 70 b9 57 bd 6d 64 4a bd 97 11 24 be
       -0.03555938 -0.05266708 -0.04941218 -0.16022335
000110 3b 5e 2a bd 2c e5 46 3d 0a 73 c3 3d e0 6b 69 bd
       -0.04159377 0.0485584 0.09543426 -0.056987643
000120 36 8f 69 bc 33 ca c5 bd 65 e7 36 bd 0a a0 df 3c
       -0.014255336 -0.09657707 -0.04465427 0.027297992
000130 57 5c d7 bd b6 8f 7e bd 5d ba 06 3d 72 17 fe 3d
       -0.10515659 -0.062148772 0.032892574 0.124068156
000140 bc b5 c1 3c 0e 4a 06 3e 1f 77 1e 3d 98 ee 60 bd
       0.023646228 0.13114187 0.03868782 -0.05491504
000150 eb 32 89 bc 86 83 a0 bd 3c 28 d6 bc d8 12 ae 3d
       -0.016747912 -0.07837586 -0.026142232 0.08499688
000160 2a 17 d8 3c a7 85 8b 3d d7 39 23 bd 93 d0 16 be
       0.026378233 0.068126015 -0.039850082 -0.14728002
000170 ee 0b 18 bd d6 2c 72 3d 06 25 da 3d 7f f6 20 bd
       -0.037120752 0.05912479 0.10651593 -0.039297577
000180 7c 73 5c bd 13 9a fc 3d 20 a2 b6 bd b5 81 f4 bd
       -0.053821072 0.12334075 -0.08917642 -0.11938802
000190 c2 70 1a 3e 9f 51 e1 3c 7a f2 13 be 10 0f f1 bc
       0.15082076 0.02750474 -0.14447966 -0.029426128
0001a0 33 8f e6 bd 84 6a 1f bc 9a 5a 63 3c 08 51 02 be
       -0.11257782 -0.009729985 0.013876582 -0.12726223
0001b0 f0 07 da 3d 9a d2 23 be 92 63 07 bd d7 d6 ac 3c
       0.10646045 -0.15998307 -0.033053942 0.021098537
0001c0 17 5a 1f 3d 38 fc 85 3d 15 06 96 3c a3 db b2 3b
       0.038904276 0.065422475 0.018313447 0.0054583116
0001d0 8c 3b 44 3d 77 0e 13 3e b3 32 65 bd 1e 5c 42 bc
       0.04790835 0.14360987 -0.055956554 -0.011862783
0001e0 35 4c 7d 3d 83 0d ce bd 77 52 e6 3c c4 74 d0 bd
       0.061840255 -0.10061171 0.028115494 -0.10178521
0001f0 b0 a3 58 39 e7 7f a3 bd cb 0e 28 3d 7b d3 47 bd
       0.00020660344 -0.0798338 0.041029733 -0.048785668
000200 db 07 12 bf be 05 8d 3c d6 63 cb 3e 53 28 d7 3c
       -0.57043236 0.017214652 0.39724606 0.026264345
000210 dc fd f3 be 30 2e ba be 90 16 c0 3e 3f 13 9e be
       -0.47654617 -0.36363363 0.37517214 -0.3087406
000220 32 71 a6 3e e4 c2 a2 be e5 b3 8b be ce 31 c1 be
       0.32508236 -0.31789315 -0.27285686 -0.3773331
000230 56 1c 58 3e e3 31 20 bf 56 a4 1c 3e 02 3a a9 be
       0.2110456 -0.6257612 0.15297064 -0.3305207
000240 61 89 3e be 22 57 e7 be e6 86 23 3d d9 15 09 3e
       -0.18607093 -0.45183665 0.03992357 0.1338724
000250 8a 72 a1 bd 2a 24 3c bf 95 4c 43 3e 57 d1 8a bc
       -0.07883175 -0.7349268 0.19072182 -0.016945524
000260 c6 ed 85 be 1d 7f ed be bd 8f 13 be f6 de 0c bf
       -0.2615797 -0.46386042 -0.144103 -0.5502771
000270 64 bb d9 bd a0 61 3f bb 78 68 33 bf 89 b9 96 be
       -0.10631445 -0.0029202476 -0.7008128 -0.29438427
000280 65 a0 23 be d2 65 5d be 53 71 59 bd 6d 39 b2 be
       -0.15979154 -0.21620873 -0.05308659 -0.34809437
000290 d9 7b 36 bc 6d a3 41 3d 35 22 86 bd 7e 5d 3c be
       -0.011137926 0.047274996 -0.06549493 -0.1839504
0002a0 4f 1f 41 be ac 18 6b bd e9 51 cf be aa 73 42 3c
       -0.188596 -0.057396576 -0.4049218 0.011868397
0002b0 2d 30 0d be a5 fd 78 be c2 cc 43 be b1 07 41 be
       -0.13787909 -0.24315508 -0.19121078 -0.1885059
0002c0 4a c1 92 be a9 5a 8a be aa f7 d9 3d 59 dd 71 be
       -0.28663093 -0.27022293 0.10642941 -0.23619594
0002d0 ec af 1d be fe f5 93 be 73 36 10 3e 2c 8e 9c 3d
       -0.1539914 -0.28898615 0.1408327 0.07644305
0002e0 90 06 d3 3e 59 be aa bd 01 71 56 bf 87 ae ff bd
       0.41215944 -0.08337087 -0.8376618 -0.1248446
0002f0 90 ee d2 3d eb 29 12 3e 0a c0 1a be b4 79 fd 3e
       0.102994084 0.14273803 -0.1511232 0.49506915
000300 c8 fe 0e bf 2f 38 0d be b7 d9 da 3d 18 6a 90 be
       -0.55857515 -0.13790964 0.10686057 -0.28205943
000310 a3 be 10 3e d6 da ac be 0b 9a 32 be 53 ba 0b 3e
       0.14135222 -0.3376071 -0.17441575 0.13645296
000320 45 e1 9b 3e 7d d1 43 bf 1f d7 28 3e b5 17 47 be
       0.30445305 -0.7649153 0.16488312 -0.19442637
000330 1d 16 b0 bc 00 8a 67 be 28 99 84 be 4f 55 48 3e
       -0.02149492 -0.22611237 -0.258981 0.19563793
000340 cd 0b 12 3e c7 08 09 bf 6b d4 61 be 5e 9d 21 be
       0.14262314 -0.5352902 -0.22053687 -0.15782687
000350 a9 5a 51 3e b7 79 d1 bd e3 58 9b 3e 93 9e 0a bf
       0.2044474 -0.102282934 0.30341253 -0.54148215
000360 87 8d c1 bd 42 8c 6b 3e 19 9e 9c 3d 47 20 07 bf
       -0.09450822 0.23002723 0.07647342 -0.52783626
000370 71 7e 07 3e 1a bf 5c 3d 81 5d ab be 0a 32 8e bc
       0.13231827 0.053893186 -0.33469775 -0.017357845
000380 a1 a4 a5 be 64 70 7f be 4b 80 b6 3e d2 a8 27 bf
       -0.32352164 -0.24945217 0.35644755 -0.65491974
000390 66 3a 49 be 42 3f 92 3d 0f ce 56 be ec fe 09 3e
       -0.19651183 0.07140972 -0.20977043 0.13476151
0003a0 c4 87 fd 3d ab 2d 47 3e c0 f2 81 3e 48 7b b0 be
       0.12379411 0.19451015 0.25380516 -0.34469056
0003b0 65 af d1 be bd 79 18 bf 2c 8d a4 bd 69 7c 75 3d
       -0.40954128 -0.5956076 -0.08034739 0.0599331
0003c0 c0 7d 7c be 31 61 96 be ea 46 2e 3e 64 ca e5 be
       -0.24657345 -0.29371026 0.17019239 -0.44880974
0003d0 39 1e 4c 3d 2d 99 57 be 8b 5b f4 bd 85 75 99 be
       0.04983351 -0.21054526 -0.11931523 -0.29972473
0003e0 74 6c 07 3e 67 fc 69 3e f9 77 e0 be f6 a7 28 bf
       0.13224965 0.2285019 -0.43841532 -0.6588129
0003f0 7a ae 80 3d 5a ca 95 be e6 a8 dd bd 54 da 0b bf
       0.06283279 -0.29255944 -0.108232304 -0.5463002

shared_fcs.1.bias f4 [64]
000000 ed c7 50 bd fc 93 8a 3d 4e 8b 6b bd 84 cf 84 bc
       -0.050971914 0.06766507 -0.0575059 -0.016212232
000010 e3 70 cb 3c a5 2d 96 3d 9a b6 e7 bd 7a d7 8e bd
       0.024834102 0.07332925 -0.11314125 -0.06974693
000020 99 7f 8e bd 86 cf 31 be 1e 07 8a 3d 52 24 da bd
       -0.06957931 -0.1736432 0.06739639 -0.10651459
000030 36 a5 da 3d 66 23 9f bd a5 f2 55 be 9e 06 9f 3c
       0.10676043 -0.077704236 -0.20893343 0.019412335
000040 d7 9f 80 3d 24 a4 b5 3d 3e e8 04 bd 91 01 fe bd
       0.06280487 0.08869198 -0.032448046 -0.124026425
000050 3b 63 17 be 78 b3 12 3d 8b a4 32 bc c2 84 c1 bb
       -0.14783947 0.035815686 -0.010903488 -0.0059057185
000060 17 da 14 3c 09 16 d5 bb 62 2e 85 bd cc dd db bc
       0.0090852 -0.006502871 -0.065029874 -0.02683916
000070 40 41 01 be 27 3d 28 bd 4f 48 b2 3e 1b 11 91 bd
       -0.12622547 -0.041073944 0.34820792 -0.07083341
000080 50 59 0f be 34 d0 99 3d 6d 63 a6 3a f4 ee 43 be
       -0.13998914 0.07510415 0.0012694426 -0.19134122
000090 b6 2d 87 3d 76 65 9d 3d ff 19 82 3d 49 98 07 be
       0.066005155 0.07685368 0.063526146 -0.13241686
0000a0 01 39 79 3d 3a 0f f9 3d c8 da 56 bd 33 ff 71 bd
       0.06084538 0.12161107 -0.05245474 -0.059081268
0000b0 31 f0 68 3e 66 65 2a 3e f2 45 af bd 2f 01 9a bd
       0.22747876 0.16640243 -0.08558263 -0.07519757
0000c0 fc c0 f0 bc c1 78 22 be ef 8e d6 3d 70 cd ea bd
       -0.029388897 -0.15866376 0.10476481 -0.11464965
0000d0 aa 1a b6 bd 69 83 61 3e d8 30 87 3d e1 01 0b be
       -0.088918045 0.22022785 0.06601113 -0.13574935
0000e0 2e 4e 87 3d eb 2c 13 bd 25 4a 04 3e 87 17 0a 3e
       0.066067085 -0.03593151 0.12918909 0.13485537
0000f0 56 15 4f ba d5 3f 08 be cd 19 07 bd 26 72 11 be
       -0.00078996026 -0.133056 -0.03298359 -0.142037

shared_fcs.2.weight f4 [16, 64]
000000 20 77 72 3d 1e 75 fc bd 50 e5 8e bc 52 b1 4a be
       0.059195638 -0.12327026 -0.01744333 -0.19794205
000010 54 12 26 be 22 8b e7 3d 2f 5e af be 2b 49 b3 bd
       -0.16217929 0.11305834 -0.34251544 -0.0875419
000020 4a c8 aa be de 72 10 bf a8 ba a7 3e c9 aa 5c be
       -0.33355933 -0.56425273 0.32759595 -0.21549524
000030 3e f6 0d be a2 1f 29 3d f5 e1 24 3f cb 43 dd 3d
       -0.13863465 0.041289933 0.64407283 0.10803946
000040 1d 1d a5 be dd 94 30 be 07 08 35 3e 22 6e 54 3d
       -0.32248774 -0.17244287 0.17678843 0.051862843
000050 c7 27 51 3e 58 97 50 3e c2 66 7a bd 41 5a 25 bf
       0.2042533 0.20370233 -0.061133154 -0.6459084
000060 4d 91 ff be b3 d8 28 bf c8 09 0a 3d 7b 7f 85 be
       -0.49915543 -0.65955657 0.033700734 -0.26073822
000070 51 ab 83 3d d8 79 a4 bd 46 90 25 3d c2 76 1d 3f
       0.064291604 -0.08031052 0.040420793 0.61509335
000080 a0 3a f9 3d 29 04 47 be 17 c8 95 be 2e 63 35 3e
       0.12169385 -0.1943518 -0.2925422 0.17713615
000090 86 99 c0 3b d1 95 1f bc ff ff 77 be d4 ed 50 3e
       0.0058776764 -0.009740309 -0.24218749 0.20403224
0000a0 f7 18 f2 3d ce ab 29 be e2 54 83 3d ae a1 12 bd
       0.11821168 -0.16569445 0.064126745 -0.03579872
0000b0 d8 d9 6a be 29 24 4e be 2c 6b d5 3d 9e 45 f6 3b
       -0.22934663 -0.20130982 0.10420832 0.0075156232
0000c0 57 e7 1a be 70 57 0c be ae d7 a7 bd e8 c9 c5 bd
       -0.15127312 -0.1370523 -0.081954345 -0.09657651
0000d0 2c 11 05 3d 48 92 65 be fc 0c 76 bb c5 6d 2d 3e
       0.03248708 -0.22419083 -0.003754436 0.16936405
0000e0 73 1c 7b 3d e1 fc 04 3e 57 68 15 3c b8 9e c5 3e
       0.06130643 0.1298709 0.009119115 0.38597655
0000f0 24 df e6 3e c0 0a 4e 3d 33 f9 99 3e 0a d8 28 3f
       0.45092118 0.05030322 0.30072936 0.6595465
000100 49 aa 61 b8 8f 0a 2e bd db a5 35 be e9 f3 f4 bb
       -5.380277e-05 -0.04249054 -0.1773905 -0.0074753654
000110 fa 6a 9c bd 54 80 d4 bd b7 6f 1c 3e 22 78 7d bd
       -0.07637592 -0.10376039 0.15276991 -0.061882146
000120 81 a4 d0 bc fe fb 3f 3e 22 7b 62 bd 2c d0 33 3d
       -0.025469067 0.18748471 -0.05529321 0.0438997
000130 a5 cd a0 3d f5 b0 e5 3c 71 15 ff 3e 1f f6 6a be
       0.078517236 0.028038481 0.49821046 -0.2294545
000140 56 a7 26 bb 2b 41 3c 3d ee 01 d7 3e e1 0c 72 3c
       -0.002542933 0.045960587 0.4199366 0.014773578
000150 1c ef 1e be ab 1b 85 be 97 9f d1 be a7 58 40 be
       -0.155209 -0.2599767 -0.4094207 -0.18783818
000160 8d 69 10 bf f9 2f 6b be cd dc f3 bd 72 fa b3 bd
       -0.5641106 -0.22967519 -0.11907349 -0.08788003
000170 59 94 87 3e 42 14 d0 b9 dd 07 a5 be ff 2e 11 3f
       0.26480368 -0.00039687945 -0.32232562 0.56712335
000180 b8 12 79 3e fd 53 1f 3d dd 40 c6 be ee a0 c6 bd
       0.24323547 0.038898457 -0.38721362 -0.09698664
000190 0e 25 89 be ea af f9 be 9f 63 6e bd ca 18 a3 be
       -0.26786083 -0.48767024 -0.058200475 -0.3185485
0001a0 0c e7 7d be 81 59 10 3d a4 60 34 be fd a2 3d bd
       -0.24795169 0.035241608 -0.1761499 -0.046298016
0001b0 36 ab d5 3d e2 83 ad bd cb f0 71 3c d6 dc 03 be
       0.104330465 -0.0847242 0.014766882 -0.12877211
0001c0 e2 61 53 3e 9e 0f 9d be c9 cd fc 3e 73 ff 21 bf
       0.20642808 -0.30675977 0.49375752 -0.6328041
0001d0 86 e0 16 3d 10 9d 0e 3e a3 7c 89 3c c9 ca aa 3e
       0.036835216 0.13927102 0.016783064 0.33357838
0001e0 2f 59 86 3e 7c f6 e7 3e 57 77 21 3e 78 11 67 3e
       0.26239917 0.4530524 0.15768181 0.22565258
0001f0 b8 cf f6 bd 46 b8 26 3d 2e 83 73 be 48 32 2c 3e
       -0.12051338 0.04070308 -0.2378051 0.16816056
000200 f6 e6 81 3c 9f ae d1 be d0 b7 8b 3e 33 57 b7 3e
       0.015857201 -0.40953538 0.27288675 0.35808715
000210 6e b8 89 3c e5 f1 ad 3e 11 e0 00 bf fb dc 58 3f
       0.016811576 0.33973613 -0.503419 0.8471219
000220 6b 1d cc bd 70 3e 8f be a8 a8 4c 3e c5 32 bd be
       -0.099665485 -0.27977324 0.19986212 -0.36952797
000230 fa 86 42 be b2 58 92 bc 36 7c 41 3f db 29 ee be
       -0.18996802 -0.017864559 0.75580156 -0.46516308
000240 3f a7 b5 3d 3e 04 3c be ab f9 c8 3e 09 c4 c8 bd
       0.0886979 -0.18360993 0.39252982 -0.09803016
000250 fb 55 fd bd cc 21 66 3e ef 65 4e 3e f0 a7 c1 be
       -0.12369915 0.2247383 0.20156072 -0.3782344
000260 2e 01 8a 3e 3c 0c 08 3e fe c4 0d 3f 6e ba 10 3f
       0.26954025 0.13285917 0.5537871 0.5653447
000270 6b 60 c7 be 38 76 4c 3e 7d f2 3c 3d e9 e2 01 3f
       -0.3894075 0.19966972 0.046129692 0.5073686
000280 3a b9 e9 be ed 98 8f 3e 50 89 6f 3e 73 25 83 3c
       -0.4564913 0.2804636 0.23392224 0.016009068
000290 d4 1d 05 bd ec 0e 00 3e 13 fd 70 3e c2 89 38 3e
       -0.03249915 0.12505692 0.2353404 0.180213
0002a0 80 bc df 3d 69 05 82 3d 41 44 93 3e 6e 02 22 3d
       0.109246254 0.06348688 0.2876301 0.0395531
0002b0 7e a5 7f 3d 12 29 d0 be b8 f7 6d bc 62 29 20 bf
       0.062413685 -0.40656334 -0.014524393 -0.62563145
0002c0 f8 f0 3a be 5a c0 83 3c 48 61 09 bd fe bf de 3e
       -0.18255985 0.016082931 -0.03354004 0.43505853
0002d0 32 82 05 be 8e f8 8c 3d bf b7 66 be 8f 97 cc 3e
       -0.13037947 0.068833455 -0.22531031 0.3995938
0002e0 e2 fd 0e be ec 6a 49 be 25 e3 59 3e 1c bd 58 be
       -0.13964036 -0.19669694 0.21278055 -0.2116589
0002f0 ec f8 9a 3e 22 2d f5 bc 68 3a 2e bc 81 9c d1 3e
       0.30268037 -0.029928748 -0.010634042 0.40939716
000300 57 9d cf bd b9 3f b7 be 5a af 9c 3e a5 d0 da ba
       -0.10137432 -0.35790804 0.30602533 -0.0016694261
000310 11 06 9f 3e ad 36 9d bd 9d 1e e3 3d 32 ae 07 be
       0.31059316 -0.07676444 0.110898234 -0.13250044
000320 78 45 45 bd 89 06 a3 be 3c dd df be e5 ae bd 3e
       -0.048161954 -0.31840923 -0.43723476 0.37047496
000330 b0 9b 51 bd 25 5c 8b 3d b7 80 aa bd eb 59 78 be
       -0.051173866 0.068046845 -0.08325332 -0.24253051
000340 93 8f cf bc 72 72 e3 3c b9 42 e5 be b0 65 b7 3d
       -0.025337016 0.027764533 -0.44777468 0.08954942
000350 9b 67 90 3b fa 3b 8b 3e 4e 0a b5 bd 7d 8d d9 bb
       0.004406882 0.27194196 -0.08839856 -0.006639181
000360 91 67 2a be b2 33 b0 bd 0a de a3 3e e3 21 d3 bd
       -0.1664107 -0.0860361 0.3200534 -0.10309198
000370 fe 4a c9 3d c2 5f 57 3d 7f 5c 1a be df 3e dd bd
       0.09828757 0.052581556 -0.15074347 -0.10803007
000380 d6 1d c9 be a1 0f 8f 3d 5c f2 83 bd 81 56 b8 3e
       -0.39280576 0.06985403 -0.06442711 0.36003497
000390 b9 b7 bb be 6a 27 01 be 9b cb aa bd df 78 62 bd
       -0.36663607 -0.12612692 -0.08339616 -0.055291053
0003a0 2d ef 9d 3c c6 10 d2 be 1a 28 a1 be 53 d9 b0 be
       0.019279087 -0.41028422 -0.31475908 -0.34540805
0003b0 96 3f 8a 3e 3a 25 54 bf d1 a2 8e bc 17 b1 08 bd
       0.27001637 -0.82869303 -0.017411621 -0.03337201
0003c0 8c c0 d5 be 55 e0 1f 3d e3 2e b4 be 22 0d 92 bd
       -0.41748464 0.0390323 -0.35192022 -0.07131411
0003d0 93 b2 25 bc 21 18 4a 3e a7 c6 47 bd 6b bd 9b be
       -0.010113376 0.19735767 -0.048773434 -0.30417952
0003e0 ef b0 8c 3d 60 2c dd 3c a5 9b a1 be 8f 62 cc be
       0.06869685 0.026998699 -0.3156406 -0.39918944
0003f0 44 ce 8c be 4c 1d 9a bc 06 9f 51 be de d3 b1 bd
       -0.27501118 -0.018812798 -0.20470819 -0.086829886

shared_fcs.2.bias f4 [16]
000000 16 3b 9a bb 15 85 37 bd df c9 2f 3e bb c9 95 bd
       -0.0047067506 -0.04480465 0.17166851 -0.07313868
000010 ca 31 29 be 28 b3 c3 bd a6 8c 7d 3e 8f c7 0c 3e
       -0.165229 -0.09555656 0.24760684 0.13748
000020 79 55 fe 3d 8c 00 15 3e aa b1 4e be 0d b0 34 3e
       0.12418646 0.1455099 -0.20184961 0.17645283
000030 3e 0b 97 3b 31 9c 1b 3d 3e f3 8d 3b 19 ce 10 3b
       0.0046094945 0.037990753 0.0043319752 0.00220955

value_fcs.0.weight f4 [32, 16]
000000 61 70 47 be 8a d6 b6 be 62 6b cc be 6c 89 ca 3e
       -0.19476463 -0.35710555 -0.39925677 0.3955797
000010 79 c6 42 be 5f 58 dd be f2 f9 19 be 59 f4 09 be
       -0.19021024 -0.43231484 -0.15036753 -0.13472117
000020 33 80 0b bf e3 09 b1 be 7f 4b 88 bb f3 4c c0 3e
       -0.5449249 -0.34577855 -0.0041593905 0.37558708
000030 85 71 04 3e b0 21 e5 3c cd d0 62 bf 4d 37 62 3c
       0.1293393 0.027970165 -0.88599855 0.01380713
000040 59 3a ae 3d eb df 99 3d b5 7d 3a 3e 45 a9 4b bd
       0.08507223 0.07513412 0.18212016 -0.049721975
000050 c5 7a 6f be ef 7d 1c 3e 61 ec 96 3e a0 14 c3 bd
       -0.23386677 0.15282415 0.29477218 -0.09525418
000060 7f 70 8c 3e c7 fc 68 3e 81 f6 6f be da e2 1a 3e
       0.27429578 0.22752677 -0.23433878 0.151256
000070 86 0c 85 3d cd 00 c2 3e 64 2e a6 3e fa 2b a1 3d
       0.06496529 0.37891236 0.32457268 0.07869716
000080 69 98 e9 bd 96 27 31 3d dc 93 2b be d4 52 69 3e
       -0.11406023 0.043250643 -0.16755623 0.22785503
000090 b7 4d 47 be 4f 71 0f 3e 27 00 7f bb f7 4d 7b 3e
       -0.1946324 0.14008068 -0.0038910003 0.2454146
0000a0 e0 cc f3 bc 10 67 3e be 11 eb ff bd 66 a4 ee bd
       -0.029760778 -0.18594003 -0.12496007 -0.1165245
0000b0 eb 1a 82 3d ba 28 fb 3c 11 5c 9a 3e b6 1a 0e bf
       0.063527904 0.030659068 0.30148366 -0.5550951
0000c0 c7 2d be 3e 29 4a 42 bf cb c3 d7 3e 76 b6 63 3c
       0.371443 -0.7589441 0.42141566 0.013898483
0000d0 08 4f 9b 3e ed 82 36 3d e2 76 6d bc e0 4a bf be
       0.30333734 0.044558454 -0.014493676 -0.37361813
0000e0 5e 1a 50 3e 65 68 80 be 5d db 8a bd 38 63 9f 3d
       0.20322558 -0.25079647 -0.067801215 0.07782596
0000f0 d7 49 b0 3d 2d 19 8c be 0b 36 63 3d 47 ac 23 be
       0.08607834 -0.27362958 0.05547146 -0.15983687
000100 97 25 8f be b2 9d c1 3e 04 0e 17 bf b8 2f a0 3e
       -0.27958366 0.37815624 -0.5900576 0.31286407
000110 68 f6 eb bd 6d 76 8c 3c 5c 6e 77 be d1 46 d5 bc
       -0.11521608 0.017146314 -0.24163193 -0.026034744
000120 94 b4 5a 3d 62 e0 5d be 58 f2 55 3e 57 4c 22 3e
       0.05339487 -0.21667627 0.20893228 0.15849434
000130 52 47 c9 3e 55 b3 d0 bd 83 f2 99 3e df 6e 22 3e
       0.39312226 -0.10190455 0.30067834 0.15862606
000140 62 51 91 be 3a 4e d7 bd 13 cc 31 3d 97 8e 7f be
       -0.28382403 -0.105129674 0.04340751 -0.24956737
000150 9c 7b 06 3d f6 f2 88 3e a7 a0 35 3e f8 eb b9 be
       0.032832727 0.26747864 0.17737065 -0.36312842
000160 97 75 5b 3d e0 77 69 be d9 4d 56 be 21 38 87 3e
       0.05357894 -0.22799635 -0.20928134 0.2641001
000170 d1 6b b0 be 85 96 ab be 17 e6 92 be 8c ed ee be
       -0.34457257 -0.33513275 -0.2869117 -0.4666561
000180 48 53 98 3e 87 59 1d 3e c1 7f 55 3e bb f0 10 3f
       0.2975104 0.15366183 0.20849515 0.56617326
000190 d4 b2 6e bd 35 6f 95 be 2e 2a 14 3d 88 63 bc be
       -0.058276013 -0.29186407 0.03617304 -0.36794686
0001a0 e8 35 5e be 50 69 1c 3e d2 25 03 bd c2 31 d1 be
       -0.21700251 0.15274549 -0.03201849 -0.40858275
0001b0 5a eb 96 be c5 e1 50 3e b8 39 2f bd e7 01 90 3e
       -0.29476434 0.20398624 -0.042779654 0.2812645
0001c0 13 b2 9b be e1 4f 97 3e 04 a9 33 be 01 68 29 be
       -0.30409297 0.2955313 -0.17544943 -0.1654358
0001d0 d2 3d ca 3d 6b bb 0c 3f fe 3f 11 bd 68 42 5d be
       0.098750725 0.5497348 -0.03546142 -0.21607363
0001e0 df 94 d9 be 71 d0 93 be 33 d3 1d 3e 88 2b 5e be
       -0.42496392 -0.28869966 0.15412597 -0.21696293
0001f0 e3 b8 9b 3d 21 b1 9f 3d c8 50 81 3d e5 7a c9 bc
       0.07603624 0.077974565 0.06314236 -0.024594733
000200 e9 6a d4 3e 60 60 7b 3e 29 05 98 3d 16 1a 21 3e
       0.41487816 0.24548483 0.07422859 0.15732607
000210 9d 47 5f bc 9a 3b 95 bd d5 80 25 3e 71 19 15 3e
       -0.013627914 -0.07286759 0.16162427 0.14560486
000220 82 4b 81 3e b7 f6 3f 3e ef 64 84 3e d9 14 01 be
       0.2525292 0.18746458 0.25858256 -0.12605609
000230 69 a6 9e 3d 4c cf ea 3d 9e 0a 60 3d 3c 8d 8c be
       0.07746584 0.1146532 0.054697625 -0.27451503
000240 fb 93 e7 3d 6d a7 3f bd 7e 76 99 bd 37 d9 a5 be
       0.11307522 -0.04679053 -0.07493304 -0.32392284
000250 b0 c5 2d bd 16 b1 0d 3e ec 88 7c be 0b 94 12 be
       -0.042424858 0.13837084 -0.24661607 -0.14314286
000260 bc c3 68 bf bc 64 08 3d 2e 4f bb bd bb 3a 30 be
       -0.90923667 0.033299193 -0.09145962 -0.17209904
000270 9c 04 bc 3e 35 c2 d0 3e 11 d4 a8 3e ed d3 0d be
       0.36722267 0.40773168 0.32974294 -0.13850375
000280 dc 8a 3c 3d f1 37 a0 3d 27 3f 82 3e 29 56 26 3d
       0.046030864 0.0782317 0.25438806 0.040609512
000290 db 84 88 bd 2b cb 22 3f db c5 b1 3c c4 e1 e3 be
       -0.06665965 0.6359126 0.02170079 -0.44508183
0002a0 64 9e 29 be 68 c3 84 3d ef 5c d0 3d 45 47 ca be
       -0.16564327 0.06482583 0.10173976 -0.395075
0002b0 b7 ae ff bd 12 bf d5 bc ad 2e 72 bd 49 48 42 bd
       -0.12484496 -0.026092086 -0.059126545 -0.047432218
0002c0 af 90 b6 be 5d 85 1b 3e a2 b5 d1 be 4c d2 67 be
       -0.3565726 0.15187593 -0.40958887 -0.22638816
0002d0 6f ef 25 3e 47 13 c5 3d 96 56 03 be 17 46 5b 3d
       0.16204618 0.096228175 -0.12825999 0.05353364
0002e0 86 f8 be 3e 9f d1 a4 3e 45 8e e2 be 37 21 2b bd
       0.37298983 0.32191178 -0.44249168 -0.041779723
0002f0 16 1f 59 be 2f 4b 6b 3d 0b 6b 7a be 2b e5 b4 bd
       -0.21203265 0.057444748 -0.24454896 -0.08832773
000300 84 0a 41 be b7 67 d0 be 8e b9 c6 be e9 8f cc 3e
       -0.18851668 -0.40704128 -0.38813442 0.39953545
000310 e7 78 13 bb 5d c7 a3 3e f0 52 07 3e 45 28 74 be
       -0.0022502483 0.3198804 0.13215232 -0.23843487
000320 eb f4 71 be c1 f2 22 be bb 14 bc be bd 59 07 3e
       -0.23628585 -0.15912916 -0.36734566 0.13217826
000330 7e e0 78 be c6 46 a1 3e 11 dd cf 3e a4 15 06 bf
       -0.24304387 0.31499308 0.40598348 -0.5237677
000340 4e 68 21 3e 56 ec 38 be 4b c4 eb 3e 5a 3f 51 be
       0.15762445 -0.18058905 0.46048197 -0.20434323
000350 8a 1d 53 3e 08 c3 14 3e 25 af fe 3c 52 7c 8a 3e
       0.20616737 0.14527524 0.031089375 0.27047974
000360 b4 f7 0d 3d 23 fe b2 3d 93 17 1e be 79 45 54 be
       0.034660056 0.08739879 -0.1543868 -0.20729627
000370 94 ab 52 3e 9f 49 85 be e5 c9 ef 3e 5d 98 69 be
       0.20573264 -0.2603273 0.4683372 -0.22812028
000380 f9 85 05 3e 1c be 87 3e 19 cd 97 bc 57 2d 1a be
       0.13039388 0.2651223 -0.018530415 -0.15056358
000390 71 61 d5 bd b2 c8 70 bd eb f4 f1 3d 4b b3 45 3e
       -0.10418976 -0.058785148 0.118142925 0.19306676
0003a0 0a 99 44 3e 5b 07 6a 3e 68 e6 d1 bd e7 5e 38 be
       0.19199005 0.22854368 -0.10249025 -0.18004952
0003b0 0e 25 35 3d 68 98 70 be 05 62 74 be 17 9e 3b 3b
       0.04422479 -0.23495638 -0.23865516 0.0028628164
0003c0 31 a8 8a 3e be aa 21 be eb 8f c3 bc 6c 5b 20 be
       0.27081445 -0.15787789 -0.023872336 -0.15659875
0003d0 8e ea 4b 3c ba 46 f1 3c 7b 0f 39 3d ca 1e 22 bd
       0.012446059 0.02945267 0.04518078 -0.039580144
0003e0 98 93 71 bb 2e 21 29 3d 61 d5 32 be 99 d9 63 3d
       -0.0036861654 0.04129141 -0.1746421 0.05562744
0003f0 64 51 16 3d 4c 94 bd be 64 b2 ae be 29 64 98 3d
       0.036698714 -0.37027204 -0.34120476 0.07440979

value_fcs.0.bias f4 [32]
000000 04 7f 02 3e f5 7c b2 3e e2 e9 89 3e 92 e0 2f bd
       0.12743765 0.3486096 0.2693625 -0.042938776
000010 29 61 c1 bd 38 0d 65 be 1f 32 87 3d 79 6a 02 3c
       -0.0944236 -0.22368324 0.06601357 0.007959955
000020 64 3b 45 be bb 00 5f be 9e d0 88 be 3e 8f fd 3e
       -0.19260937 -0.21777622 -0.26721662 0.49523348
000030 34 29 6a bd 29 55 41 3e dd 44 cf 3e 81 d7 0b be
       -0.0571682 0.18880142 0.40482226 -0.13656427
000040 b3 cf 83 3e 85 0b 07 3f f5 e1 bc 3e b8 4a 05 3e
       0.257444 0.5275195 0.36891142 0.13016784
000050 f8 e2 db 3e 0c a9 fe bd 62 3c d8 3e ff 9e 15 3f
       0.429466 -0.12434587 0.42233568 0.58445734
000060 82 e6 8c be 1c df 97 3b cf 55 04 3f 07 1a ed 3d
       -0.27519614 0.004634751 0.51693434 0.1157723
000070 32 3c 02 be bc 71 d1 3d e2 28 80 3e 2f 7a 9a be
       -0.12718275 0.10226771 0.2503119 -0.30171344

value_fcs.1.weight f4 [16, 32]
000000 55 e5 3a 3e a6 2d 39 3e e2 26 a3 3e 6a 80 cf 3d
       0.18251546 0.1808382 0.31865603 0.10131915
000010 c9 1d 0b bf bd 20 51 bb a4 14 5c 3e 41 cc fa 3d
       -0.54342324 -0.0031910383 0.21492249 0.122459896
000020 5c be 9f 3d 7b ec 66 be 7b 5a d7 be 91 f4 e6 3e
       0.0779998 -0.22551148 -0.4206122 0.45108464
000030 a8 b9 24 3e 0f d7 98 3e cf 2a a8 3e 07 47 49 be
       0.16086447 0.29851577 0.3284516 -0.19656001
000040 83 4a 85 3e 8b 49 9d 3e 98 48 88 3e 80 2e 64 3d
       0.2603341 0.3072017 0.26617885 0.05570841
000050 6e 01 93 3e a7 6e 7a bd 48 2f aa 3e da 71 85 3e
       0.28712028 -0.061140683 0.33239198 0.26063424
000060 46 fa 52 bd 62 9a cc 3d 8a 67 eb 3e 11 4c 0b 3d
       -0.05150821 0.09990384 0.45977432 0.03400809
000070 ae 83 6d be 0d d1 3d 3e 71 a9 37 3e eb 04 bf be
       -0.23194763 0.18536778 0.1793573 -0.3730844
000080 a0 29 de 3c 5c 81 27 be a0 e8 60 bc 6b 2e 15 3e
       0.027119458 -0.1635794 -0.013727337 0.14568488
000090 4e 5a b5 3d 80 a6 ae bb 8b c8 b9 bd 50 3d 18 3d
       0.08855115 -0.005329907 -0.09071454 0.037167847
0000a0 69 0f 1f 3e 62 70 b5 3d 80 0a 5d 3b 10 35 5d 3d
       0.15533222 0.08859326 0.0033728182 0.054005682
0000b0 80 a3 6a 3c 18 33 2f bd 4c e6 04 be 63 ed ab bd
       0.014321208 -0.042773336 -0.12978476 -0.08394887
0000c0 96 0d 9a bd cc 90 d3 bd 5d 9b 2e 3e bc 4e 1a be
       -0.075221226 -0.10330352 0.17051454 -0.15069097
0000d0 c0 e9 13 3c 20 5b 22 3c 29 bb b5 bd 38 8e b2 bc
       0.009027898 0.009909421 -0.088735886 -0.02179633
0000e0 86 1d 84 3d c6 fb fd bd 10 6e 70 3d c0 6c 1d bc
       0.06450944 -0.124015376 0.058698714 -0.009608448
0000f0 a9 dc af bd 97 3c 0b be 90 d7 8c bc ba 66 a9 bd
       -0.085870095 -0.13597332 -0.017192632 -0.08271547
000100 5a 6d 08 be ec 6c 8a be ba c7 d9 3d 73 fe 79 3e
       -0.13322964 -0.27036226 0.10633798 0.24413471
000110 d0 aa 6b 3c c4 54 51 be cc c6 d6 be cf fe 12 3d
       0.014383987 -0.20442492 -0.41948545 0.035887536
000120 ff c2 5c 3d 05 6a 8d 3e 02 be 8a 3c 6f 32 60 3d
       0.0538969 0.2761995 0.016936306 0.054735597
000130 b5 ca 3c 3d f5 9e 48 be a8 fc d0 3d ae 5f 4e be
       0.046091754 -0.19591887 0.1020444 -0.20153686
000140 f7 d8 8e 3d 25 3c b6 be a4 de 06 3e b4 21 a4 bd
       0.069749765 -0.35592762 0.13170868 -0.08014241
000150 e4 69 d6 3d a3 61 ba 3d d7 24 b2 be 52 b3 ab be
       0.10469416 0.09100654 -0.34793732 -0.33535248
000160 07 86 36 3e 24 df 4a be 7b 04 14 be 40 eb 2a be
       0.17824565 -0.19811684 -0.14454834 -0.16691303
000170 c6 81 f7 ba b4 b1 29 3e fa fa c2 bd 4f f0 4c 3e
       -0.001888328 0.16571695 -0.09520526 0.20013545
000180 d7 cd b6 be 07 c2 cb 3e 22 50 1d 3e c2 76 54 3e
       -0.35703918 0.3979647 0.153626 0.20748428
000190 85 da dc be 09 e7 4c bc 52 3c a4 3d 65 b3 4f be
       -0.43135467 -0.012506255 0.08019318 -0.20283277
0001a0 d9 4c 45 3e 26 69 aa be 98 0f 0e bf 44 da e1 3e
       0.19267596 -0.33283347 -0.55492544 0.44111836
0001b0 f2 f4 07 3e ed 6d 9a 3e 00 23 ed 3d b4 7a 30 be
       0.13277033 0.30161992 0.11578941 -0.17234308
0001c0 5b a9 a5 be 55 93 dd bd 5c 3d e5 3e 52 c7 c1 3e
       -0.3235577 -0.10819117 0.44773376 0.37847382
0001d0 e5 c4 6c 3e e7 d0 e8 bd f2 b7 7b 3e 03 dc 9d 3e
       0.23121984 -0.1136797 0.24581888 0.30831918
0001e0 6d 7f 76 3e 81 c5 0f 3d 32 58 8c 3e 68 29 c1 3d
       0.24072047 0.035100464 0.27411038 0.09431726
0001f0 b7 44 8c 3d 26 8f fa 3d f9 c3 49 3e 3a 4e 72 be
       0.06849044 0.12234335 0.19703664 -0.23662654
000200 42 b1 b9 be 24 07 8b bd 4c 73 3d 3e 79 66 17 3e
       -0.3626805 -0.06788471 0.18501014 0.14785184
000210 b9 da 2f 3e 4b a2 34 bd 9b 90 73 be 67 f9 80 bc
       0.1717328 -0.044100087 -0.23785631 -0.015743924
000220 9a e3 13 3d 8d 9c 81 3e a4 15 6b 3d 29 e1 34 bd
       0.03610573 0.2531475 0.057393685 -0.044160042
000230 6d 23 0a 3e 5f 43 ea bd 14 b0 93 bd b9 60 2d be
       0.13490076 -0.11438631 -0.072113186 -0.16931428
000240 9c 6a e6 bd c9 76 79 be 9e 4c db 3d 40 16 12 be
       -0.11250803 -0.24361719 0.10707973 -0.142663
000250 be 85 46 3e 62 2a a4 bd 67 c0 b9 be 54 4a 5a be
       0.19386956 -0.080158964 -0.36279604 -0.21317416
000260 ef 78 5a 3e d0 d1 86 be d4 5c 48 be 03 47 8d be
       0.21335195 -0.2633195 -0.19566661 -0.2759324
000270 f8 b4 2b 3e a6 f0 d1 3c 79 c8 2d 3d 5c 9b 10 3e
       0.16768253 0.025627445 0.042427514 0.14121765
000280 e7 b2 3e 3e 97 6c ba 3e a6 a3 a3 3e 00 4e 22 3c
       0.18622933 0.36410972 0.3196079 0.009906292
000290 23 d7 0d bf 91 a5 9c be 0d fe 8f 3d b8 17 0a 3e
       -0.554064 -0.30595067 0.07030878 0.1348561
0002a0 d5 84 36 be 22 94 05 bf 3c e7 04 bf e8 85 b7 3e
       -0.17824109 -0.5217916 -0.51915336 0.3584435
0002b0 6f 1a 85 3e ba 46 5f 3e e1 7a 41 3e 02 5f 49 bc
       0.2599673 0.21804324 0.18894531 -0.012290718
0002c0 c3 23 f6 3d f9 d8 fe 3e b3 71 b5 3e 1c dc 4e 3e
       0.1201854 0.49774912 0.35438308 0.20201153
0002d0 2b 47 b9 3e ae 01 8f 3d b5 e3 85 3e df 23 df 3e
       0.3618711 0.06982742 0.2615029 0.43582055
0002e0 32 25 44 bd af cf 08 3e ab ef c8 3e dd 10 83 3e
       -0.047887035 0.13360475 0.39245352 0.25598803
0002f0 3e 87 cb be 49 d8 8d 3d 9b 11 9d 3d 95 76 c5 be
       -0.3975162 0.06926019 0.076693736 -0.38567033
000300 08 8a 7a be 3b 5e 90 3c 76 61 7f 3d b5 e1 85 3e
       -0.24466717 0.017623058 0.062348805 0.26148763
000310 8b 2c e4 bd b9 eb 88 3e e4 ac bf 3e 22 17 43 bf
       -0.111413084 0.26742342 0.37436593 -0.7620717
000320 cf 3f f0 3d 5f 6e 63 3e d8 55 e4 3d 31 af 1c 3e
       0.117309205 0.22210072 0.11149186 0.15301205
000330 c9 cb 30 3e a2 8b 74 3e 9d 5e 4d 3e fb 60 60 3e
       0.17265238 0.2388139 0.20055623 0.21911995
000340 f2 2b 24 be b1 e1 7a be 15 04 f2 3c 50 cc c0 bd
       -0.16032389 -0.24500157 0.029542962 -0.094139695
000350 ad 86 81 3d ce c3 70 3d 71 78 06 bd 57 c5 e2 3d
       0.063245155 0.058780484 -0.032829706 0.11072796
000360 97 31 c0 be 45 92 04 be 73 52 d2 be 37 fe 10 3e
       -0.37537834 -0.12946422 -0.4107853 0.14159475
000370 da b9 24 be 77 f5 80 3e 36 ed 9e 3e a5 31 87 3e
       -0.16086522 0.25187275 0.31040353 0.26405063
000380 d4 3c f7 bd ee 14 21 bd e1 23 89 be 4c 4d 72 be
       -0.12072149 -0.0393266 -0.26785186 -0.23662299
000390 10 e2 ed 3d 08 30 a0 be c1 88 3f be f4 3f fb bd
       0.116153836 -0.31286645 -0.18704511 -0.122680575
0003a0 c7 c3 63 3c 1d 1c 10 bd 30 e6 87 3e e0 42 c2 be
       0.013901657 -0.03518306 0.26542807 -0.37941647
0003b0 82 0a ba bd db bf 91 bc 76 8e 8c be 6d db 9e bd
       -0.090840355 -0.01779168 -0.2745244 -0.07756696
0003c0 7b 2a 87 be 0c e8 2a 3e f1 8b 6b be bc c0 9c be
       -0.26399598 0.16690081 -0.23002602 -0.30615795
0003d0 d9 f6 02 be 02 fd a2 3d 4d 76 78 be f6 a3 22 3d
       -0.12789477 0.07958414 -0.24263878 0.039707147
0003e0 77 08 22 3e e9 cd c4 3d 23 c2 7b 3e e5 a6 5b 3d
       0.15823542 0.09609587 0.24585776 0.05362596
0003f0 e7 e5 92 3e de d0 7a bd 33 f3 4f be 42 78 12 be
       0.28691027 -0.061234348 -0.20307617 -0.14303687

value_fcs.1.bias f4 [16]
000000 fc 49 ef 3e c4 b9 00 be 2c 72 c7 bc d7 13 6b 3e
       0.46736133 -0.12570864 -0.024346434 0.22956787
000010 c9 18 b5 bc 1c c6 17 3f e9 2b 88 be d3 46 e4 bd
       -0.022106545 0.59286666 -0.26596 -0.11146321
000020 e6 33 ae 3d bf 77 05 be ac d7 05 3d 8b 63 f6 3e
       0.085059926 -0.13033961 0.032676384 0.4812282
000030 f3 94 3a be 05 80 23 3f 58 b6 25 3f 22 e6 15 be
       -0.18220882 0.6386722 0.6473136 -0.1463857

value_fcs.2.weight f4 [1, 16]
000000 72 75 c6 3e e0 6e 7c 3d f5 ee 74 be 73 ea b5 3e
       0.3876148 0.061629176 -0.2391928 0.35530433
000010 d1 b6 1a be 00 9f 03 3f 47 fd a9 be 3c f4 72 be
       -0.15108801 0.5141449 -0.33201048 -0.2372598
000020 65 32 2d 3e 5f 8d e3 be 8e 70 8a be 69 be eb 3e
       0.16913755 -0.44443795 -0.27038997 0.4604371
000030 8b db 70 3c 15 b3 c4 3e 6e 32 b7 3e 8d 35 8a bd
       0.014700781 0.3841788 0.35780662 -0.06748495

advantage_fcs.0.weight f4 [32, 16]
000000 b7 79 36 bd 49 af bd bb 7c b8 72 3e 09 0a 66 be
       -0.04454967 -0.005788718 0.23703188 -0.22464766
000010 da 31 a8 bc 97 b3 f5 bd 99 b6 3b 3e 09 8a 0a 3f
       -0.020531584 -0.11997145 0.18331374 0.54116875
000020 ec 69 5d 3e da 31 66 3d 7b d4 c6 3e c3 d5 8f 3e
       0.21622437 0.056199886 0.38833985 0.28092775
000030 88 0e 14 3e 23 96 28 be c9 32 3a 3e 61 12 01 be
       0.14458668 -0.16463523 0.18183435 -0.12604667
000040 f4 fd 32 be a0 27 15 3d 3b 7a 06 3c 38 bd 55 3d
       -0.17479688 0.036414742 0.008207853 0.052182406
000050 50 33 d5 bc 50 fb 35 3e 8c da 58 be 00 69 85 bc
       -0.026025444 0.1777165 -0.21177119 -0.01628542
000060 b8 21 3a 3d 34 76 e1 bd 70 b6 94 bc 99 2a 82 be
       0.045442313 -0.110088736 -0.0181534 -0.25423124
000070 52 5f 78 bc 40 1e 2d 3c 38 9f 31 bd 22 02 7a be
       -0.015159445 0.010566294 -0.043364733 -0.24414876
000080 5a 21 90 be f6 ca 26 bf 8e c6 8f 3e 40 06 bd 3e
       -0.28150445 -0.65153444 0.28081173 0.3691883
000090 45 fc e5 3e ef 26 39 3f 21 14 91 3d 81 a2 04 bf
       0.4491903 0.7232503 0.070839174 -0.5181046
0000a0 27 d1 c3 be 61 b7 58 bf 4a e6 cd 3c fe a9 21 3c
       -0.38245508 -0.84654814 0.025134224 0.009867189
0000b0 6e 60 56 3e fa 43 68 be 6a 42 12 bf b9 cd db be
       0.20935223 -0.22682181 -0.5713259 -0.4293039
0000c0 af ac cd 3e a2 c8 9b 3e 1c b0 ed 3d f9 81 da bd
       0.4017081 0.30426508 0.11605856 -0.106693216
0000d0 c6 dd ca 3e 95 43 60 be 67 9e 96 3e 41 69 53 3e
       0.39622325 -0.2190078 0.29417726 0.2064562
0000e0 5e 34 30 3d 74 0a db 3e 64 74 73 3e 1f 47 02 3d
       0.04301869 0.42781413 0.23774868 0.031806108
0000f0 0d 27 80 3e 0f bf e3 3d 32 e8 39 3e 3b 95 bc be
       0.25029793 0.11120426 0.18154982 -0.36832604
000100 14 42 30 bf 5f 30 2c bf bf 1c 28 be 51 a4 d9 bc
       -0.6885083 -0.6726131 -0.16417216 -0.02656761
000110 64 75 50 bf db f7 2b 3f b0 01 50 be 52 e0 3d 3c
       -0.81429124 0.6717507 -0.20313144 0.011589127
000120 76 eb 09 be 04 90 f6 be b6 be 7d be 6d 55 82 3e
       -0.13468727 -0.4815675 -0.24779782 0.254558
000130 c0 23 b8 be 50 87 72 3e c0 00 65 3e b2 52 61 3c
       -0.35964775 0.2368443 0.22363567 0.013752626
000140 b6 5a aa 3e 97 ef e7 3e 4f 36 de 3e 2f 31 b1 be
       0.33272332 0.4529998 0.4340081 -0.34607837
000150 86 c2 47 3e 85 bf 16 3f 8d 0f c8 3e ee 8d b6 be
       0.19507799 0.58885986 0.39074364 -0.3565516
000160 60 43 6c 3e b5 43 bf 3e 03 80 10 bf f5 97 b5 bc
       0.23072577 0.37356344 -0.5644533 -0.022167185
000170 da 6f d0 bc 91 58 a2 be 40 0d 1e bc 16 d3 7e bd
       -0.02544396 -0.31708196 -0.009646714 -0.062213026
000180 48 2b a9 3d df 8b ac 3d b1 84 c3 3c bd 4e ea 3e
       0.08260208 0.08425116 0.023866983 0.45763198
000190 0c 4b 68 3e 49 6e 86 3c 9f f3 dd 3e 99 04 69 bf
       0.22684878 0.01641001 0.4334993 -0.9102264
0001a0 e1 2b 93 bd df 74 f2 3e ed cd 2e 3f cb 3d 83 bd
       -0.071861036 0.4735479 0.6828297 -0.064082704
0001b0 4d c5 be bd 6f c5 8b 3d e6 fd 3a 3f 92 7d a8 3d
       -0.09314976 0.06824767 0.7304367 0.08227076
0001c0 f7 6f db be a6 35 40 be 13 cb 48 be 32 af 19 bc
       -0.4285886 -0.18770465 -0.19608717 -0.009380149
0001d0 c9 58 9a 3d c7 62 87 be 34 81 07 3e fe fb 16 3e
       0.07536466 -0.2644255 0.13232881 0.14744565
0001e0 12 95 6b 3e 8c 64 b5 3b d7 25 13 3f cc 21 02 3e
       0.23006085 0.0055356678 0.57479614 0.12708205
0001f0 7a 5d 0a 3f f6 40 13 be 89 be c2 3e 27 9b b6 bf
       0.54048884 -0.1438025 0.38035992 -1.4266099
000200 ec e1 89 3e 3d 62 a6 3e 62 8b 1f be 75 5c eb 3d
       0.26930177 0.32496825 -0.15580514 0.11492244
000210 35 be 33 3f 60 4a 32 3f 8b 44 8d be 83 e8 58 be
       0.7021211 0.6964474 -0.27591357 -0.21182446
000220 57 87 26 bc 59 41 a4 be 48 77 41 bd 81 38 7f 3e
       -0.0101641035 -0.32081106 -0.047232896 0.24923898
000230 87 c0 d8 3e d3 0c cd be b0 91 ce be ca 98 93 3b
       0.42334387 -0.40048847 -0.40345526 0.004504298
000240 73 c2 5d be 32 0c 0a 3e e4 36 de 3e b3 e9 2d 3e
       -0.21656208 0.13481215 0.43401253 0.1698368
000250 f6 88 c4 3d 88 9e 16 3f 06 94 28 be e9 5f 76 3d
       0.09596436 0.5883565 -0.16462716 0.06015006
000260 76 d7 8e 3d 90 da ba 3d e4 f7 a3 bd e3 d0 81 3e
       0.0697469 0.09123719 -0.08006266 0.2535468
000270 5c 04 56 be f5 b7 93 be ff f5 e3 be 4e 1f 93 3d
       -0.209001 -0.28851286 -0.44523618 0.07183705
000280 ba 5b a0 bd 04 93 e0 3d 0f 06 8b 3e e3 7d 04 bf
       -0.078299955 0.10965541 0.2715306 -0.5175459
000290 48 4b a5 3e e5 7b 3d 3f d9 28 0a be 8e 0d 99 bc
       0.32283998 0.74017173 -0.13492145 -0.018683221
0002a0 55 81 d7 bd 09 b4 0c bf d2 19 e9 be a9 5a ce 3e
       -0.10522715 -0.5496221 -0.45527512 0.40303543
0002b0 3f 4a 3d bd 93 f6 14 be 85 40 8e be 55 a6 27 bd
       -0.046213385 -0.14547186 -0.277836 -0.04093011
0002c0 7b 97 40 3e 63 67 7b 3d 8f e3 09 3e e6 7b 11 3f
       0.18807785 0.061377894 0.13465713 0.5682968
0002d0 49 c4 f6 3e 16 9d af bd 53 06 ec be f9 99 9b 3e
       0.4819663 -0.08574884 -0.46098575 0.3039091
0002e0 d5 de 15 bf d7 bd 40 be c4 eb 03 3d 7c 54 51 bd
       -0.5854314 -0.18822418 0.032207265 -0.05110596
0002f0 32 db 73 3f 6c 35 37 3e 27 0b 06 3e e4 96 bc 3e
       0.9525634 0.17891473 0.13090192 0.3683387
000300 cb 54 11 3f 7a e0 14 bf 39 3e 96 be 68 97 a0 3e
       0.5677001 -0.58155024 -0.29344347 0.31365514
000310 da 86 04 bf a8 88 c9 be 9e 2f 18 be da 5f 86 3e
       -0.5176827 -0.39362073 -0.14861915 0.26245004
000320 8a 33 88 3e c9 e8 61 be 45 14 0b 3f 57 56 a8 3e
       0.2660182 -0.22061457 0.54327804 0.32878372
000330 de 80 f6 3e c0 ce 9f be aa 7e ab 3d 89 91 91 3e
       0.48145193 -0.31212425 0.08373769 0.28431347
000340 b8 c9 12 3f 3f 73 26 3e 30 65 76 3e 4f c8 ea be
       0.5733905 0.162549 0.24062037 -0.45855948
000350 b0 96 4c bf de 96 08 3f 64 c5 89 3e 69 d7 c0 3e
       -0.7991743 0.53355205 0.2690841 0.37664345
000360 52 84 88 3e 2b 40 9e 3e 48 1c 0a bf fd f7 9b 3c
       0.26663452 0.3090833 -0.53949404 0.019039148
000370 b1 f0 7d bf 06 22 10 3e ed 02 9b be b9 87 a3 be
       -0.9919539 0.14075479 -0.3027567 -0.31939486
000380 c4 43 c9 3e ab 39 88 3d e8 f1 09 3f 66 82 92 be
       0.39309514 0.06651624 0.53884745 -0.2861511
000390 a6 c4 97 3e d6 e2 10 be 0e 71 92 3e dd 02 cb be
       0.29642218 -0.14149031 0.2860188 -0.39650622
0003a0 1c 52 94 be aa 0c aa be e9 c5 10 be 09 1e 6d be
       -0.28968894 -0.33212787 -0.14137997 -0.23155989
0003b0 0c cd 12 3f 9d 68 ed be b9 b8 b4 be 58 e4 d1 bd
       0.57344127 -0.46368876 -0.35297182 -0.10248631
0003c0 fb dc 86 3c d0 f0 12 bf aa f2 2b be fc c3 04 3f
       0.016462794 -0.573987 -0.16791788 0.5186155
0003d0 0a a7 38 3e f0 61 43 3e 76 a8 8e be 3d cb d0 bb
       0.1803247 0.19080329 -0.278629 -0.006371884
0003e0 b0 f9 01 bd b7 9a 3d 3e fc 66 8f be 73 9d 14 be
       -0.03173226 0.1851605 -0.28008258 -0.14513187
0003f0 f2 8b 43 3e c7 82 5c be b7 a7 14 be 06 f1 4b bd
       0.19096354 -0.21534263 -0.14517103 -0.049790405

advantage_fcs.0.bias f4 [32]
000000 50 a1 2c be 45 29 d9 bd aa 07 24 3e 1a af c7 bd
       -0.16858411 -0.10603575 0.16018549 -0.09750195
000010 52 da 03 3e c6 1b 4f be 3d d9 8f be e0 f4 a1 3d
       0.12876251 -0.20225438 -0.28095427 0.07908034
000020 43 21 dd bc 4c 5e 91 be 87 a7 4b 3e c1 77 88 bd
       -0.0269934 -0.28392255 0.19888125 -0.06663466
000030 a5 2c 86 be c8 0a 22 be 47 39 3c bd 49 84 89 3e
       -0.26205936 -0.15824425 -0.04595306 0.26858738
000040 b4 60 8e be a7 4d 0c be d8 be 4a be d7 aa 4f be
       -0.27808154 -0.13701497 -0.19799364 -0.20280014
000050 b3 31 d9 3d 74 9f 8e 3c 35 66 7b 3e cf 7f 18 3e
       0.106051825 0.017410018 0.24550708 0.14892505
000060 46 49 24 3d c9 af 5c be ec 17 53 bc cb be 18 3e
       0.04010894 -0.21551432 -0.012884121 0.14916532
000070 cb 71 84 3d 2e 0f a9 3d cd 92 82 3e 2d d4 a2 3d
       0.06467017 0.082548484 0.25502625 0.079506256
