trained_agents/Dueling DQN-BENCHMARK.pth (torch_old, 70821 bytes, 17 tensors)

shared_fcs.0.weight f4 [128, 37]
00000000: 8053 a1ba 5e9d b43d 208e 0abe 5cc8 f7bd
00000010: 62ad 81bd 4492 343d c077 55bb 877a 053e
00000020: 8008 6fbc 302f 323d f280 4bbd e45c 04bd
00000030: e5d3 20be b2fb debd 81ca 8abd 008e c73b
00000040: e61a 853d 6a05 ca3d 6141 e4bd 989d 92bd
00000050: 2095 743d 93ca 0b3e d494 0abd cef2 fb3d
00000060: 2013 d9bc 8081 8e3c 976e 183e 132b 1cbe
00000070: 65f5 d3bd d879 2abd cd3d 83bd 2973 113e
00000080: 2b3c dabd 34fd 9abd 8239 ebbd 3aaa 1dbe
00000090: 008a c4bd 6bb5 103e a43c 963d 182f a33d
000000a0: f0a7 0d3c 6e9d acbd c0d9 e33c b32e 1dbe
000000b0: ba47 f3bd c692 adbd 126e d43d 7268 c53d
000000c0: e851 95bd 8060 c2bb 4655 d73d 5d5b 273e
000000d0: 3ca0 853d e8ef b53c d6be e13d 4b3e c6bd
000000e0: c8f5 fa3c ba84 02be c45a e9bd 96ed adbd
000000f0: be57 983d 2e67 873d 4b70 c7bd b06e 4b3d
00000100: 3ad5 b83d e8fb a9bc 60af cd3b 6006 1c3d
00000110: c2df d03d b9a4 213e f4ba 01be d2c5 76bd
00000120: 7852 843d 557b 0b3e a37e 123e 3b8a 143e
00000130: 1803 063d b763 12be 70c8 773c 70a2 d2bd
00000140: b0e3 1cbe a792 153e 9f00 003e aced 27be
00000150: 4013 fc3c e8df e2bc b09f ddbc 2c1f 9abd
00000160: d479 813d 126c c7bd c8da 763d 3444 aa3d
00000170: b206 f13d 9cc8 7b3d d69d 26be c068 dabd
00000180: 2a1d a83d 60f0 0c3d aa52 03be 46df c1bd
00000190: b95e 1e3e fedd e23d 0fce 92bd a47a 29bd
000001a0: 5d5d 20be 80a7 41bb f78b fdbd 8cda 01be
000001b0: 6069 14bc 7835 ca3c 67e2 89bd a6c8 c73d
000001c0: 74e3 ccbd 35c0 183e a6bb e63d 4cf6 0dbe
000001d0: e297 27bd a013 f33b 487e c43c 40b5 1f3d
000001e0: 5820 843d 8057 213c c247 a4bd 4e51 9f3d
000001f0: fd7b 21be d28e c7bd 1291 28bd 7a01 a4bd
00000200: f891 6bbd 96fa 09be dc3c 0fbd 60f0 0f3d
00000210: 6857 dbbd b03a 0abc ea04 f13d 6872 8abc
00000220: a0b7 953b d05d 68bc 7c47 083d 8a14 d63d
00000230: b776 1f3e 02d1 d53d 1fd4 1f3e a0cc 42bc
00000240: 403a 17be dc9d 9fbd de40 e53d 80af 8bba
00000250: a059 a7bd 2201 01be ac8b 1dbe 8d15 0ebe
00000260: fc95 08bd 6ea4 b83d 2a07 b63d 5b5b 22be
00000270: 4605 d23d 30bb 03be ec5b 0ebd aa84 88bd
00000280: f4b3 01bd 8036 04bd 6110 17be e65a 11be
00000290: 60bd d2bc 0055 0b3b 0df3 98bd 3ca9 7d3d
000002a0: 1a85 17be 20c7 35bc a50b 143e 3255 89bd
000002b0: 0304 183e d0dd 733d a5ec 17be b605 d53d
000002c0: 8068 9bbc e24c 96bd 079e 063e d709 08be
000002d0: 7883 903c fcfb 0cbd 166f f03d 48f8 3b3d
000002e0: eac7 a13d 40cf 6d3d 30ee 21bd 789d 0dbd
000002f0: c9ba 0abe da6e b63d 71a9 053e fe5e e63d
00000300: 427e edbd c042 f03b f957 edbd 8f57 b9bd
00000310: cb30 c4bd a81f 663d 32a3 c8bd 400f 6bbb
00000320: 409f e23b 9e09 d93d 9382 febd 2624 e7bd
00000330: 9f80 c3bd f2a8 eb3d 500e 72bd 29ff 0d3e
00000340: a87f 733d d088 aa3c 8067 a0ba 4c1d 05bd
00000350: 00f9 a83c 28c3 19bd 0068 97ba 38d6 ab3c
00000360: 13ae 03be 2778 b0bd dfef 073e 969e 08be
00000370: 3069 41bc 6f88 263e c83f 733d e085 983b
00000380: 9ae3 11be d2c9 a63d 32d1 efbd e425 3fbd
00000390: eced 61bd 0870 c7bc 00b3 eb3a 13da 0a3e
000003a0: a020 a83c f7c8 163e faf4 cd3d 0cdc d4bd
000003b0: a601 973d 1401 eebd 83b2 8ebd 4c0e 463d
000003c0: 1c58 5e3d f697 fc3d 6ac5 58bd 00fc 8939
000003d0: e255 ad3d 01ce 22be 726b f33d 3835 0bbe
000003e0: 407e 143b a0f8 e4bc 3753 b1bd 9000 b23c
000003f0: 0f35 0b3e 74d7 44bd ede3 c7bd 9a0a 79bd
-0.001230821 0.08819078 -0.13530779 -0.120987624 -0.06331898 0.044084802 -0.0032572597 0.13035022
-0.014589429 0.043502033 -0.04968352 -0.03231515 -0.15705831 -0.10887851 -0.06776906 0.0060899258
0.06499271 0.09864314 -0.111452825 -0.07158965 0.05971253 0.13651495 -0.03383334 0.12302171
-0.026498377 0.017395735 0.14885937 -0.15250807 -0.1034954 -0.041620106 -0.06408272 0.14204086
-0.106560074 -0.07567826 -0.11485578 -0.15396968 -0.09596634 0.14131705 0.07335785 0.07967967
0.008645996 -0.08428465 0.027813792 -0.15349846 -0.11878915 -0.084752604 0.10372557 0.09639062
-0.07291013 -0.005931914 0.105143115 0.16343446 0.06524703 0.022209123 0.11022727 -0.0967985
0.030634776 -0.12745944 -0.11394265 -0.084925815 0.074386105 0.06611477 -0.09738215 0.049666107
0.09025045 -0.020750001 0.00627701 0.038092017 0.101989284 0.15785493 -0.12668973 -0.06024725
0.06461042 0.13621266 0.1430612 0.14505856 0.032717794 -0.1429585 0.015123472 -0.10284889
-0.15321231 0.14606725 0.12500237 -0.16399258 0.030770898 -0.027694657 -0.027053684 -0.07525477
0.06322065 -0.0973741 0.06026724 0.0831379 0.11768855 0.061470613 -0.16271147 -0.10664511
0.082086876 0.034408927 -0.12824503 -0.09466414 0.15465821 0.11077498 -0.07168209 -0.041376725
-0.15660615 -0.00295493 -0.12380212 -0.12681025 -0.0090583265 0.024683699 -0.06732636 0.097550675
-0.10004321 0.14917071 0.1126626 -0.13863486 -0.04091633 0.007418111 0.023985997 0.038991213
0.064514816 0.009847522 -0.08021499 0.077791795 -0.15769954 -0.09744038 -0.041153975 -0.08008094
-0.057512254 -0.13474497 -0.03497015 0.03514135 -0.10710031 -0.008436844 0.117685154 -0.016900256
0.004569009 -0.014182523 0.033271298 0.10453136 0.1557263 0.10440256 0.15608262 -0.011889607
-0.14768314 -0.07793781 0.11194013 -0.0010657161 -0.081713915 -0.12598088 -0.15385312 -0.13875408
-0.03334616 0.090157375 0.08888085 -0.15855162 0.10254912 -0.12864375 -0.034755632 -0.06665929
-0.031665757 -0.032278538 -0.14752342 -0.14194831 -0.025725067 0.002126038 -0.07468233 0.061928973
-0.14796868 -0.011094838 0.14457567 -0.06705703 0.1484528 0.05953771 -0.14836366 0.1040148
-0.018970728 -0.07338883 0.1314622 -0.13285004 0.017640814 -0.03442 0.11739938 0.045891076
0.07899459 0.058058977 -0.039533794 -0.034574002 -0.13547815 0.08907862 0.13052918 0.11248587
-0.115963474 0.007332176 -0.11589045 -0.090499036 -0.09579619 0.056182534 -0.09796752 -0.0035867244
0.0069159567 0.105975375 -0.12427249 -0.11286192 -0.09546017 0.11506833 -0.05909568 0.13866867
0.059447914 0.02081719 -0.0012237877 -0.032498643 0.020626545 -0.03753963 -0.001155138 0.02097617
-0.12859373 -0.08616667 0.13275097 -0.13341746 -0.011804864 0.16262983 0.059387 0.004654631
-0.1424698 0.08143963 -0.11709823 -0.046666995 -0.05515854 -0.024345413 0.0017982423 0.13559751
0.02052337 0.147251 0.10056491 -0.10393533 0.07373361 -0.116212994 -0.06967642 0.04835348
0.054283246 0.12333672 -0.052922644 0.0002631843 0.084636465 -0.15898897 0.11885728 -0.1359452
0.0022658259 -0.027950585 -0.0865845 0.021728784 0.13594459 -0.048057035 -0.0976027 -0.060801126

shared_fcs.0.bias f4 [128]
00000000: 008b fdbb b41c 533d 7894 86bd 3ee0 5bbd
00000010: 9008 94bc 0135 aabd 5a06 ce3d 86f5 d13d
00000020: 03df 02be bc89 4e3d 8516 8bbd 6f9c c1bd
00000030: 584d a4bc 46db 50bd 20b5 bfbd c87a c63c
00000040: 5a2c c03d 48d0 cfbc 106a 3cbc 70b0 4a3c
00000050: a5b3 90bd 3e3f b23d f353 1b3e 302d 76bc
00000060: 8019 373c 2da4 073e 57e2 093e 8b76 fabd
00000070: eeeb 9bbd 5322 25be 1e38 ce3d bd64 033e
00000080: 6e15 75bd 7c00 583d 7c1d 233d 28d6 10be
00000090: 8673 863d fe34 a53d 80f2 6c3b 201c 8a3c
000000a0: d079 1c3d b68d f23d 8bbe 143e b090 c13c
000000b0: 1884 8f3d 4a2c 30bd 4abc c83d ec6f 84bd
000000c0: bcc3 0abe 48f7 9d3d 38bf 793d 4037 143d
000000d0: 2a40 8f3d 7042 a03c 442d 653d f231 893d
000000e0: 2fa0 b5bd a051 10bc 58f5 ca3c f077 ccbc
000000f0: 998a 0dbe 3081 7f3c a6c3 cd3d 930f b4bd
00000100: 3b48 253e 9491 193d 3632 8f3d cd02 82bd
00000110: 41b5 09be ca9a 7abd 6095 a43b 9e6b 99bd
00000120: 09ec 153e 0a7e d7bd c4c4 e2bd e2d9 6ebd
00000130: d907 173e eaf3 99bd abbd 1b3e 60cd a13d
00000140: 50a1 ccbc 6423 ae3d 9810 a03d 3f5f abbd
00000150: aca1 0abd 0b10 233e e207 c13d 2472 a4bd
00000160: 6010 35bd 2ab6 bc3d eaec aa3d 6082 553c
00000170: eda3 d8bd 9854 f8bd 1c21 0ebd 3894 773d
00000180: f893 8fbc fcbf 0cbe fe07 25bd 2909 283e
00000190: d823 0bbe c3a6 02be 1aa7 d33d 0781 273e
000001a0: f4f0 21be de41 18be 468e 52bd 6dd8 273e
000001b0: 1117 bfbd 504b 663c 976c 093e c461 6ebd
000001c0: 7880 4ebd 38ff e1bd 80d6 ce3b 1321 1d3e
000001d0: 30ad 893d caa7 ec3d e072 32bc b0ea d5bc
000001e0: 809a f0bc 9207 c03d e898 b0bc 98cc 0fbe
000001f0: a274 6cbd d6c3 833d a521 243e 40e2 f4bc
-0.0077375174 0.051541045 -0.06571287 -0.05368065 -0.01807049 -0.08310891 0.10059805 0.10251908
-0.12780385 0.050424322 -0.06791405 -0.094536655 -0.020056412 -0.050990365 -0.09360719 0.024228469
0.093834594 -0.02536787 -0.011499897 0.012371168 -0.070655145 0.08703469 0.15168743 -0.015025422
0.011175513 0.13246222 0.13465248 -0.122296415 -0.076133594 -0.16126375 0.10069297 0.12831397
-0.05983489 0.052734837 0.03982304 -0.14144194 0.06565003 0.08066748 0.0036155283 0.016859114
0.038202107 0.118434355 0.14525811 0.023628563 0.07007617 -0.043010987 0.09801538 -0.0646666
-0.13551229 0.07713181 0.060973376 0.036185503 0.0699466 0.01956293 0.05595137 0.066989794
-0.08868443 -0.008808523 0.024775192 -0.024959534 -0.13822402 0.015594766 0.100470826 -0.08792033
0.16140835 0.03749235 0.06991999 -0.063481905 -0.13448049 -0.061182775 0.0050226897 -0.074912295
0.14640822 -0.10522087 -0.11072686 -0.058313258 0.14749087 -0.07517226 0.15209071 0.079005
-0.024979264 0.08502844 0.07815665 -0.08367776 -0.03384559 0.15924089 0.09425332 -0.08029583
-0.04420507 0.092144325 0.08345969 0.013031572 -0.10578141 -0.1212551 -0.034699544 0.060444087
-0.017526612 -0.13745111 -0.040290825 0.16409744 -0.13587892 -0.12758927 0.103346065 0.16357814
-0.15814573 -0.14868876 -0.051405214 0.16391154 -0.093305714 0.014056042 0.1342033 -0.058198705
-0.050415486 -0.11035007 0.0063121915 0.15344648 0.06722486 0.11555441 -0.010891646 -0.026112884
-0.029370546 0.09376444 -0.021557286 -0.1404289 -0.057728417 0.06433837 0.1602846 -0.02989304

shared_fcs.1.weight f4 [64, 128]
00000000: 649b 9dbd ab49 85bd 5d6d 8ebd 66f0 113d
00000010: 3f6f 853d 8022 d63c 7ca8 f93c 72dc 6b3d
00000020: 8288 773d 5a2f 583d b273 4a3d 90ed c33c
00000030: fade 3a3d 186b 78bd ce54 6abd 38bc c23c
00000040: 685d 613c 5923 9fbd 4edf 83bd e31a 90bd
00000050: 19c5 8f3d 4ab3 6c3d 278f 3ebd b87f 5a3c
00000060: 088b a6bc 675d 9d3d 9cf4 a3bd 960f 84bd
00000070: dcb5 96bd deb2 523d 88fa 34bd 42a2 573d
00000080: fcc2 f43c 38f6 30bd 300f c3bc c182 12bd
00000090: deb8 1f3d 6d30 11bd bcba f53c 60e9 ce3b
000000a0: 2e90 90bd f294 63bd 3307 7bbd d6b4 3d3d
000000b0: dce4 9c3c 40a6 11bb 9f92 57bd f55a b3bd
000000c0: dc1e 00bd b28a 8abd a90d b4bd 28a6 acbd
000000d0: 4c7b 6cbd ecf9 afbd acb6 e13c 0677 073d
000000e0: 18ed 113d 2d34 b4bd bade 5f3d 302b 8d3c
000000f0: ce1f 393d 1cf6 b1bc 32db 2d3d 74ae abbd
00000100: 44a0 f63c b18a 8f3d 4630 183d 93a1 aabd
00000110: f843 cbbc 70d6 33bc 0ab1 3d3d 07ff 08bd
00000120: 8848 503c 1e30 febc 300d 66bc 809e e6ba
00000130: 79e3 4fbd e649 7bbd 2d70 953d a117 983d
00000140: c05e 2fbb 49af 9c3d ab7d 8b3d 9d0a 64bd
00000150: fddb 0fbd 48aa 78bd e819 ea3c 007f 123b
00000160: 8098 46bc 9f66 863d 9e82 0dbd f623 46bd
00000170: acae 80bd fb2d 38bd bd78 ae3d 1005 30bd
00000180: 743b c7bc 0e2d 233d 6007 8bbd 14be 5bbd
00000190: 533b 853d 7fdb 0abd 51dd 3bbd 205c 3bbc
000001a0: c859 4ebc e453 843c 28bb 043d 0393 8bbd
000001b0: e180 a43d ce1a acbd e83b f53c 944d ccbc
000001c0: 28e3 18bd 4754 a93d 9b70 aebd 60ce c53b
000001d0: 22fd 673d 89d4 a13d 5809 99bd b07a 2e3c
000001e0: cd18 b33d 4e50 b1bd 78db b03c c9d7 62bd
000001f0: b016 6b3c 4dbf a3bd d21f 323d f4a0 a0bc
00000200: ae5e 583d c036 aeba 606b 4ebc 38cb afbc
00000210: afbf a5bd a6c7 19bd 0060 403b 830b 8cbd
00000220: dddc 9e3d 2475 6bbd 220c 0dbd f8a8 41bc
00000230: 12a3 92bd 0011 37ba 5656 2ebd 2e85 97bd
00000240: a015 0e3b 1b41 a03d b44d b23c 874d 953d
00000250: 0097 62ba 36bb fcbc dde4 913d c5ca 40bd
00000260: 4076 a7bd 3c79 9e3c 526e 343d f869 58bd
00000270: 74d9 fe3c fa71 00bd a0b5 2fbc e452 a0bc
00000280: f8df 9abc ed49 93bd a075 b13c cc76 bebc
00000290: f169 8a3d a8b6 713c 9c0a 94bd 13b6 89bd
000002a0: 6eae 3cbd 3e5f 2d3d a9bf 69bd 759f 25bd
000002b0: b874 833c 2a00 7bbd ea46 32bd 4925 a43d
000002c0: 5568 3fbd fa3d f1bc 1377 813d 1841 a23c
000002d0: fd14 8e3d e979 9fbd a2f6 343d b881 5dbc
000002e0: 52f0 67bd 540f 1bbd 6718 afbd 0a73 7a3d
000002f0: d4ef 8abc 5c7f b1bd 8dcf 9a3d 8e7e 6a3d
00000300: 5cb2 153d 4b2b b13d 6378 a33d 552c a93d
00000310: 811b a23d 3d1c 933d 388e bd3c a08d f2bb
00000320: 204a 5c3b 8774 16bd 4e1b 2a3d c0d0 273b
00000330: 24d4 aa3c d334 69bd 6051 08bd efb5 873d
00000340: 80d9 0c3c 88df f93c fe07 9ebd cf08 1bbd
00000350: 006d 13bb 80f6 17bc 061b 673d f883 dabc
00000360: 0914 973d cc0a 8cbc 86d0 0c3d a7e2 7ebd
00000370: d8cc 753c 817b b0bd 0250 9bbd e6b4 67bd
00000380: e0b5 ca3c 007c e03b b028 0c3c 5069 1ebc
00000390: f719 983d 9953 b13d eec0 193d dff4 8f3d
000003a0: 3024 8fbb d018 05bd 70c4 8c3c aa0d 6e3d
000003b0: 90d0 5fbc 0efe 8abd cc1d ef3c 2494 b8bc
000003c0: 7046 2ebd f6ab 643d 409d 44bb 44f3 4ebd
000003d0: 43a2 58bd 117a aa3d ba7c 6b3d 2fcd 81bd
000003e0: 0038 3138 c0a4 faba 2692 2c3d 4a09 9bbd
000003f0: 802e ac3a 6841 f13c 1a3e 383d 606c 173c
-0.07695654 -0.06508192 -0.06954453 0.035629652 0.06515359 0.026139498 0.030475847 0.05758328
0.06043292 0.052779533 0.049426742 0.02391699 0.045622803 -0.060649008 -0.057209782 0.02377139
0.01375518 -0.07770414 -0.06439076 -0.07036378 0.07020015 0.05778817 -0.04652324 0.013336115
-0.020329967 0.07683831 -0.0800564 -0.06448285 -0.07358906 0.051440112 -0.044184238 0.052644975
0.029878132 -0.043203562 -0.023810953 -0.035769228 0.038994662 -0.035446573 0.029996268 0.0063144416
-0.0705875 -0.055561967 -0.061286163 0.046315037 0.019152097 -0.0022224337 -0.052630063 -0.08757583
-0.03127943 -0.06764735 -0.08791668 -0.08430129 -0.057734773 -0.08592591 0.027552925 0.033072494
0.0356265 -0.08799014 0.054655768 0.017232507 0.045196347 -0.0217238 0.04244537 -0.08382884
0.030105717 0.07008875 0.037155412 -0.08331599 -0.024812683 -0.010976419 0.046311416 -0.033446338
0.012712605 -0.031028803 -0.01404123 -0.0017594844 -0.050754044 -0.061349772 0.072967865 0.07426382
-0.0026759356 0.076506205 0.06811079 -0.055674184 -0.035121907 -0.060709268 0.028576806 0.002235353
-0.01212132 0.06562542 -0.034548394 -0.04837414 -0.06283316 -0.044965725 0.08519123 -0.042973578
-0.024320342 0.03983789 -0.06788516 -0.05364807 0.06505456 -0.033900734 -0.04586536 -0.0114355385
-0.012594648 0.016153283 0.03240505 -0.0681515 0.08032394 -0.0840355 0.029935792 -0.024939336
-0.037326008 0.08268028 -0.085175715 0.0060365647 0.05663789 0.07901866 -0.07472485 0.010649368
0.08744965 -0.08657895 0.021589026 -0.05538157 0.014348671 -0.07995472 0.043487377 -0.019607998
0.05282467 -0.0013291463 -0.012598842 -0.021459207 -0.08093201 -0.037543915 0.0029354095 -0.06838133
0.0775697 -0.05748476 -0.0344354 -0.01182007 -0.071600094 -0.0006983429 -0.042562805 -0.07398449
0.002168037 0.07824918 0.021765567 0.07290178 -0.00086437166 -0.030850988 0.0712373 -0.047068376
-0.08176851 0.019344918 0.044050522 -0.052835435 0.03110955 -0.031358697 -0.010724455 -0.019570775
-0.018905625 -0.071918346 0.021662533 -0.023250006 0.06758488 0.014753021 -0.07228586 -0.06724181
-0.046064787 0.04232716 -0.057067547 -0.040435273 0.016046867 -0.061279453 -0.04352466 0.08014924
-0.04673036 -0.029448498 0.0632154 0.01980643 0.06937597 -0.077869244 0.04418052 -0.013519697
-0.05662567 -0.037856415 -0.08549576 0.061144866 -0.016960062 -0.0866687 0.075591184 0.0572496
0.03654705 0.086508356 0.07981946 0.08260409 0.07915402 0.071831204 0.023139104 -0.007402137
0.0033613518 -0.036732223 0.041529946 0.0025606602 0.02085311 -0.056935143 -0.03328073 0.06626498
0.008596778 0.030502096 -0.07716368 -0.037850197 -0.002249539 -0.009275079 0.056422256 -0.026674256
0.07376868 -0.017094992 0.03437855 -0.06222787 0.015002452 -0.086173065 -0.0758362 -0.056569003
0.024744928 0.0068507195 0.0085546225 -0.009668663 0.074268274 0.08658523 0.037537508 0.07029127
-0.0043683276 -0.032494366 0.017183512 0.0581185 -0.013660565 -0.06786738 0.029189013 -0.022531576
-0.042547643 0.055828057 -0.0030000955 -0.050524965 -0.05288912 0.083240636 0.057491995 -0.06337964
4.2252243e-05 -0.0019122586 0.042131566 -0.07570131 0.0013136417 0.029450133 0.0449811 0.009242147

shared_fcs.1.bias f4 [64]
00000000: 15cb 2fbd a12b 5fbd 309e c73b ec6d 1cbd
00000010: f0ba f93c 6db1 07bd 9438 c1bc 5991 a13d
00000020: fe38 36bd 516e 9cbd 88b9 473c d7ba 88bd
00000030: 0e05 e4bc c69e 8fbd 8a85 81bd 68c4 013c
00000040: 8a74 243d 6883 babc c530 aebd 23ee 93bd
00000050: f025 bebb ea3a 353d 2c4b b2bc a2e8 1a3d
00000060: 1042 943c 3996 9e3d 460b 203d 78bf 683c
00000070: 673e 3dbd 28d6 06bc f5b9 963d 2476 053d
00000080: 64b8 6fbd 3f32 903d be8f 423d ddee 47bd
00000090: 8070 cc3b ec9f f73c 34ce 153d 48b3 51bc
000000a0: e032 32bb ae84 583d c069 9e3a ed81 2bbd
000000b0: 4b61 863d 156f 823d b837 15bd 3cca a3bd
000000c0: 7081 2ebd 3ebb 82bd 68b1 68bc 1c9d 9ebd
000000d0: 7cef 86bd e82a e13c e0fa 22bc b092 40bc
000000e0: f056 5d3c 8c1a e13c fb69 823d 609f 3bbc
000000f0: c07f a1bb f3a8 a8bd 3965 aebd c8a4 75bd
-0.042918283 -0.054484967 0.0060918555 -0.038190767 0.030484647 -0.03312819 -0.023586549 0.07889051
-0.044487946 -0.07638229 0.01219023 -0.06676262 -0.027834442 -0.070127055 -0.06324299 0.007920362
0.040150203 -0.022767738 -0.08505396 -0.07223155 -0.0058028623 0.044245638 -0.02176436 0.037819512
0.018097907 0.077434964 0.03907325 0.014205806 -0.04620209 -0.00822977 0.07359687 0.03258337
-0.058525458 0.07040834 0.047500364 -0.048811782 0.006238997 0.030227624 0.036573604 -0.012799092
-0.0027190968 0.05286091 0.0012085959 -0.041871954 0.06561526 0.063688435 -0.03643009 -0.079975575
-0.04260391 -0.0638337 -0.014202453 -0.0774481 -0.06588647 0.02748628 -0.009947509 -0.011753723
0.013509497 0.027478479 0.063678704 -0.011451572 -0.004928559 -0.082353495 -0.085154004 -0.0599716

shared_fcs.2.weight f4 [16, 64]
00000000: e495 873d d827 803d f076 323d 5af6 893d
00000010: 304f 9abc e298 acbd 8871 b73d 0874 edbc
00000020: a078 b4bc 0617 a0bd 143d ae3d a82e c33d
00000030: 444d 76bd 5c67 dc3d ea16 a43d bce4 0f3d
00000040: ecc6 73bd a4cb abbd d018 913c 7439 623d
00000050: 16ac a7bd 5adb c03d 0e94 9e3d c0c0 0c3b
00000060: ced0 ffbd 7e0a c8bd 38da b43d f034 443c
00000070: 8004 a8bc 7263 a4bd 408f 6ebd fee9 d53d
00000080: 98bd 733d 70ac 213c c252 c33d f471 95bd
00000090: 20d8 2cbd 4895 353d bcdb c2bd 4a99 e23d
000000a0: cace a53d 18b3 aa3c 307a cabd 22a6 bf3d
000000b0: 54be 39bd 0872 a2bc 2c6b d53d e042 e0bc
000000c0: 24e8 f23d 70db 53bc f646 99bd c8bb e6bc
000000d0: d483 eebd 2212 9c3d a0f2 723d 8802 ba3c
000000e0: 4827 e0bd f8fc 243d b061 913d 40d5 db3d
000000f0: 14b2 57bd c00a 4e3d 8c9b 6f3d 2083 81bc
00000100: 9059 383c 3acd a13d c009 2a3c a42c 17bd
00000110: e017 453d e03b 093c dc96 2bbd 3089 4fbc
00000120: 92ec 943d 9419 fd3d ac2b 07bd 2caf c63d
00000130: f814 f73d b66b 963d 10a8 7b3d 9411 d8bd
00000140: 649c 6cbd d033 53bd 8239 f93d 6074 a23c
00000150: d8a6 d9bd e656 e3bd 181a dcbd ccb7 b9bd
00000160: 7e9a 9abd 1a59 88bd e04f be3d 7c1a 52bd
00000170: 0a74 eb3d 902a eabc 6cd0 cebd 74cb 3bbd
00000180: 60fe 62bd cefc afbd a2c7 eebd 00c0 8e3b
00000190: d6be c6bd e455 13bd f893 06bd f8d2 93bd
000001a0: 0029 9bbb 1e5d c6bd 1872 26bd 4498 e23d
000001b0: fcc3 ec3d 6003 253c b020 ee3c 9e69 e33d
000001c0: 2ad3 f53d 4c60 71bd 10ec a13c 88a5 cabc
000001d0: 9899 afbd 2e3a e33d bc0a cb3d a095 b03b
000001e0: f815 d33d f4bc 083d ec01 a93d c4db 583d
000001f0: 484c 723d 6cc4 363d a479 803d 12f5 e03d
00000200: 1437 483d 3c4c a3bd e861 3c3d 2ea0 ff3d
00000210: 8e3e d43d 3c73 a13d 641a 42bd d6e2 fc3d
00000220: 48e4 ba3c 5cb4 89bd 80dd 99bb a0fc b93d
00000230: 1a16 ebbd 989c eabc d6d4 be3d a820 0dbd
00000240: bcc1 4ebd 9008 0abd 70c7 273d a889 c5bd
00000250: 888c 813c a498 033d 242c 073d 40fa 25bb
00000260: 34f3 7b3d 20c7 f1bb fe8f c63d b47b a93d
00000270: cce4 b0bd 681b c8bc 861a c73d 8054 4dbc
00000280: e09b 1cbd 203d 00bc 2858 ebbc e0a8 32bd
00000290: 1094 e23c f6b6 d73d 2870 943c 1cf3 8f3d
000002a0: 42a9 c53d 7897 a6bd 1416 b6bd f8e8 96bc
000002b0: a085 183d f07b 78bc 34f3 6fbd aa31 b0bd
000002c0: 003e 6f3b dc76 be3d 60b0 b03b d2da f33d
000002d0: 304f 72bd b063 ec3d f81f a4bd 3464 cb3d
000002e0: e099 5f3c 48a1 fe3d 5c9d f33d 1432 2fbd
000002f0: 70c3 15bc e407 0bbd e0cc e33c 505e 7cbd
00000300: 90f7 edbc 8e2a 9bbd fce8 9b3d 3e43 ca3d
00000310: 8072 613c c04f 79bb 5602 c0bd d63c e9bd
00000320: 3487 c5bd 428c bdbd 5ca2 d2bd f00f 703d
00000330: c247 c3bd 845b 753d 0c57 aa3d 0064 04ba
00000340: c096 f23c a8c7 9f3d c825 e8bd 2220 dd3d
00000350: 4e18 fc3d 2049 f43d 18df 47bd 0228 9d3d
00000360: 5c52 3cbd a849 9f3c 8a16 d63d b889 d63c
00000370: e03c 3b3d 744e 08bd 7009 73bd f2db d03d
00000380: c20a e7bd 4013 b33c 3008 46bc fc36 10bd
00000390: 3015 fabd 423a 98bd 401e 92bd 9054 9a3c
000003a0: a0b3 473d c4b1 e8bd c8e3 44bd 561a f4bd
000003b0: be11 af3d c034 ebbd a8fb 88bc d024 92bc
000003c0: 285e 8cbd 9ce8 b73d 3c0c 5b3d 0e95 853d
000003d0: 8e77 b43d d8ba 7fbd f8b6 773d a8ee ce3d
000003e0: f81a ebbc 90a0 27bc 20c1 413c 0264 fbbd
000003f0: 60f5 59bc 8001 75bc ca1e babd 3046 bb3d
0.06620386 0.062575996 0.04357046 0.06736441 -0.018836588 -0.084275976 0.08957201 -0.028985992
-0.022030175 -0.07816891 0.085077435 0.09530383 -0.06013228 0.10761902 0.08012183 0.035130247
-0.05951588 -0.08388451 0.017712027 0.055230573 -0.0818712 0.09416838 0.07743083 0.0021477193
-0.12490998 -0.09767626 0.088306844 0.011975512 -0.020509958 -0.0802678 -0.058242083 0.10445021
0.059506983 0.009867772 0.09537269 -0.072971255 -0.0421983 0.04433182 -0.09514567 0.11064394
0.080960825 0.020837352 -0.09886587 0.09357859 -0.045347527 -0.019829765 0.10420832 -0.027375638
0.118606836 -0.012930736 -0.07484238 -0.028165713 -0.11646238 0.07620646 0.059313416 0.022706285
-0.10944992 0.040280312 0.070987105 0.107340336 -0.052660063 0.05030322 0.05849795 -0.015809596
0.011251822 0.07900472 0.010378301 -0.036907807 0.048118472 0.008376092 -0.041891918 -0.012666985
0.07271685 0.12358394 -0.033000633 0.0970138 0.12064546 0.07344763 0.061439574 -0.10550228
-0.057766333 -0.051563084 0.12169172 0.019830883 -0.10627526 -0.11100559 -0.107471645 -0.090682596
-0.07548998 -0.0665762 0.09292579 -0.05129479 0.11496742 -0.028584749 -0.10098347 -0.045848325
-0.055418372 -0.085931405 -0.11659171 0.0043563843 -0.09704368 -0.035970584 -0.032855958 -0.072179735
-0.004735112 -0.096857294 -0.040636152 0.110641986 0.115608186 0.010071605 0.029068321 0.11104129
0.12003167 -0.058929726 0.019765884 -0.024737135 -0.085742176 0.11095081 0.09914157 0.0053889304
0.103069246 0.033383325 0.0825232 0.05294396 0.05915478 0.044620916 0.06273201 0.109842435
0.04888065 -0.07973525 0.04599181 0.12481724 0.10363494 0.07883307 -0.04738845 0.12347953
0.022813931 -0.06723854 -0.0046955943 0.090813875 -0.11478825 -0.028639123 0.09317939 -0.03445497
-0.05047773 -0.033699572 0.040961683 -0.096453965 0.01581408 0.03212799 0.03300108 -0.0025326163
0.061511233 -0.007378474 0.09695433 0.082755476 -0.086373895 -0.02442713 0.09721856 -0.012532353
-0.03823459 -0.007827073 -0.02872856 -0.043618083 0.027658492 0.10532944 0.018119887 0.07028791
0.09651424 -0.08134359 -0.0889093 -0.018421635 0.03723681 -0.015166268 -0.058581546 -0.08603223
0.003650546 0.093000144 0.0053921193 0.11906971 -0.05915755 0.115424514 -0.0801391 0.099312216
0.0136475265 0.12433106 0.11895248 -0.042772368 -0.009140834 -0.033943072 0.027807653 -0.06161338
-0.029048711 -0.07576476 0.076127976 0.09876107 0.013760209 -0.003804192 -0.093754455 -0.11388557
-0.096449286 -0.09255268 -0.10284874 0.05860895 -0.09535171 0.05990173 0.08317384 -0.00050503016
0.029612899 0.07801753 -0.11335331 0.107971445 0.12309323 0.1192801 -0.048796743 0.076736465
-0.04597698 0.019444302 0.10453518 0.026188716 0.04571235 -0.033277944 -0.059335172 0.10198201
-0.11281349 0.021859765 -0.012086913 -0.035208687 -0.122110724 -0.07432987 -0.07134676 0.01883915
0.048755288 -0.11362031 -0.04806879 -0.11919086 0.08548306 -0.11484671 -0.016721562 -0.01783982
-0.068538964 0.089799136 0.053478464 0.065225706 0.08811866 -0.062434047 0.060477227 0.10104114
-0.028699383 -0.010231152 0.01182583 -0.12274934 -0.013303131 -0.014953971 -0.09087904 0.091442466

shared_fcs.2.bias f4 [16]
00000000: a02c 80bd a46c b9bd 6a9a f83d f090 d43c
00000010: be25 e6bd e452 3dbd 304b 4b3c 98c9 ab3c
00000020: a46d bfbd e8a4 df3d 4415 ecbd 54dd 7a3d
00000030: 4847 62bd 7a38 b5bd a073 623d 386b f5bc
-0.062585115 -0.09053925 0.12138827 0.025948018 -0.112376675 -0.04622163 0.012408063 0.02097015
-0.09347084 0.10920125 -0.115274936 0.06124623 -0.05524376 -0.08848663 0.05528605 -0.029958352

value_fcs.0.weight f4 [32, 16]
00000000: 1890 cbbd f0d0 d6bc 60e0 b6bd 5256 6e3e
00000010: 541d 71be fc84 afbd d099 f8bc 0057 8ebd
00000020: ba0f 1dbe 60b2 073d 8045 a53b 7aa6 223e
00000030: f426 a83d 2847 2f3e 30d0 34be ce90 553e
00000040: 4837 d6bd 00e8 50bb 7081 bc3d 989d 53bd
00000050: ecd1 87bd 48b0 e83d 1a72 383e 747d 26be
00000060: bc78 133e 8a8a 293e b0cf d43d 5895 a43d
00000070: 426f 093e 887e 723e 1ce6 2d3e c097 023c
00000080: a4c2 2ebe c056 c8bb 681c 13be 56c0 613e
00000090: e808 98bd 80a2 933c 6c96 d83d ac14 b23d
000000a0: faf0 51be de3f 25be 7801 2f3d a008 3cbe
000000b0: 3053 c73d bcb6 873d 8453 c7bd e27d 4abe
000000c0: 88ee 1c3d eaed 0ebe 52ae 753e 0254 253e
000000d0: 2cd6 233e 9881 ef3d dca0 c73d f629 40be
000000e0: d6be 733e e841 51bd 2252 143e 620e 6b3e
000000f0: 80eb 443d d081 39be a068 42bc 9a12 15be
00000100: 5e73 50be aae8 363e 185b c1bd 00aa 4d3e
00000110: 5cd3 14be 441f d43d 40de 89bc 10ff e3bc
00000120: c8dc 133e 38cc 67be 58f2 553e 08f5 51bd
00000130: 043b e73d e4ed 17be c087 05be 00f4 bdbb
00000140: f013 75bd 541e d0bd 2887 0a3e 8097 dfbc
00000150: bc21 d2bd a0fc e9bc a650 653e 1ce3 51be
00000160: f06a 2abd c02d 20bd 5c49 f93d ac08 533e
00000170: 4ebf 20be b8b4 3dbd 8241 6ebe 6652 3dbe
00000180: e0f5 bf3d 1005 dfbc 1c8a 3d3e 80d4 c2bc
00000190: 60c5 e9bd 28e5 a8bd 00e5 d83c 4cfe 233e
000001a0: 90c1 a73c c88d 693d a0cc b3bd 4485 c23d
000001b0: 82c7 2cbe e408 1f3e 606b 30bc bc0d 573e
000001c0: 7e50 02be 12f6 7a3e daa4 223e 8ac1 4ebe
000001d0: 48f4 97bd 0293 5f3e 60e4 ad3d 4aeb 543e
000001e0: 40c4 56bd a0a7 dabd 78c8 293e bca0 99bd
000001f0: ce29 683e ca7d 153e 8cdb 7e3e d611 413e
00000200: c808 98bd b0e9 573e 309c 46be ae7f 7a3e
00000210: 00b6 2bba 9057 e9bd 0882 953d a865 093e
00000220: 0037 403c 9ef3 353e 308e 91bc 6292 7bbe
00000230: 1018 253e 80f4 133b 24aa 0f3e 84e2 fcbd
00000240: 903d 273e ec4a c03d 44be 14be a2fa 6dbe
00000250: 2070 08bc 28df 3e3d 346a 1abe c0f6 87bd
00000260: d8b3 5cbd a84e 5fbe a886 d6bd 1694 06be
00000270: 8044 413c 5cfe 7d3e ec5f 1b3e 1aae 013e
00000280: e208 5e3e f008 a33c 80cb 523d 702c 0ebe
00000290: 3e98 0e3e b20f 053e 68e1 7b3d d61f 1dbe
000002a0: 4039 823d 204a fc3c 12c5 183e 7067 c1bc
000002b0: ba9a 653e 10c7 31bd 14ba 163e 30bf 4b3d
000002c0: bac8 46be e045 c23d 9070 65be a4f3 59be
000002d0: bc98 433e ca06 1ebe 966c 27be f0a6 85bd
000002e0: a2e9 523e 72ad 7c3e 4c3b ccbd 1829 0ebe
000002f0: ec95 1abe 5075 f1bd d246 74be 5878 e9bd
00000300: 8882 693d 6453 99bd 10b2 76be 18fa 01bd
00000310: 6cf3 693e 38eb 603d 68fe ab3d 16af 44be
00000320: 8e72 45be 4e29 29be 3881 95bd a0f9 ecbc
00000330: 947c dbbd e81b af3d 2e68 233e 7cb7 80bd
00000340: c4a9 6bbe 6013 d0bd 4843 5d3e 4a78 50be
00000350: 1caa b7bd 4065 da3d 68b9 6cbd dc3b 713e
00000360: 20ba 9bbd fc0a 373e 6a1c 0a3e ced6 68be
00000370: fe7f 763e f094 20be 3a38 1c3e 8e79 21be
00000380: c42a bdbd bca9 d03d 00be 37bd 1032 2cbe
00000390: 66fd 303e f086 963d 403d 953b 6e78 533e
000003a0: 2c12 c73d e46b 693e 0060 9538 3c46 5abe
000003b0: b213 153e b0f0 4bbe cc15 b93d 0090 71bb
000003c0: 4089 6cbc 8cc4 e3bd 78de 16be 96b4 5dbe
000003d0: 38c5 6c3d 407e 26bd 24f7 18be 9242 613e
000003e0: 869a 2f3e 50e6 5c3d fc3d 893d 507b 05bd
000003f0: 38e2 3c3e 5015 77be 0698 1bbe ac36 353e
-0.09939593 -0.026222676 -0.08929515 0.23275116 -0.23546344 -0.08570287 -0.030346781 -0.06950188
-0.1533803 0.033129096 0.0050436854 0.15883818 0.08210555 0.17116988 -0.17657542 0.2085602
-0.10459763 -0.0031876564 0.09204376 -0.051663965 -0.06631836 0.11361748 0.18012276 -0.16258794
0.14401525 0.16556755 0.10391176 0.080362976 0.13421348 0.2368108 0.16982311 0.00797075
-0.17066437 -0.006113857 -0.14366305 0.22046027 -0.07423574 0.018021822 0.10575566 0.08695349
-0.20502082 -0.16137645 0.04272601 -0.18362665 0.09732664 0.06626651 -0.09732726 -0.19774583
0.03831342 -0.13957945 0.23992279 0.16145328 0.15999669 0.1169464 0.09747478 -0.18766007
0.23803267 -0.051088244 0.14484456 0.22954705 0.048076153 -0.18115926 -0.011865765 -0.14557877
-0.20356509 0.17862192 -0.09441203 0.20084381 -0.14533752 0.10357526 -0.01682961 -0.027831584
0.1443969 -0.22636497 0.20893228 -0.05125907 0.11290553 -0.14836842 -0.13040066 -0.0057969093
-0.059833467 -0.10162035 0.1352812 -0.02729392 -0.102603406 -0.028562844 0.22394046 -0.20496792
-0.04160589 -0.03910613 0.12172195 0.20608777 -0.15697977 -0.046314925 -0.23267177 -0.18488464
0.09373069 -0.027224094 0.18509716 -0.023782969 -0.114145994 -0.08246833 0.026476383 0.16014975
0.02047804 0.05701998 -0.087792635 0.09498075 -0.16872981 0.15530735 -0.010767788 0.21001333
-0.12726018 0.24507931 0.15883198 -0.20191017 -0.0741964 0.21833423 0.08490825 0.2079288
-0.052433252 -0.10676503 0.16580379 -0.07501361 0.22672197 0.14598766 0.24888438 0.1885446
-0.0742355 0.21085238 -0.19395518 0.24462768 -0.00065502524 -0.11393654 0.07300192 0.13417685
0.011731863 0.17768714 -0.017767996 -0.2456756 0.1612246 0.0022576153 0.14029747 -0.12347892
0.16332078 0.0938929 -0.14525706 -0.2324014 -0.008327514 0.046599537 -0.15079576 -0.06638861
-0.05388245 -0.21807349 -0.104749024 -0.13142428 0.011796117 0.24804062 0.1517331 0.1266407
0.21683076 0.019901723 0.051463604 -0.13884139 0.13925263 0.12994269 0.06149426 -0.15344176
0.06358576 0.030797064 0.14918926 -0.023608893 0.22422305 -0.04340273 0.1471942 0.049742877
-0.19412509 0.09485984 -0.2240622 -0.21284348 0.19101232 -0.15432277 -0.16350016 -0.065259814
0.20596936 0.24675539 -0.099722475 -0.13882864 -0.15096253 -0.11789954 -0.23855141 -0.11399907
0.05700925 -0.074866086 -0.24091363 -0.03173265 0.22846764 0.054911822 0.083981335 -0.19207415
-0.1928198 -0.16519663 -0.07300037 -0.028927624 -0.10717121 0.085502446 0.1595771 -0.06284997
-0.23013979 -0.101599455 0.21607697 -0.20358387 -0.08967993 0.10663843 -0.057794005 0.23557991
-0.0760386 0.17875284 0.13487402 -0.22738191 0.24072263 -0.15681815 0.15255824 -0.15769026
-0.092366725 0.10188624 -0.044858932 -0.16815972 0.17284164 0.07349956 0.0045544207 0.20651409
0.09720263 0.22795063 7.122755e-05 -0.21315855 0.14558294 -0.19916034 0.090373605 -0.0036859512
-0.01443702 -0.11121473 -0.14733303 -0.2165092 0.05780527 -0.040647745 -0.14938027 0.21998051
0.1714879 0.05393058 0.06701276 -0.032588303 0.1844567 -0.24129224 -0.15194711 0.17696637

value_fcs.0.bias f4 [32]
00000000: 467a 2b3e c0c2 18bd d05f 343d d812 9fbd
00000010: 80b5 a0bd 60f6 1f3c d4c2 2bbe 2a81 633e
00000020: 90e5 2abe ac32 24be b81d 0ebd e41e 273e
00000030: c040 fdbd 6051 8abc 5645 0f3e 52f9 5fbe
00000040: eae6 6d3e b603 0a3e d8ec ac3d 00d0 5739
00000050: ae65 163e 086a 90bd d046 af3c 7295 3e3e
00000060: 64c5 0ebe e04a 893c 4086 363e 80ce b53c
00000070: eed0 18be 006f 3c3d 50e7 59bd 9267 5bbe
0.16745862 -0.037295103 0.044036686 -0.07767266 -0.078471184 0.00976333 -0.1677354 0.22217241
-0.16689134 -0.16034955 -0.03469631 0.16320378 -0.12365866 -0.016884506 0.13991293 -0.21872452
0.23232618 0.13477978 0.08443612 0.00020581484 0.14687225 -0.07051474 0.02139607 0.18611696
-0.13942486 0.016759336 0.1782465 0.022193193 -0.1492345 0.046004295 -0.053199112 -0.21426228

value_fcs.1.weight f4 [16, 32]
00000000: 002e 643b 2021 da3b aed4 ea3d 20ad 08bc
00000010: 4988 02be 878a 1d3e a09e 193d 2c13 4bbd
00000020: 0620 da3d 3984 043e 3592 013e e3d2 0d3e
00000030: 23e2 90bd 63f7 263e 52fa dd3d f44c f4bd
00000040: 4ad2 ad3d a106 ccbd 8aaf 9f3d 5eec cfbd
00000050: 5675 b13d 50ec 94bd 70bb 1f3d 1446 11bd
00000060: 82c8 bf3d c096 24bb f679 a83d 78ce 8abd
00000070: 22ca a93d 722f c63d 500b 523c b6b0 56bd
00000080: a029 de3c 5c81 27be a0e8 60bc 6b2e 153e
00000090: 4e5a b53d 80a6 aebb 8bc8 b9bd 503d 183d
000000a0: 690f 1f3e 6270 b53d 800a 5d3b 1035 5d3d
000000b0: 80a3 6a3c 1833 2fbd 4ce6 04be 63ed abbd
000000c0: 960d 9abd cc90 d3bd 5d9b 2e3e bc4e 1abe
000000d0: c0e9 133c 205b 223c 29bb b5bd 388e b2bc
000000e0: 861d 843d c6fb fdbd 106e 703d c06c 1dbc
000000f0: a9dc afbd 973c 0bbe 90d7 8cbc ba66 a9bd
00000100: b0ba 793d e23b 33be 593d 093e 1527 2f3e
00000110: d0aa 6b3c 6d94 f6bd e9e8 2ebe f668 ae3d
00000120: fc51 763d 015b 163e 7985 c0bd a2c1 cc3d
00000130: 50e2 92bd 2f8b 08be c0ae 6f3c e8d4 51bd
00000140: 021f a43d 4f0e bfbd 866a e93d 0743 03be
00000150: 48a6 383d 2601 f13d bec9 57bd 9eeb 2abe
00000160: 5e64 883d 1804 1fbe 71c4 bebd 5353 a3bd
00000170: 20c1 bebd 074b 263e e24c 07be 0b55 0a3e
00000180: e9c2 ebbd 458b 113e 721c 6fbd d0c2 efbc
00000190: 2322 ffbd 2807 a73c 68e0 8fbd fac6 28be
000001a0: dabd b13d ec0d 713d c044 efbd 5f5a 2a3e
000001b0: a881 8ebc 06ea eb3d bf81 80bd 005f 33be
000001c0: 3350 adbd 6f0e 0cbe 0d15 243e 9be6 133e
000001d0: c0d6 08bd 994c 32be 3288 e03d 9881 6d3d
000001e0: 4ee7 e73d 8c4a 103d 8603 993d b0b5 37bc
000001f0: a58c 323e 34e4 05bd d6e1 a83d bee0 2fbe
00000200: 5017 d0bc 2059 993c 1deb 133e 3296 c33d
00000210: b9da 2f3e 680e b73c c8ae 6dbd c039 193c
00000220: 80e6 81bb f446 583d 58b5 083d 75b2 a2bd
00000230: 46c1 9c3d 8010 9c3c 1577 00be 005d a63b
00000240: cb29 00be c026 71bb a837 463d cbea 34be
00000250: 5642 fd3d 622a a4bd 0c7a 03bd f4bc 25bd
00000260: a990 0c3e 7e04 e0bd fbe2 32be 3a7d 26be
00000270: 16bd a43d 7ab8 7fbd 8839 d73c be6e af3d
00000280: 80c7 5b3b 4b3b 343e 4c53 913d cd42 2dbe
00000290: 02f0 0ebe 7db1 22be 7d5e f6bd 6477 31bd
000002a0: a7c0 87bd c71c 2bbe 6ea6 973d 4c94 093d
000002b0: 1878 c0bc 04cf 8b3d e0d4 43bd 3087 6e3c
000002c0: bce9 99bd 92eb c03d b1fe 0e3e 4c3e 073d
000002d0: 0950 123e f8ac 703d 8cdb 4bbd 032d 063e
000002e0: ec38 103d a88b 133d f864 993c 2f01 133e
000002f0: 9eb8 e6bd 44f1 85bd f6d6 ddbd e839 eebd
00000300: ae6b ba3d 2dcc a0bd 1066 dd3c 91d7 173e
00000310: 162f bc3d 300e 783c 0762 133e e8b3 7ebd
00000320: e18a 123e bd99 263e 2106 30be 8cec 8b3d
00000330: 1ec5 973d 488a 603d 7f12 1b3e a9ce 263e
00000340: 1863 38bd 98a4 f03c e80a 69bd 382c 17be
00000350: 80bf 16bc 181f 573d b677 7ebd 36ff a33d
00000360: 8b82 1fbe 1cc6 ecbd 877d f1bd 8080 f0ba
00000370: 1e31 e83d 96ff c33d 99e8 0f3e ffec 253e
00000380: a0e1 11be ac8b 603d 55c6 ccbd b66d 06be
00000390: d59b 283e 9c6d 16be c40d 1fbe a7d0 0ebe
000003a0: 8621 e43d 29c7 08be a2b8 913d acaf 0bbe
000003b0: 406f 3b3d fa11 9a3d 9df7 05be 288a a8bc
000003c0: d6b3 f8bd 8d90 203e 28fd 22bd cee9 04be
000003d0: 34a6 0ebd 48f7 863d 36b8 06be a5b0 063e
000003e0: e013 e93c 754a 15be fe76 f13d 1495 653d
000003f0: 1214 c03d d867 9dbc 8591 bbbd dc6a bebd
0.0034817457 0.006656781 0.11466347 -0.0083420575 -0.12747301 0.15384875 0.037504792 -0.04957883
0.10650639 0.12941064 0.1265343 0.13849978 -0.07074382 0.16305308 0.108387604 -0.1192874
0.08487375 -0.09962202 0.07797153 -0.10152505 0.08664958 -0.072716355 0.038997114 -0.035467222
0.09364416 -0.0025114268 0.08226387 -0.06777662 0.08290507 0.09677018 0.01282008 -0.05241462
0.027119458 -0.1635794 -0.013727337 0.14568488 0.08855115 -0.005329907 -0.09071454 0.037167847
0.15533222 0.08859326 0.0033728182 0.054005682 0.014321208 -0.042773336 -0.12978476 -0.08394887
-0.075221226 -0.10330352 0.17051454 -0.15069097 0.009027898 0.009909421 -0.088735886 -0.02179633
0.06450944 -0.124015376 0.058698714 -0.009608448 -0.085870095 -0.13597332 -0.017192632 -0.08271547
0.060969055 -0.17503312 0.13402309 0.17104752 0.014383987 -0.12040029 -0.17081036 0.085161135
0.06013678 0.14683153 -0.09400458 0.0999787 -0.07172072 -0.13334344 0.014629066 -0.051228434
0.08013727 -0.09328901 0.11397271 -0.12818538 0.045080453 0.11767797 -0.05268263 -0.16691443
0.066597685 -0.15528905 -0.09314812 -0.07974877 -0.093141794 0.16239558 -0.13212922 0.13509004
-0.115117855 0.14213283 -0.058376737 -0.029267699 -0.12457683 0.020389155 -0.07025224 -0.16482154
0.086787894 0.058851168 -0.11683035 0.16636036 -0.01739581 0.11519246 -0.06274747 -0.17516708
-0.084625624 -0.13677381 0.16023655 0.14443438 -0.033407927 -0.17412032 0.10963477 0.05798492
0.11323415 0.035227343 0.07471375 -0.011212751 0.17436464 -0.032688335 0.082462 -0.17175576
-0.025401741 0.018719256 0.14445157 0.09550132 0.1717328 0.022345737 -0.058028013 0.009352148
-0.0039642453 0.05280204 0.033376068 -0.07944194 0.076540515 0.019050837 -0.12545426 0.0050770044
-0.12515943 -0.0036796778 0.04839292 -0.17667691 0.12366168 -0.080158964 -0.032098815 -0.040463403
0.13727058 -0.10938357 -0.17469399 -0.16258708 0.08043878 -0.06243179 0.02627255 0.08566044
0.003353566 0.17600743 0.07095966 -0.16920014 -0.13958743 -0.15888019 -0.12029741 -0.04332675
-0.066285424 -0.16710196 0.07404791 0.033588693 -0.023494765 0.068265945 -0.047810435 0.014558598
-0.075152844 0.094199315 0.13964345 0.033018395 0.14288343 0.058758706 -0.049769923 0.13103108
0.035210535 0.03602186 0.018724903 0.1435592 -0.11265682 -0.065401584 -0.10832016 -0.116321385
0.091025695 -0.078514434 0.027026206 0.14828326 0.091886684 0.015140101 0.14392863 -0.06218329
0.1431079 0.16269584 -0.17189838 0.06832227 0.07410644 0.054819375 0.15143774 0.16289772
-0.04501638 0.02937536 -0.056895167 -0.14762962 -0.009200931 0.052519888 -0.062125884 0.08007662
-0.15577142 -0.11561224 -0.117915206 -0.0018348843 0.11337493 0.095702335 0.14053573 0.16203688
-0.14246225 0.0548207 -0.09998766 -0.13127789 0.16465695 -0.1469025 -0.15532595 -0.13946782
0.111392066 -0.13357224 0.07115294 -0.13641232 0.045760393 0.0752296 -0.13082738 -0.02057369
-0.12143676 0.15680142 -0.03979221 -0.12979814 -0.034826472 0.06590134 -0.13156208 0.13153322
0.02845186 -0.14579184 0.11790274 0.056050375 0.09378828 -0.019214556 -0.09158615 -0.092977256

value_fcs.1.bias f4 [16]
00000000: 5039 cebc c4b9 00be a0cd 3b3d 27f2 bfbd
00000010: 10fa f73c 4e82 b13d e226 54bd 34c5 44bd
00000020: 10ad debc 3044 3ebc c85b 233d 5e70 ef3d
00000030: 465c 2abe b3bc 1f3e d3c6 343e 7838 c6bd
-0.025173813 -0.12570864 0.045850396 -0.09372359 0.030270606 0.08667432 -0.051794894 -0.04803963
-0.027182132 -0.011612937 0.03988245 0.11691354 -0.16636762 0.15599327 0.1765397 -0.09678739

value_fcs.2.weight f4 [1, 16]
00000000: 46ac 093e e06e 7c3d a073 30be a0e5 393c
00000010: d094 7abd 0a48 513e ecae d8bd 2876 48bd
00000020: bc7b 503e 1ec6 0cbe b4d5 6abe da87 553e
00000030: f0bd f93c 20d5 bf3d 80bd 3a3d e824 d7bd
0.13444623 0.061629176 -0.17231607 0.011346251 -0.061177075 0.20437637 -0.10580239 -0.048940808
0.20359701 -0.1374745 -0.22933084 0.20852605 0.030486077 0.09366822 0.045590878 -0.10505086

advantage_fcs.0.weight f4 [32, 16]
00000000: 0816 d63d 4045 e73b 0443 fd3d dace 3ebe
00000010: 68d9 853d 2e11 583e 3009 9abc eea6 6e3e
00000020: c8b5 1cbd 9c47 e4bd 2093 323c 10af 233e
00000030: 2067 0c3c 6856 30be b2f2 1a3e 7ce3 a23d
00000040: f4fd 32be a027 153d 2006 c23c 38bd 553d
00000050: 5033 d5bc 36fb 453e a836 49be 0069 85bc
00000060: b821 3a3d 3476 e1bd 70b6 94bc bad9 76be
00000070: 00f0 ba38 401e 2d3c 389f 31bd 2202 7abe
00000080: a80e e13d 2429 d1bd 6a7f 723e 7691 723e
00000090: 5012 5d3e 6248 4f3e 9a18 483e 002d 133b
000000a0: 7066 e73d f8a8 96bd 006f 89bb 682d 36be
000000b0: 00d3 fdbc c092 8d3c 886d 23bd 3e4a 6cbe
000000c0: 18e3 3f3d 1050 d8bc c8b6 d1bd b805 d1bd
000000d0: accb d3bd 42b9 193e e00c 733d 707f edbc
000000e0: bc0b bcbd 0084 0d3b 248b 28be a872 7f3e
000000f0: cefb 36be 9cf4 e33d 5261 5ebe f6e9 36be
00000100: 0c23 7bbe 90ff 05be 7469 5cbe be41 10be
00000110: b0ea 5bbd 88eb a43d 1030 dfbd e2af 173e
00000120: 3417 36be c845 57be ecd6 4bbe ae2e 53be
00000130: b44d bc3d c85f 393e 70a9 bf3d 60f0 b43c
00000140: 661a 563e 98ff 01bd 1c53 103e ec8e f3bd
00000150: 807d 2b3d e0ca ebbc 44d4 543e 502b d4bd
00000160: f468 1d3e 606e a0bc 9e1b 2fbe f44d dabd
00000170: be54 69be bc08 2a3e 846e c63d 4cf0 40be
00000180: 9c3c 10be 4ce5 113e 74e9 383e d2ef 213e
00000190: 9ada 203e 0c56 9abd 2ed4 6a3e 6e27 70be
000001a0: 74c8 aabd f09c e03d b494 e83d 98ea 7abd
000001b0: de18 00be 28ab b83d b230 093e c035 e33d
000001c0: c048 6c3c c89b 7c3d 0e0e 4dbe 24b5 72be
000001d0: 00c3 53be d6af 313e 88d6 01bd 844b 8d3d
000001e0: b0cb 0e3e 36b8 1fbe e0eb 4b3c de76 553e
000001f0: a024 bf3d ca60 4e3e c0b8 f23d 7af4 38be
00000200: 2052 5ebe c836 1ebd 7807 55be 9c30 c73d
00000210: 0c5e 383e 64e8 263e c858 763e 44c1 cfbd
00000220: b2ae 473e ea9b 5cbe e46d ecbd a083 5b3c
00000230: 6e2f 2b3e a490 2abe e6c7 72be 7a4e 66be
00000240: 3843 473d 2630 0c3e 2225 6a3e 503f 3b3e
00000250: 1289 793e 900d 503e 606a 74be 68b9 7fbe
00000260: 60bf 813d 6e87 35be a0ad 8f3d 0acf 583e
00000270: e867 233d 3864 5bbd 043b bebd 1a4c 07be
00000280: 486c 4e3e 48ff 9fbd b053 483e dc89 903d
00000290: 405b dfbb 7e12 3a3e b4de 89bd dc23 a43d
000002a0: c84d 4b3d f26b 6fbe 3a7c 28be 4e3a 653e
000002b0: d0e3 e7bc c0a6 f4bd 366a 3abe 00ec 6cba
000002c0: 60c6 41be 98e8 adbd 4c4e 423e 96b6 793e
000002d0: a4d0 523e 7414 82bd 50a6 64be 6239 023e
000002e0: 381a 9cbd 58d3 35be 784e 7f3d b8b7 35bd
000002f0: 0cd5 6f3e 10bc 613d 5cef d23d f4a8 8f3d
00000300: cc56 a83d 72f9 75be d0a3 a1bc cc35 a33d
00000310: 5a16 22be da1a 573e 70a2 d83c e038 ea3c
00000320: 1462 ae3d b447 c1bd dc7a 1a3e dc35 ec3d
00000330: a0fb e63d 7c9e 12be 7888 09bd a8da a53d
00000340: 8005 febb cc60 c9bd 40d3 25bd 8088 b83d
00000350: 34db 01be 8ad2 7f3e ac8c c03d 6e47 3d3e
00000360: d820 1e3d a889 b23d 0040 40bd bcfb bebd
00000370: 307c 32bd 3071 2ebe 3435 6dbe 109b d2bc
00000380: 3493 243e 3879 cb3d 304b 7a3e f0a9 03bd
00000390: c802 1c3d 4038 273d 6c0f 0e3e 7c89 613e
000003a0: 68fc 40be 94d6 afbd 005f d2bc 7064 43bd
000003b0: 2694 203e 2cc8 7bbe 94ef 2ebe 90f6 26be
000003c0: e89d da3d 109b 40be 00b7 ec3c 28d4 02bd
000003d0: 4087 5d3d 80d0 8abb 2091 2b3c 1819 3a3e
000003e0: a89d 423d 383f ef3d 82d8 34be 7865 67bd
000003f0: 2056 01be f8c1 33be d234 17be 3840 82bd
0.10453421 0.007057816 0.12366298 -0.18633595 0.065356076 0.21100304 -0.018803209 0.23305866
-0.038259298 -0.11146471 0.010899335 0.1598475 0.008569509 -0.17220461 0.15131643 0.079535455
-0.17479688 0.036414742 0.023684561 0.052182406 -0.026025444 0.1933411 -0.19649756 -0.01628542
0.045442313 -0.110088736 -0.0181534 -0.24106494 8.9138746e-05 0.010566294 -0.043364733 -0.24414876
0.109891236 -0.10212925 0.23681417 0.23688301 0.21589017 0.20242456 0.19540635 0.0022457242
0.11298835 -0.07356447 -0.0041941404 -0.17790759 -0.030984402 0.01728189 -0.03989938 -0.23075196
0.046847433 -0.026405364 -0.10239941 -0.10206169 -0.10341582 0.15012076 0.05933845 -0.028991431
-0.09181926 0.002159357 -0.16459328 0.24946082 -0.17869493 0.1113064 -0.21716812 -0.17862687
-0.24525088 -0.1308577 -0.21524602 -0.14087579 -0.053690612 0.080527365 -0.10897839 0.14813188
-0.17782289 -0.21022713 -0.19906205 -0.20623276 0.09194508 0.18102944 0.093584895 0.022087276
0.20908508 -0.031737894 0.14094204 -0.118924946 0.041867733 -0.028783262 0.20784098 -0.10359824
0.15372068 -0.01958388 -0.17100379 -0.106594 -0.22786233 0.16604894 0.09689048 -0.18841666
-0.1408562 0.14247626 0.18057805 0.1581414 0.1570839 -0.075359434 0.22932503 -0.23452541
-0.08339015 0.109674335 0.11356488 -0.061258882 -0.12509486 0.090170205 0.13397482 0.110942364
0.014421642 0.061672002 -0.20024893 -0.23701912 -0.20679855 0.17352232 -0.031698734 0.06899169
0.13944888 -0.15597615 0.012446374 0.20846125 0.093331575 0.2015411 0.118516445 -0.1806201
-0.21711016 -0.038626462 -0.2080363 0.097260684 0.18004626 0.16299587 0.24057305 -0.10144284
0.19500235 -0.21543851 -0.115443975 0.013398081 0.16717312 -0.16656739 -0.23709068 -0.22490874
0.04864809 0.13690242 0.22865728 0.1828587 0.24368694 0.20317674 -0.23868704 -0.2497307
0.0633533 -0.17727444 0.07015538 0.21172729 0.039894015 -0.053562373 -0.092886 -0.13212624
0.20158494 -0.07812363 0.19563174 0.070575446 -0.006816298 0.18171117 -0.067319304 0.08014652
0.049634725 -0.23381022 -0.16453639 0.22385523 -0.028306872 -0.119458675 -0.18204579 -0.0009037852
-0.1892333 -0.08491629 0.1897518 0.24386057 0.20587403 -0.063515574 -0.22329068 0.12717202
-0.07622188 -0.17756402 0.062330693 -0.04436466 0.23421115 0.05511099 0.102995604 0.07014647
0.0821968 -0.24020937 -0.019731432 0.07969245 -0.15828839 0.21006337 0.026444644 0.028591573
0.08514801 -0.094375044 0.1508593 0.1153371 0.112784624 -0.1431827 -0.033577412 0.08098346
-0.0077521205 -0.09832916 -0.040484667 0.0901041 -0.12681276 0.24982658 0.09401831 0.1848428
0.03860554 0.08717662 -0.046936035 -0.09325358 -0.043575466 -0.17035365 -0.23164827 -0.025708705
0.16071779 0.0993523 0.24442744 -0.032144487 0.03808859 0.04082513 0.1387307 0.22025102
-0.18846285 -0.085858494 -0.025680065 -0.047703207 0.15681514 -0.24588078 -0.1708358 -0.16304994
0.106746495 -0.18809152 0.028895855 -0.03194061 0.054084063 -0.004236281 0.010471612 0.18173635
0.047513634 0.1168198 -0.17660716 -0.056493253 -0.1263051 -0.17554462 -0.14766243 -0.06359905

advantage_fcs.0.bias f4 [32]
00000000: dc08 69be 3816 b9bd 388c 653e 66d7 5fbe
00000010: d89e 543d 146c 65be 505d b5bd b027 1abd
00000020: c058 b33b 7c29 15be 7e9a 4e3e 2cb3 d13d
00000030: 506a 05be b04d 22be 7058 3bbd fab2 073e
00000040: dafe 38be 243a afbd d8be 4abe 40c7 6cbe
00000050: 5e75 343e 106e 9ebd be31 293e 00b2 ef3d
00000060: b894 bb3d 34b7 4cbe 6003 f6bc 1852 5c3e
00000070: 7866 063d 04d3 ccbd dcab 5f3e 68a3 2e3d
-0.22757286 -0.09037441 0.2241677 -0.21859512 0.051909298 -0.2240451 -0.088556886 -0.037635505
0.0054732263 -0.14566606 0.20176122 0.102392524 -0.13028836 -0.15849948 -0.045738637 0.13251868
-0.18065968 -0.08556011 -0.19799364 -0.23122883 0.17622897 -0.077358365 0.16522881 0.11703873
0.09159225 -0.19991761 -0.030030906 0.21515691 0.032812566 -0.100011855 0.21842903 0.042636305
