trained_agents/From-Benchmark-DQN.pth-Best.pth (torch_old, 58259 bytes, 8 tensors)

fcs.0.weight f4 [128, 37]
0	0xbe719dbd	-0.23595329
1	0xbef611cf	-0.48060462
2	0x3e22fec3	0.15917496
3	0xbe981414	-0.29702818
4	0xc00d68b7	-2.2095163
5	0xbe5543e3	-0.20826678
6	0xbf4b5df3	-0.7944023
7	0x3f5c5bb8	0.8607745
8	0xbeaa35d8	-0.33244205
9	0xbf9f9cd6	-1.2469738
10	0xbeca0fbe	-0.39465135
11	0xbe07f6d0	-0.13277745
12	0xbf87713e	-1.0581434
13	0x3e303de7	0.17211114
14	0x3e5a97d9	0.21346988
15	0xbe020333	-0.12696533
16	0xbf92db70	-1.1473217
17	0x3cc550d6	0.024086397
18	0xbe8dde65	-0.27708736
19	0xbf10d776	-0.5657877
20	0xbec7afb1	-0.3900123
21	0xbe8b4bec	-0.2720636
22	0x3ef1fd07	0.47263357
23	0xbf850dc5	-1.0394827
24	0xbe904a0f	-0.28181502
25	0xbed15679	-0.40886286
26	0x3f04e8ff	0.51918024
27	0xbf40d7cb	-0.75329274
28	0xbf09cfc7	-0.5383267
29	0xbf8cdba0	-1.1004524
30	0xbebceab1	-0.36897805
31	0xbe4eb534	-0.20186311
32	0xbc2b3584	-0.010449771
33	0xb9c4c63b	-0.00037531726
34	0xbff0843c	-1.8790355
35	0x3dd4a5d2	0.1038319
36	0xbd2d03af	-0.04223984
37	0xbe92d8a0	-0.28680897
38	0xbe9e489f	-0.3091478
39	0x3ebb4634	0.36576998
40	0xbefdd1b0	-0.4957404
41	0x3e85dc84	0.26144803
42	0xbfc05794	-1.5026727
43	0xbf33728a	-0.7009665
44	0x3e9f790a	0.31147033
45	0x3e87e402	0.26541144
46	0x3d29a5c7	0.041417863
47	0x3e8ff3b3	0.28115615
48	0xbf445d08	-0.76704454
49	0x3e5e055f	0.21681736
50	0xbf3f9e71	-0.7485114
51	0xbdafc185	-0.08581833
52	0x3df61e8a	0.120175436
53	0xbeeba5e8	-0.46025014
54	0x3d905aeb	0.07048591
55	0x3e7ca1eb	0.24671142
56	0xbf6cc334	-0.92485356
57	0xbef48d6c	-0.47764146
58	0x3e8de198	0.27711177
59	0xbd7d7030	-0.06187457
60	0xbef5cb59	-0.48006704
61	0xbcf43bb3	-0.029813623
62	0x3e936531	0.2878814
63	0xbe133d38	-0.14378822
64	0xbd9e99e2	-0.077441946
65	0xbefd8386	-0.49514407
66	0xbf8448c6	-1.0334709
67	0xbf2bcc1d	-0.6710833
68	0x3e515c76	0.20445427
69	0x3ed7d420	0.42154026
70	0xbe26f1f4	-0.16303235
71	0xbf56e16b	-0.8393771
72	0xbdf0b712	-0.11753668
73	0xbd51357d	-0.0510764
74	0x3e8346a7	0.2563984
75	0x3c4ef45f	0.012631505
76	0x3d14adc2	0.03629852
77	0x3e2761cc	0.163459
78	0x3de3dcce	0.111260995
79	0xbd3fbd3e	-0.046811335
80	0xbd79f805	-0.061027545
81	0x3d6c2032	0.05764789
82	0xbe605de0	-0.2191081
83	0xc034acd1	-2.8230479
84	0x3dd4ad95	0.10384671
85	0xbba7c6dc	-0.0051201414
86	0x3bd62820	0.006535545
87	0x3d9969de	0.07490896
88	0x3d1642c1	0.036684755
89	0x3ea8eb58	0.32992053
90	0xbf68f076	-0.90991914
91	0x3dd66da5	0.10470132
92	0x3e7266c8	0.2367202
93	0xbe4f8b13	-0.20267896
94	0xbcd5af02	-0.026084427
95	0xbe1e0236	-0.15430531
96	0xbdc3239e	-0.09528278
97	0x3e24651e	0.16054198
98	0xbdc1227b	-0.09430405
99	0xbf7875d3	-0.97054785
100	0x3f09a069	0.5376039
101	0x3ed8bc87	0.42331335
102	0xbf3c28ec	-0.7349994
103	0xc086dd11	-4.2144856
104	0xbd5f37cb	-0.054496568
105	0x3de99a70	0.1140641
106	0xbe17987a	-0.14804259
107	0xbdb84aef	-0.089986674
108	0x3d608d94	0.05482252
109	0x3df4b416	0.11948411
110	0x3ce820db	0.02833598
111	0x3d8d359c	0.06894991
112	0x3d018bb5	0.031627376
113	0x3d519d59	0.05117545
114	0x3e00516c	0.1253106
115	0x3e03b094	0.12860328
116	0xbe0708fa	-0.13187018
117	0x3cf4d7bd	0.029888028
118	0x3e5fc4e4	0.21852452
119	0x3ec70f11	0.38878682
120	0x3ec81b41	0.39083293
121	0xbcc2715b	-0.023735693
122	0x3c047d4a	0.008086512
123	0xbd3fa222	-0.04678548
124	0x3d822e24	0.06356457
125	0x3d9a5da2	0.0753739
126	0xbd41fa72	-0.047357984
127	0xbdb86bb4	-0.09004918
128	0xbca45480	-0.020059824
129	0x3c174b46	0.009234255
130	0x3e03833b	0.12843029
131	0x3f117e8b	0.56833714
132	0xbf0cadcc	-0.54952693
133	0xbfb35b9c	-1.4012332
134	0xbfd84baa	-1.6898091
135	0xc09bf429	-4.8735547
136	0xbe0e9e24	-0.13927513
137	0x3db191a5	0.086703576
138	0x3e58a029	0.21154846
139	0x3e9f801b	0.31152424
140	0x3ee9fb81	0.45699695
141	0x3d02c61e	0.03192722
142	0x3e02e998	0.12784421
143	0x3e2b29d2	0.16715172
144	0x3e8e02c3	0.27736482
145	0x3e8f797e	0.2802238
146	0x3d3f7df4	0.046750978
147	0xb9c97bd0	-0.00038429955
148	0xbe854491	-0.26028875
149	0x3e5c8b36	0.2153748
150	0x3cb5eb10	0.022206813
151	0xbe804895	-0.25055376
152	0xbef3b4e5	-0.4759895
153	0x3ee2d84e	0.44305652
154	0xbe1dc9ad	-0.15408964
155	0xbe5591be	-0.20856377
156	0xbe6bc13b	-0.2302293
157	0xbfb30bae	-1.3987939
158	0x3e989367	0.2979996
159	0xbe744f2e	-0.2385833
160	0x3cb78708	0.022403255
161	0x3d735a6f	0.059412416
162	0x3dbb06d3	0.09132161
163	0xbe04dcc1	-0.12974836
164	0x3f0f05ae	0.5586804
165	0x3ea0ca04	0.31404126
166	0xbdf7ba1a	-0.12096043
167	0xc01c6f32	-2.4442868
168	0xbe42134a	-0.1895267
169	0x3f5ec296	0.87015665
170	0x3dc75dcf	0.097346894
171	0xbf2a0800	-0.6641846
172	0xc0025d0c	-2.0369291
173	0x3e16e1d5	0.14734586
174	0x3f21f833	0.63269347
175	0x3e38d663	0.18050532
176	0xbf64360c	-0.8914497
177	0xc02d863d	-2.7113183
178	0x3ec78107	0.38965628
179	0x3e913d2b	0.2836698
180	0xbd5dae4f	-0.05412131
181	0x3cfbeac0	0.030751586
182	0xbee10c48	-0.43954682
183	0xbdd51152	-0.10403694
184	0xbd0cd839	-0.034385893
185	0x3e83d6a3	0.25749692
186	0xbd87d768	-0.06632882
187	0xbed3ed4c	-0.4139198
188	0x3c753801	0.014966966
189	0x3e0d6292	0.13807133
190	0xbe2e557b	-0.17024796
191	0x3e17e8e4	0.14834934
192	0x3dfa5540	0.122232914
193	0xbd0e0224	-0.03467001
194	0xbf19011a	-0.59767306
195	0xbdc7a707	-0.09748655
196	0xbeff90be	-0.49915117
197	0xbe1d5ffe	-0.1536865
198	0x3ea01754	0.31267798
199	0xbe1f69db	-0.15567724
200	0x3e465901	0.1936989
201	0xbe27c897	-0.16385113
202	0xbe874d30	-0.26426077
203	0xbedc889c	-0.43072975
204	0xbee0d0ae	-0.4390921
205	0x3eb9e145	0.3630468
206	0xbf8d8b07	-1.1058053
207	0x3dcaae59	0.098965354
208	0xbda3d71a	-0.08000012
209	0xbf04b9ec	-0.51846194
210	0xbe92ca58	-0.2867
211	0x3cfe837a	0.031068552
212	0x3e5602e5	0.20899542
213	0x3e91054c	0.28324354
214	0xbe5ded75	-0.21672614
215	0xbebfde22	-0.3747416
216	0xbf78930f	-0.97099394
217	0x3ebc08ab	0.36725363
218	0xbef9122c	-0.48646677
219	0xc087b054	-4.2402744
220	0x3d24ca50	0.040232003
221	0x3d7aae89	0.061201606
222	0x3cda06ff	0.026614664
223	0x3d94b51c	0.07261106
224	0x3c4b091f	0.012392311
225	0x3d3cac27	0.046062615
226	0x3d0ebdac	0.034848854
227	0xbd8bafa7	-0.068206124
228	0xbcdaf71b	-0.026729157
229	0x3ddb2063	0.10699537
230	0x3eeab069	0.45837715
231	0x3eec5eff	0.46166226
232	0x3da4f9d1	0.08055461
233	0x3e00e183	0.12586026
234	0x3def77c0	0.116927624
235	0x3de789f1	0.11305607
236	0x3cfe85cf	0.031069664
237	0xbd7b9509	-0.061421428
238	0x3d4a3f55	0.049376804
239	0x3da817ef	0.0820769
240	0x3e538f2a	0.20660082
241	0x3e34e4e9	0.17665447
242	0x3bf69d21	0.0075260554
243	0x3dacac10	0.08431256
244	0x3c37773e	0.011197863
245	0x3daf5f66	0.08563118
246	0x3d2505f1	0.04028887
247	0xbdcbc9fc	-0.09950635
248	0x3d354ad9	0.044260833
249	0x3e4c23a8	0.19935477
250	0x3e4000ff	0.1875038
251	0x3eaa29e0	0.33235073
252	0x3ef01245	0.4688894
253	0xbf9514c3	-1.1646961
254	0xbfab0b53	-1.3362831
255	0xbfdb76b8	-1.7145605

fcs.0.bias f4 [128]
0	0xbe904c5f	-0.28183267
1	0xbdc01c02	-0.09380342
2	0xbd91cadb	-0.0711877
3	0xbbb872c4	-0.0056289155
4	0x3e286520	0.16444826
5	0xbe4acefa	-0.19805518
6	0x3e35a450	0.17738461
7	0xbe9da46c	-0.30789506
8	0xbeec1b66	-0.46114653
9	0x3f0eb268	0.55740976
10	0xbdbd7d54	-0.0925242
11	0x3dd2ff8b	0.10302647
12	0xbe6ffac9	-0.2343551
13	0xbedf3f21	-0.4360285
14	0xbe9cf723	-0.306573
15	0xbe1ca1ff	-0.15296172
16	0xbda0ad1b	-0.07845517
17	0xbcd182c9	-0.025575059
18	0xbea02019	-0.3127449
19	0xbe941699	-0.2892349
20	0x3dadeccd	0.08492432
21	0x3e6a4c9d	0.22880788
22	0xbdcfb7df	-0.101424925
23	0xbe9afc12	-0.3027044
24	0xbde3acf9	-0.11116976
25	0xbd954ae9	-0.072896786
26	0x3d39eb92	0.045390673
27	0xbe87ceb6	-0.26524895
28	0xbda4b1ff	-0.080417626
29	0xbe9b5871	-0.30340913
30	0x3d9d3a22	0.076771036
31	0xbe3f0c8c	-0.1865713
32	0xbf02a24b	-0.5102889
33	0xbeb9a887	-0.3626139
34	0x3d26a60a	0.04068569
35	0xbe5095cd	-0.20369644
36	0x3e8e4773	0.27788886
37	0x3f0630b6	0.52418077
38	0xbd99c6f6	-0.07508652
39	0xbe8b696d	-0.2722887
40	0x3df08ba3	0.117453836
41	0xbedcba71	-0.43110994
42	0x3e4cd9d8	0.20004976
43	0x3dce9880	0.10087681
44	0xbe2e1e4f	-0.1700375
45	0xbe8baad0	-0.27278757
46	0xbd720220	-0.059084058
47	0xbe838b9b	-0.25692448
48	0xbedab567	-0.42716524
49	0xbdc5f2ee	-0.09665476
50	0xbdaa2e2c	-0.08309588
51	0x3dab4845	0.08363394
52	0xbea8344e	-0.32852405
53	0xbe518c0e	-0.20463583
54	0xbe2badf0	-0.1676557
55	0xbe92e5a3	-0.28690824
56	0xbe8c8e08	-0.2745211
57	0x3efdff94	0.49609053
58	0x3dbf98cf	0.09355318
59	0xbe86dbbc	-0.2633952
60	0xbdc6b566	-0.09702568
61	0x3ee693dd	0.45034686
62	0xbdf53fd2	-0.119750634
63	0xbeb8a22c	-0.36061227
64	0xbd96223a	-0.07330747
65	0xbeb40b30	-0.35164785
66	0x3c4c7dc6	0.012481159
67	0xbf0514ad	-0.51984674
68	0xbeaebfd1	-0.3413072
69	0xbee53a00	-0.44770813
70	0xbe809414	-0.25112975
71	0xbe17a828	-0.1481024
72	0xbe084984	-0.13309294
73	0xbe0fb5da	-0.14034215
74	0xbeb97a46	-0.362261
75	0x3d50c225	0.0509664
76	0xbdb1790f	-0.08665668
77	0xbeb90a17	-0.3614051
78	0xbe1d2911	-0.15347697
79	0xbe695958	-0.22787988
80	0xbc094de9	-0.008380392
81	0xbe84230a	-0.25807983
82	0xbeb82fc1	-0.35973933
83	0xbebf7ed0	-0.37401438
84	0xbe8fa5bc	-0.28056133
85	0xbe0eea04	-0.13956457
86	0xbe429d4f	-0.19005321
87	0xbe7c0831	-0.246125
88	0xbe8e2002	-0.27758795
89	0xbe9c035b	-0.3047131
90	0x3d1f9298	0.038958162
91	0xbe46431d	-0.19361539
92	0xbeaff9bf	-0.3437023
93	0xbf143cc7	-0.5790524
94	0xbe3d1bdf	-0.18467663
95	0xbdb46a4c	-0.08809337
96	0x3cf8eb53	0.030385649
97	0xbef552f2	-0.47914845
98	0xbce90593	-0.02844504
99	0xbe7c195e	-0.24619052
100	0xbebdbcf0	-0.3705821
101	0xbef2f619	-0.47453383
102	0x3e1abfaa	0.15112177
103	0x3dc728dd	0.09724591
104	0xbee31ae0	-0.44356441
105	0xbf2143b9	-0.6299396
106	0xbee9f30c	-0.45693243
107	0x3e055a8a	0.13022819
108	0xbe89bc5b	-0.26901516
109	0xbed2bef5	-0.41161314
110	0xbdbb94c2	-0.09159233
111	0x3d2e24e6	0.042515658
112	0xbe9de710	-0.3084035
113	0xbe946d1a	-0.28989488
114	0xbe4cf6ab	-0.20015971
115	0xbe5adacc	-0.21372527
116	0xbe85a93b	-0.26105675
117	0xbdd9d926	-0.10637121
118	0x3da363b6	0.07978003
119	0xbdba0cc4	-0.09084466
120	0xbed6cb6a	-0.41952068
121	0xbdb69860	-0.08915782
122	0xbc8e0bd1	-0.017339619
123	0xbf315f31	-0.69285876
124	0xbed850e5	-0.42249218
125	0x3deb18ab	0.114793144
126	0xbe5b650b	-0.21425264
127	0xbf043fdc	-0.5165994

fcs.1.weight f4 [64, 128]
0	0xbf8246eb	-1.0177892
1	0xc0030f2e	-2.0478015
2	0x3e322e32	0.17400435
3	0x3e525637	0.20540701
4	0xbeb3b250	-0.3509698
5	0x3dba67e9	0.091018505
6	0x3e87937c	0.2647971
7	0x3f95e3e3	1.171017
8	0xbf307f6b	-0.68944424
9	0xbcdb123b	-0.026742091
10	0x3dcb3576	0.09922306
11	0x3eb45a84	0.35225308
12	0x3f1f4f51	0.622304
13	0xbe802a50	-0.25032282
14	0xbf5551ba	-0.8332783
15	0xbf02a6d8	-0.51035833
16	0xbd3df24d	-0.046373654
17	0x3e22f0df	0.15912198
18	0xbf52d099	-0.82349545
19	0x3eeb80da	0.45996743
20	0x3f0cc8da	0.54993975
21	0xbfad6d86	-1.3549049
22	0xbf8f5530	-1.1197872
23	0x3e5d32b8	0.21601379
24	0xbeab6845	-0.3347799
25	0xbce361b7	-0.027756555
26	0x3e2465bb	0.16054432
27	0xbf22e1aa	-0.63625586
28	0x3ec84980	0.39118576
29	0x3ecd9561	0.4015303
30	0x3f23b83f	0.6395301
31	0xbf477b46	-0.77922475
32	0x3f2d2bfb	0.67645234
33	0xbf37a35f	-0.7173366
34	0x3dee1698	0.11625403
35	0xbf462636	-0.77402055
36	0xbd46a960	-0.048501372
37	0x3c4ef732	0.012632178
38	0xbdda6aa8	-0.10664874
39	0xbe173f1e	-0.14770171
40	0x3f013daa	0.50484717
41	0xbf806b07	-1.0032662
42	0x3f7a60cd	0.97803956
43	0x3e03db72	0.1287668
44	0xbe5340c5	-0.20630176
45	0xbea85b00	-0.32881927
46	0x3f58e8a0	0.8472996
47	0x3f3a2f8c	0.727288
48	0x3ee61327	0.44936487
49	0xbe6a12cd	-0.22858734
50	0xbebcbc62	-0.36862475
51	0x3cc3732c	0.02385863
52	0xbf4294b0	-0.7600813
53	0xbfbc27ca	-1.4699643
54	0x3e73825e	0.237802
55	0xbcc7a3cd	-0.024370098
56	0xbf2bd7b9	-0.6712604
57	0xbdb97982	-0.09056379
58	0x3e2ef80f	0.17086814
59	0xbfb3b14d	-1.4038483
60	0x3e71384d	0.23556633
61	0xbdb5cc6c	-0.08876881
62	0xbe97a12a	-0.29615146
63	0xbe57864f	-0.21047328
64	0xbddee9af	-0.10884415
65	0xbeede1ed	-0.4646143
66	0xbe80b255	-0.25136057
67	0xbfa081a0	-1.2539558
68	0xbf292b9d	-0.66082174
69	0xbf1927b7	-0.59826225
70	0xbf97c27a	-1.1856225
71	0x3e852757	0.26006576
72	0xbf92adb1	-1.1459256
73	0xbddfc3b1	-0.10925997
74	0xbf59ccf6	-0.8507837
75	0xbe08a9b0	-0.1334598
76	0x3f0c812f	0.5488462
77	0xbef7424f	-0.48292777
78	0xbf8f7066	-1.1206176
79	0xbe8009ff	-0.25007626
80	0x3eb38438	0.35061812
81	0xbf083be7	-0.53216404
82	0x3eaa2fe5	0.33239666
83	0xbf2af06f	-0.6677312
84	0xbd285998	-0.04110107
85	0x3d6b2108	0.057404548
86	0x3e763383	0.24043088
87	0x3f50f072	0.8161689
88	0xbe12f7d7	-0.14352356
89	0x3f63b881	0.88953406
90	0xbfbd9a28	-1.481267
91	0xbe607a71	-0.21921708
92	0xbe379ce7	-0.17930947
93	0x3edbad90	0.42905855
94	0xbefe7a13	-0.4970251
95	0xbe27b577	-0.16377817
96	0x3f549ec3	0.8305475
97	0xbe305c70	-0.17222762
98	0x3e4fb7e4	0.20284992
99	0xbfc1cdab	-1.514089
100	0x3df003bd	0.11719463
101	0xbeaf5f1d	-0.34252253
102	0x3e8e2064	0.27759087
103	0xbed99871	-0.42499116
104	0x3e073071	0.13202073
105	0x3e8c97b8	0.27459502
106	0xbf72d78c	-0.9486015
107	0xbdd535eb	-0.10410675
108	0xbdcac3a8	-0.099006
109	0x3e9f028a	0.31056625
110	0xbf62e9d0	-0.8863802
111	0xc07e4852	-3.973164
112	0xbe8432be	-0.25819963
113	0xbf83adeb	-1.028745
114	0xbe992513	-0.29911098
115	0xbf5b1954	-0.8558552
116	0xbee7b57e	-0.45255655
117	0x3e13a0df	0.14416836
118	0xbe90ac7a	-0.2825659
119	0xbe0c1d3d	-0.13683029
120	0xbdbf4219	-0.09338779
121	0x3e065f12	0.13122204
122	0x3e342f3a	0.1759614
123	0xbf05d8ea	-0.5228411
124	0xbe1aedce	-0.15129778
125	0x3e1aa2e9	0.15101208
126	0x3dc812b6	0.09769194
127	0xbf02bfba	-0.510738
128	0xbe61ee02	-0.22063449
129	0xbe9e3596	-0.30900258
130	0x3f488864	0.78333116
131	0x3e28ff47	0.1650363
132	0x3e50eae1	0.20402099
133	0xbdbdd678	-0.09269422
134	0x3dd3ef49	0.103483744
135	0x3e0fdd4e	0.14049265
136	0xbcfe71d3	-0.031060135
137	0x3db91cd6	0.09038703
138	0x3d0cf4c4	0.034413114
139	0x3c847681	0.016169788
140	0x3d6cea8c	0.05784087
141	0xbf00526d	-0.5012577
142	0x3e233168	0.15936816
143	0x3e92f661	0.28703597
144	0xbee3655d	-0.44413272
145	0xbda13c7d	-0.07872865
146	0xbcce5c05	-0.025190363
147	0xc00db5d4	-2.214223
148	0x3f044e07	0.5168156
149	0x3ec64efb	0.38732132
150	0x3d89a959	0.067217536
151	0xbf5876f5	-0.84556514
152	0x3e9dffb2	0.30859143
153	0x3db945d6	0.09046523
154	0xbd386adf	-0.045023795
155	0xbf03201e	-0.5122088
156	0xc0025680	-2.0365295
157	0x3edb142f	0.42788836
158	0x3e257281	0.16156961
159	0xbf2c6b9b	-0.6735169
160	0x3d9e604c	0.07733211
161	0x3f1ef84e	0.6209763
162	0xc0263afa	-2.5973496
163	0xbf21f907	-0.6327061
164	0x3db23979	0.08702368
165	0xbc4840e7	-0.012222505
166	0xbf92f258	-1.1480207
167	0xbe7e1d8d	-0.2481596
168	0xbea661a1	-0.3249636
169	0x3dbbd717	0.091718845
170	0x3d36fa4f	0.044672307
171	0x3f4b92c5	0.7952083
172	0xbf15721b	-0.58377236
173	0xbfd64cbf	-1.6742171
174	0xbebde3e0	-0.37087917
175	0xbeb80851	-0.35943845
176	0xbde5d660	-0.112225294
177	0x3e9f3da0	0.31101704
178	0x3e445012	0.1917117
179	0x3f205456	0.62628686
180	0x3d230130	0.039796054
181	0x3e05b886	0.13058671
182	0xbf1bddc7	-0.6088528
183	0xbed98775	-0.42486158
184	0xbf899f73	-1.0751785
185	0xbdc2b1de	-0.09506582
186	0xbddd136c	-0.1079472
187	0xbef79720	-0.48357487
188	0x3ba27b48	0.004958544
189	0xbdd7bbb9	-0.10533852
190	0x3e1669f6	0.14688858
191	0x3f205a6e	0.62637985
192	0xbecfa32e	-0.40554184
193	0xbe16c6c9	-0.14724268
194	0xbe3e0de7	-0.18559991
195	0xbf268fba	-0.6506306
196	0xbe5dc908	-0.21658719
197	0xbe90196c	-0.28144395
198	0x3f2adb6f	0.6674108
199	0xbe90db06	-0.28292102
200	0xbf8cd00a	-1.1000988
201	0x3edc8423	0.43069562
202	0xbf407f1a	-0.7519394
203	0xbfc61986	-1.5476539
204	0x3f0eda2a	0.5580164
205	0x3eac417a	0.33643705
206	0xbf8cedc7	-1.1010064
207	0xbfa4b695	-1.286822
208	0xbed51dd8	-0.4162433
209	0x3d4d42a6	0.05011239
210	0xbf235616	-0.6380323
211	0xbe9736be	-0.29533952
212	0x3e5f05e8	0.21779597
213	0xbef4b169	-0.47791603
214	0x3ee162c5	0.44020668
215	0xbfbf7301	-1.4956971
216	0xbe6569f6	-0.22403702
217	0x3f23f46f	0.6404485
218	0xbf769185	-0.96315795
219	0xbec7b95e	-0.3900861
220	0x3da04ab5	0.07826749
221	0x3bd03ec5	0.006355139
222	0x3de57acc	0.11205062
223	0xbf8b0688	-1.0861368
224	0xbd34ea51	-0.044168774
225	0xbfa16341	-1.2608415
226	0x3d8e2e57	0.069424324
227	0x3f312f0c	0.6921241
228	0x3efe08c5	0.49616066
229	0xbf4343c3	-0.7627527
230	0x3e998ee8	0.2999184
231	0x3f1ce289	0.61283165
232	0x3f6ad83b	0.9173619
233	0x3dc97908	0.09837538
234	0x3e70cf11	0.2351649
235	0xbfaa37ec	-1.3298316
236	0x3ee14bde	0.44003195
237	0xbde7afb7	-0.11312812
238	0xbf509581	-0.81478125
239	0x3eccf0b4	0.40027392
240	0x3d184082	0.037170894
241	0xbae881da	-0.0017738894
242	0x3f00e0b9	0.503429
243	0x3e6c51a4	0.23078018
244	0xbf2cb1e5	-0.67458946
245	0xbe965cfc	-0.29367816
246	0x3e57762a	0.2104117
247	0x3e03e1da	0.12879124
248	0xbf6d96a1	-0.92807966
249	0x3d845cc1	0.06463004
250	0xbf73e095	-0.9526456
251	0x3e2a6478	0.16639888
252	0xbfce9de8	-1.6141939
253	0x3d18b9e5	0.037286658
254	0xbca7f41a	-0.020502139
255	0xbf3e2170	-0.7426977

fcs.1.bias f4 [64]
0	0xbed45220	-0.41468906
1	0xbe82b40f	-0.25528
2	0x3f7e9d1f	0.994585
3	0x3e005727	0.12533246
4	0x3e8cc84d	0.27496567
5	0x3e372e52	0.17888764
6	0x3f6525f1	0.8951102
7	0xbd922e2a	-0.07137711
8	0xbd9186f9	-0.07105822
9	0xbed1564d	-0.40886155
10	0xbcbc7b1e	-0.023007926
11	0x3e8b25e1	0.27177337
12	0xbde618da	-0.11235209
13	0xbdcadc92	-0.09905352
14	0x3d0bc14f	0.0341199
15	0x3eae2bd9	0.34017828
16	0x3f3095c1	0.68978506
17	0xbe15918c	-0.14606303
18	0xbdedefd4	-0.11618009
19	0x3ee97818	0.45599437
20	0x3f7c1303	0.9846651
21	0xbe9c8a13	-0.30574092
22	0x3e1e0b4a	0.15433994
23	0x3df0edff	0.11764144
24	0xbe0b5ded	-0.13610049
25	0x3e33b80a	0.17550674
26	0x3ef5a5ed	0.47978154
27	0x3f05291e	0.52015865
28	0x3f56164e	0.83627784
29	0xbebb6e4c	-0.36607587
30	0xbe8f5100	-0.27991486
31	0x3d94c2f6	0.07263748
32	0xbe250b9b	-0.16117708
33	0x3f6a99b3	0.91640776
34	0xbd676039	-0.05648825
35	0xbda92fe2	-0.08261086
36	0xbe103274	-0.14081746
37	0x3e28c833	0.1648262
38	0xbd182c30	-0.037151515
39	0xbeeb2bf2	-0.45931965
40	0x3ea1b186	0.31580752
41	0xbe7bcaec	-0.24589127
42	0xbe193eaa	-0.1496531
43	0xbd2042de	-0.03912627
44	0x3eace330	0.3376708
45	0xbea7cbe1	-0.32772735
46	0x3df24485	0.11829475
47	0xbe789e1e	-0.24279067
48	0x3e0eaac3	0.13932328
49	0x3ea5c315	0.32375398
50	0x3e9a04f3	0.300819
51	0x3e455933	0.19272308
52	0x3eeb0df7	0.45909092
53	0xbdc0553e	-0.09391259
54	0x3db281ba	0.0871615
55	0x3f6ab407	0.9168095
56	0xbd3e083b	-0.046394568
57	0x3e0c999b	0.13730471
58	0xbe4fc5d2	-0.20290306
59	0xbd40775a	-0.046988823
60	0xbd63528e	-0.055498652
61	0x3ed73262	0.42030627
62	0xbe3f1034	-0.18658525
63	0x3e878e82	0.26475912

fcs.2.weight f4 [16, 64]
0	0x3d57ab2f	0.052653488
1	0x3d2bf8c9	0.041985307
2	0x389d87f0	7.511664e-05
3	0x3d4a103b	0.049331885
4	0xbcc6ed75	-0.02428315
5	0xbd76b0ea	-0.060227312
6	0x3d868988	0.06569201
7	0xbd6a062e	-0.0571348
8	0xbcd44e11	-0.025916131
9	0xbda1966d	-0.078900196
10	0x3dae3d14	0.085077435
11	0x3d88d0b5	0.06680433
12	0xbd3a62af	-0.04550427
13	0x3ddc675c	0.10761902
14	0x3da08eb8	0.078397214
15	0x3b0e8f4b	0.002175289
16	0xbde595ff	-0.1121025
17	0xbdf2bd3d	-0.118525006
18	0x3c9118d0	0.017712027
19	0x3c93fd57	0.018065138
20	0xbdedee81	-0.11617757
21	0x3dc120f3	0.09430113
22	0x3bf761f5	0.007549519
23	0x3bdc304c	0.0067196246
24	0xbe0d76d5	-0.13814862
25	0xbdec9e21	-0.11553598
26	0x3d669c2a	0.056301273
27	0xbd8034aa	-0.06260045
28	0xbd7f4536	-0.062321864
29	0xbd9ece26	-0.077541634
30	0xbd9fcd55	-0.07802836
31	0x3da8323d	0.08212707
32	0x3d26e907	0.040749576
33	0xbd3e2243	-0.046419393
34	0x3dc902f5	0.09815017
35	0xbd9571f4	-0.072971255
36	0xbd3dd3e3	-0.04634465
37	0x3d24bfb1	0.040221874
38	0xbdb603ac	-0.08887419
39	0x3e15f338	0.14643562
40	0x3d42dd07	0.04757407
41	0xbcce1624	-0.025157042
42	0xbdd2d1b6	-0.102939054
43	0x3dd33d8f	0.10314476
44	0xbd640588	-0.055669338
45	0xbd74ee54	-0.0597976
46	0x3e1e9270	0.15485549
47	0xbd391a9c	-0.045191392
48	0x3dd0743f	0.10178422
49	0xbd8be09e	-0.06829952
50	0xbdbe55a0	-0.092936754
51	0xbd851c32	-0.064995185
52	0xbe2ccec0	-0.16875744
53	0x3da20736	0.079115316
54	0x3c41d572	0.0118306745
55	0xbcbba164	-0.022904105
56	0xbde8c9b1	-0.113665946
57	0x3d86ae14	0.065761715
58	0x3da306a3	0.0796025
59	0x3d93acf2	0.07210721
60	0xbd1952ab	-0.037432354
61	0x3cf82beb	0.03029438
62	0x3dad9559	0.084757514
63	0xbd406197	-0.04696807
64	0x3ba790f4	0.0051137153
65	0x3d48ee63	0.04905547
66	0xbcbb91e6	-0.022896718
67	0xbd5c9a73	-0.05385823
68	0x3d236c80	0.039898396
69	0x3b9706c7	0.004608962
70	0xbda2c614	-0.07947937
71	0xbca58caa	-0.020208675
72	0x3d8da84f	0.06916868
73	0x3de485fb	0.11158367
74	0xbd072bac	-0.033000633
75	0x3d80e724	0.062940866
76	0x3dddfa13	0.108387135
77	0x3d8f1e25	0.069881715
78	0x3d5b70b7	0.05357429
79	0xbe00163b	-0.1250848
80	0xbdb803d3	-0.089851044
81	0xbd99babb	-0.07506319
82	0x3df93982	0.12169172
83	0xbc88974d	-0.016673708
84	0xbe11254d	-0.14174385
85	0xbe087ca6	-0.133288
86	0xbde9e6b6	-0.11420958
87	0xbddd7c38	-0.108147085
88	0xbdb1778c	-0.0866538
89	0xbda2a662	-0.07941891
90	0x3d81da46	0.063404605
91	0xbda5c9cb	-0.080951296
92	0x3d9d4580	0.07679272
93	0xbd1840aa	-0.037171043
94	0xbdf33fc2	-0.11877395
95	0xbd8d1cbf	-0.068902485
96	0xbd86886c	-0.06568989
97	0xbddf5a24	-0.10905865
98	0xbde8f46b	-0.11374744
99	0xbad7f78d	-0.0016476974
100	0xbddd9462	-0.108193174
101	0xbd3ba76c	-0.045813963
102	0xbd0693f8	-0.032855958
103	0xbd8ed6ee	-0.06974588
104	0xbc5235f4	-0.012830246
105	0xbdf86d32	-0.12130202
106	0xbd58b56c	-0.052907392
107	0x3dcedfc0	0.10101271
108	0x3da6da0c	0.08147058
109	0xbae313af	-0.0017324592
110	0x3d0e6d6c	0.03477232
111	0x3da76acd	0.081746675
112	0x3de9f4e2	0.11423661
113	0xbdb5fdc2	-0.08886291
114	0x3a5a58b1	0.0008329256
115	0xbd68d941	-0.056847814
116	0xbddb836d	-0.10718427
117	0x3db561b4	0.08856526
118	0x3d905a8b	0.0704852
119	0xbced1789	-0.028941886
120	0x3dbfc23a	0.09363218
121	0x3cd631da	0.026146818
122	0x3d54e57c	0.051976666
123	0x3d27aab9	0.0409343
124	0x3d3ffd84	0.04687263
125	0x3bc28ee6	0.005937445
126	0x3d55c07b	0.052185517
127	0x3dcbb3e8	0.09946424
128	0x3f0e8702	0.55674756
129	0xbda6229b	-0.08112069
130	0xbd70937e	-0.05873441
131	0xbd91b9d3	-0.07115521
132	0x3e548ea4	0.20757538
133	0x3dedf0e3	0.11618211
134	0xbc970d9e	-0.01843911
135	0xbede89c0	-0.4346447
136	0x3c845dd6	0.016158026
137	0x3f3628ce	0.71156013
138	0xbba1c65e	-0.0049369773
139	0x3eb8342f	0.35977313
140	0xbfb4b96e	-1.4119089
141	0xbd057089	-0.032578025
142	0x3e87c0d1	0.26514295
143	0xbefbfb44	-0.49215138
144	0xbdc2d149	-0.09512574
145	0xbf9038e4	-1.1267362
146	0x3b1b2bf1	0.0023677314
147	0xbf00c542	-0.5030099
148	0x3db25f97	0.087096386
149	0xbc698841	-0.014253677
150	0xc0535340	-3.3019562
151	0xbc2b4b5f	-0.010454982
152	0x3ef85c00	0.4850769
153	0xbd077ee6	-0.033080004
154	0x3d363f2a	0.04449383
155	0x3dfd9cc2	0.12383415
156	0x3da402f7	0.08008378
157	0x3cec75eb	0.028864821
158	0x3e000313	0.12501173
159	0xbf5781a9	-0.8418222
160	0xbf1e8914	-0.61927915
161	0xbe823eaa	-0.25438434
162	0xbed55eaa	-0.41673785
163	0x3f38dfe6	0.7221664
164	0xbdb2610f	-0.08709919
165	0xbedd2421	-0.43191627
166	0x3ef29ff9	0.47387674
167	0x3f73aa75	0.9518197
168	0x3f011abb	0.5043141
169	0xbfadaa3d	-1.3567578
170	0x3e3994de	0.18123195
171	0x3f12b116	0.5730146
172	0x3e2e713d	0.17035384
173	0x3f1fa4a9	0.62360626
174	0xbcf213ac	-0.029550396
175	0xbf10abdb	-0.5651223
176	0x3e63c897	0.22244488
177	0x3f204d61	0.6261807
178	0x3ef68891	0.48151067
179	0x3f0f3266	0.55936277
180	0xbed588ba	-0.41705877
181	0x3f246669	0.64218765
182	0xbf06c7c2	-0.52648556
183	0x3d8c3080	0.06845188
184	0x3f134440	0.57526016
185	0x3f3444ae	0.70417297
186	0x3d8e3178	0.06943029
187	0xbee845f5	-0.45365873
188	0x3d1d967c	0.03847359
189	0xbec6de26	-0.3884136
190	0x3f84360b	1.0328993
191	0xbf200a98	-0.62516165
192	0xbd96ec7f	-0.07369327
193	0xbe814d8b	-0.25254473
194	0x3ec835be	0.39103502
195	0x3eb052d4	0.34438193
196	0x3e8a81a0	0.2705202
197	0x3d415fbd	0.047210444
198	0x3e828d04	0.2549821
199	0x3ee32a6d	0.44368306
200	0xbd9480b3	-0.0725111
201	0xbe05d1e9	-0.13068356
202	0xbdbabc67	-0.09117966
203	0xbcdd8acd	-0.027043724
204	0xbeb21316	-0.34780186
205	0x3d533b61	0.0515703
206	0x3ebf8d71	0.374126
207	0x3f520a84	0.82047296
208	0x3e838833	0.2568985
209	0x3eb8ced8	0.3609531
210	0xbdaea66c	-0.08527836
211	0x3de28614	0.110607296
212	0x3ef4e5aa	0.4783147
213	0x3d23d2f5	0.039996106
214	0xbdfa64f6	-0.12226288
215	0xbcc54917	-0.024082704
216	0xbf55d876	-0.8353342
217	0x3e79dda3	0.24400954
218	0xbd8b431e	-0.06799911
219	0x3d823094	0.06356922
220	0x3e9dc039	0.30810717
221	0xbe478d9f	-0.19487618
222	0xbdb45e52	-0.08807053
223	0x3f0693d1	0.525693
224	0xbff66d52	-1.9252112
225	0x3ea6aba7	0.32552835
226	0x3df96074	0.121766
227	0x3f523c5a	0.8212334
228	0xbf7d1e1a	-0.98874056
229	0x3d7e4431	0.06207675
230	0xbf8273b2	-1.0191557
231	0xbee91821	-0.4552622
232	0x3de145e1	0.109996565
233	0xbf58dc04	-0.8471072
234	0x3f108d01	0.56465155
235	0x3bfdded0	0.0077475086
236	0x3e4e8b9b	0.20170443
237	0xbe66d690	-0.22542787
238	0x3e94bdbb	0.29051003
239	0x3f0ef82b	0.55847424
240	0xbdee0927	-0.116228394
241	0x3da28717	0.079359226
242	0x3e8160e4	0.25269234
243	0x3ddc8350	0.10767233
244	0x3ae369c7	0.001735025
245	0xbf7ff69f	-0.9998569
246	0x3dd2a6c6	0.10285716
247	0x3ec76166	0.38941497
248	0x3f30397d	0.6883772
249	0x3e9bf17a	0.3045767
250	0xbe913d28	-0.2836697
251	0xbdf5f3d3	-0.120093964
252	0xbe7ecd55	-0.24883015
253	0x3e03c508	0.1286813
254	0xbf991024	-1.1958051
255	0x3daa5373	0.08316698

fcs.2.bias f4 [16]
0	0xbdd4ba7f	-0.10387134
1	0xbdf6085f	-0.120133154
2	0x3ec1f23d	0.37880126
3	0x3fa08055	1.2539164
4	0xbe08501a	-0.13311806
5	0xbdd8797c	-0.10570046
6	0x3f841164	1.0317807
7	0xbeaa31a7	-0.33241007
8	0xbdf4f544	-0.11960843
9	0x3c79241e	0.015206365
10	0x3f6f4c2b	0.934756
11	0x3f869fb9	1.0517493
12	0x3f8d8c94	1.1058526
13	0x3f686549	0.9077955
14	0xbecdb3ad	-0.40176144
15	0x3e182c72	0.14860705

fcs.3.weight f4 [4, 16]
0	0xbdcc17b1	-0.09965456
1	0xbc7e3e68	-0.0155178085
2	0x3c80f617	0.015742345
3	0x3f0e35b9	0.55550724
4	0xbe73ccd3	-0.23808603
5	0xbd99f517	-0.0751745
6	0x3e7eb0fc	0.24872202
7	0xbd81d04c	-0.063385576
8	0xbde04a11	-0.10951627
9	0x3f8385a8	1.0275164
10	0x3e8104f1	0.25199082
11	0x3ee45614	0.44596922
12	0x3ed145c7	0.40873548
13	0x3edf8ff6	0.4366452
14	0xbe896b13	-0.26839504
15	0xbdc46130	-0.095888495
16	0xbdac0e16	-0.08401124
17	0xbc66aec6	-0.014079755
18	0x3d8a5166	0.06753807
19	0x3e3bc10a	0.18335357
20	0xbd633709	-0.055472407
21	0x3dcda34f	0.10040914
22	0x3ec2886c	0.37994707
23	0xbd8581f8	-0.0651893
24	0x3d8b10cd	0.06790314
25	0x3f6131ba	0.879665
26	0x3eb9f531	0.3631988
27	0x3f06c02e	0.5263699
28	0x3f0bc716	0.54600656
29	0x3f02ea56	0.5113882
30	0xbe8be3a3	-0.2732211
31	0xbe3d6f5a	-0.18499509
32	0xbd984146	-0.07434325
33	0xbb023629	-0.0019868708
34	0x3e1ec963	0.1550651
35	0x3f142560	0.5786953
36	0xbd8f34a1	-0.0699246
37	0x3d0c8fb8	0.03431675
38	0x3ee060f2	0.43823963
39	0x3da10e5c	0.07864067
40	0xbe603a1a	-0.21897164
41	0xbf18af92	-0.596429
42	0x3eaf59cf	0.34248206
43	0x3e159460	0.14607382
44	0x3ee9d21c	0.45668113
45	0x3ea4fd1d	0.3222436
46	0xbeb93a6d	-0.36177388
47	0xbf7c9a3c	-0.9867284
48	0x3da08765	0.078383245
49	0xbe048974	-0.12943059
50	0x3e54d2cd	0.20783539
51	0x3efd0c9d	0.49423686
52	0x3e23d62c	0.15999669
53	0x3cdf7ac3	0.027280217
54	0x3ec606e2	0.38677126
55	0xbe3f4206	-0.1867753
56	0x3e633dfe	0.22191617
57	0x3f522390	0.82085514
58	0x3f04e8d9	0.519178
59	0x3f076bf3	0.5289909
60	0x3eab58df	0.3346624
61	0x3dc02fd4	0.093841225
62	0xbe5e443b	-0.21705715
63	0xbe80f1b2	-0.251844

fcs.3.bias f4 [4]
0	0x3f5a308d	0.8523033
1	0x3f2fff44	0.6874888
2	0x3f2ef7a6	0.6834663
3	0x3f7a3c74	0.97748494
