trained_agents/From-Benchmark-Dueling DQN.pth-Best.pth (torch_old, 58259 bytes, 8 tensors)

fcs.0.weight f4 [128, 37]
00000000: 105c 09be cf11 f6be 6b79 18be 4fd7 35be
00000010: e0ad 12c0 04e5 3abe c62f 38bf 061c 2b3f
00000020: f3c8 ccbe 2734 cebf bf22 1abf 8c29 d7bc
00000030: c8e7 8bbf 5f32 7dbd 7e80 c83e 9043 3fbe
00000040: e0d7 96bf cbaa b3bd 8cc6 07bf ca7d 00bf
00000050: 3a57 a9be 25e8 37be d57a 6f3e c50d 85bf
00000060: 3132 fcbe e3a5 1dbf a6b3 f53d 0b70 3ebf
00000070: 83b0 05bf 995f eabf 3b58 c7be ac8a 78be
00000080: 2292 a0be a45a 593b 806d 2bc0 48ff 3b3e
00000090: 7108 05bd 0fcc 80bd 3b02 fabe 5863 d5be
000000a0: bb8a 7abd e1eb 1b3f 307a c9bf 2ccd 9dbf
000000b0: c8c2 e53d 1824 74bf 8903 42c0 8229 55be
000000c0: 13ba 69bd 66e0 c3be b933 24bf df68 ebbe
000000d0: 6895 bdbd 82a1 debd b388 f03d b737 d0bf
000000e0: a8be 2abe f574 b8bf e5dc 143e a696 c5bd
000000f0: d9da afbf 2e8a 06c0 b535 053e dda8 1fbe
00000100: 9d5b e5be 85b1 c7bf 8982 d4bf b0a1 4ebf
00000110: 8f8e e4bd 2e3c fcbc c40d c8bf 50dc 30c0
00000120: 437f 6bbe e614 f5bc 0407 3f3d 7358 b8be
00000130: 5ae1 edbd 1bfe 85bd a38d 233e 69e7 cdbe
00000140: 5b47 b8be d3a7 3cbc e928 babe 48d1 65c0
00000150: cdbf 85be 1b87 8f3e 0270 04bf 6bc7 b3be
00000160: b825 313e d64b cb3e 71b6 70bf c982 cebe
00000170: fa4e 10be 6539 70bf 3ab6 13be 06d0 1ebf
00000180: 7883 7bbc fe3f 04be d262 47bc f948 8dbf
00000190: 7809 543f ce34 b03d 9541 59bf cda0 a7c0
000001a0: adec ebbc 04a4 a0be b49e ddbe 06f6 16bf
000001b0: a1e6 d7be 414d a5bd 7950 1cbc 30b0 573d
000001c0: 9d30 613d ec6a f93c fc9c f73d 36d6 b63c
000001d0: 2c33 1bbe 5cfa 523e 9270 983e dfe6 403f
000001e0: 7122 1a3f f861 a0bd 3637 783d 8d81 bfbb
000001f0: 1761 ed3d 2b43 073e 04ea 74bd 6d96 1d3d
00000200: c08d 813c 34b5 32bc 265d f73d ae1c 103f
00000210: 2ad7 02c0 38ef 1bc0 429f 31c0 3d94 fbc0
00000220: 8092 153d 7d28 293e eb4e 693e 7ad4 7f3e
00000230: ad10 a93e 3cf7 793d 2b04 523e 7e43 f43d
00000240: 156d b63e 3ee9 b63e 32aa 333d 25b4 bc3b
00000250: 7a27 b73d 08fa 783d 8f0c 82bc 8bf2 883e
00000260: a6f1 983e a198 de3d 9eed 113f a87a 9e3e
00000270: 560a a0bf 345e 38c0 c8bd d73d a52b bb3e
00000280: d1c2 b53d 647b 673e aa68 6abe af9d 35be
00000290: 8f4c a43f 05a0 883e 8680 b6bf b251 38c0
000002a0: 0c09 1ebe 2182 2d3f 2a28 86bd ed53 6bbf
000002b0: 6ee2 4bc0 74e6 c8bc 6464 663f 1090 97bc
000002c0: b690 bfbf 6cda 76c0 c813 9c3e f109 853b
000002d0: 5fc7 203e f8a4 56bf db67 57be ea77 9ab9
000002e0: 4e0f 15bd 9a86 d1bc 7c75 4cbd 7f58 00bd
000002f0: db60 7abe bbdb fe3d 164b bcbe c189 8f3d
00000300: 087d 24bf 572e 3e3e eee1 81c0 21e9 19bf
00000310: ab2f bebe 1e13 30bf 65b2 0b3f 1997 15be
00000320: b93e 19ba b050 59bf f333 59bf a57d 70bf
00000330: 650c c1bf 9bf0 843e a8ee 3bbf e4d0 513f
00000340: 0ae4 99be 0e9a 1dc0 0040 cfbe 3d48 e9be
00000350: ccee 4dbf 5332 41bf e785 03c0 729b 01bf
00000360: 0f93 78bf 64db eebe 6aad bcbf c81b 02c1
00000370: d975 2f3f 6ed4 783c 9450 0abc fe2c 773d
00000380: 9292 c33d 1bf4 883d 63e9 213d 5dc7 03be
00000390: 1c20 0e3e b97e ce3e 89ba 6a3f 9b3e 923f
000003a0: 7a42 383d 2294 5d3d ae48 983d 42e6 b93b
000003b0: b196 2f3c 1305 88bc cfd9 e5bb 4714 d83d
000003c0: b253 433e dd4d 9d3e 2b8f 77bd cafa 7f3b
000003d0: 045f e73b b762 093d f946 013e ee2a d9bd
000003e0: a78a 743e 33fe 8c3e c932 1b3f 5c6d 3c3f
000003f0: bd70 123f ec25 21c0 8912 35c0 d394 5ac0
-0.13414025 -0.48060462 -0.14890067 -0.17757915 -2.2918625 -0.18251425 -0.71947896 0.66839635
-0.39997062 -1.6109666 -0.6020927 -0.026264928 -1.0930109 -0.061815616 0.39160532 -0.18678117
-1.178463 -0.087728105 -0.53037333 -0.5019194 -0.3307436 -0.1795965 0.233867 -1.0394827
-0.49257043 -0.6158125 0.11997156 -0.74389714 -0.5222246 -1.8310424 -0.38934502 -0.24271649
-0.3136149 0.0033165598 -2.6785583 0.18359101 -0.032478753 -0.06288921 -0.48829827 -0.41677356
-0.06116746 0.609068 -1.5740414 -1.2328238 0.11218792 -0.95367575 -3.0314658 -0.20816615
-0.05706222 -0.3825714 -0.6414142 -0.45978448 -0.092570126 -0.10870649 0.11744823 -1.6267003
-0.16674292 -1.4410692 0.1453739 -0.096478745 -1.3738662 -2.1021838 0.13008769 -0.1559176
-0.44796458 -1.560105 -1.6602336 -0.80715466 -0.111600034 -0.030790415 -1.5629201 -2.7634468
-0.22997765 -0.029917192 0.04663755 -0.3600498 -0.11615248 -0.065426074 0.15971999 -0.40215614
-0.3599194 -0.011514622 -0.36359337 -3.5908985 -0.26122895 0.28032765 -0.5173341 -0.3511308
0.17299545 0.39706296 -0.94028383 -0.40334156 -0.14092627 -0.9383758 -0.14424983 -0.6203617
-0.015351169 -0.12915036 -0.012169557 -1.1037894 0.8282695 0.08603822 -0.84865695 -5.238379
-0.02879938 -0.31375134 -0.43285143 -0.5896915 -0.42168143 -0.08071376 -0.009540671 0.05265826
0.054978002 0.030446492 0.12090489 0.02231894 -0.1515624 0.20603317 0.29773384 0.7535228
0.60208803 -0.07831186 0.06059953 -0.005844301 0.11590784 0.13209216 -0.059793487 0.038473535
0.015814662 -0.01090746 0.120783135 0.5629376 -2.0443826 -2.4364758 -2.7753453 -7.8618455
0.036516666 0.16519351 0.22784011 0.24983397 0.33020535 0.061026797 0.20509402 0.119269356
0.35630098 0.35724825 0.043863483 0.0057587796 0.089430764 0.060785323 -0.015875129 0.26747546
0.29871863 0.108689554 0.570032 0.30952954 -1.2503154 -2.8807497 0.10534245 0.36556736
0.08875049 0.22605664 -0.22891489 -0.17735933 1.2835864 0.26684585 -1.4257972 -2.8799863
-0.15433139 0.67776686 -0.065506294 -0.91924936 -3.1856952 -0.024523951 0.89996934 -0.018501312
-1.4966037 -3.8570814 0.30483842 0.004060023 0.15701054 -0.8384547 -0.21035711 -0.00029462512
-0.03639155 -0.025576878 -0.04991673 -0.031334396 -0.2445101 0.12444254 -0.36776036 0.07008696
-0.6425328 0.18572365 -4.0588293 -0.6012135 -0.37145743 -0.6877917 0.54569083 -0.1460842
-0.0005845833 -0.84888744 -0.84844893 -0.9394172 -1.5081908 0.25964817 -0.73411036 0.81959367
-0.30056792 -2.4625278 -0.40478516 -0.45562926 -0.804425 -0.75467414 -2.0550478 -0.50627816
-0.97099394 -0.46651757 -1.4740422 -8.131783 0.68539196 0.015187366 -0.008442063 0.060345642
0.095494404 0.066871844 0.039529216 -0.1286902 0.13879436 0.40331057 0.9169088 1.1425356
0.044985272 0.05409635 0.074357376 0.005673201 0.01071708 -0.016603982 -0.00701449 0.105507426
0.19074896 0.30723467 -0.06043927 0.0039059394 0.0070608873 0.033541407 0.1262473 -0.10603891
0.23881017 0.2753769 0.60624367 0.7360437 0.57203275 -2.5179396 -2.8292563 -3.4153335

fcs.0.bias f4 [128]
00000000: e9dd f3be 2eae edbe 4fc2 dcbe 20f7 8fbc
00000010: 3c52 d6bc 66cf 1dbf 13b1 793e c775 a8be
00000020: 564b 4fbf cc46 543f acb0 1cbe ad08 0c3e
00000030: 7ddb 1ebf cf47 21bf db81 12bf fb43 bebe
00000040: 7662 f9be eb8e 56bd 92c4 15bf 5902 f0be
00000050: c05a 5a3e e662 623e 5e05 85be 7aa0 e8be
00000060: e10a 37bf 4a2b 70be a53f dabe ba13 33bf
00000070: a497 88be 76dc d7be 3ec3 963d b4f7 5ebe
00000080: 2fb9 40bf da3f d3be 1926 b0bc b4e8 0bbf
00000090: 9d9d a23e 68ab 433f 1b8b d6be fb0e 0bbf
000000a0: b16b 803d 6320 38bf c5ee 003e c006 363e
000000b0: 6fca 38bf 49ef 02bf 8aa8 ecbe 7c8c 12bf
000000c0: 0e08 83bf c95f 98be 9cbd 2abe 34bf 573e
000000d0: a49e 11bf 9817 23bf aa02 d5be 7965 d5be
000000e0: 82f3 24bf f995 3e3f a669 1abe 91b4 21bf
000000f0: bb9f 89be 23ab 283f 0f2d 9b3d f51d 2bbf
00000100: 33a3 e4be 9d7e 03bf 84b9 abbe 3bf2 17bf
00000110: e47d c2be 9379 f5be 955e 0dbf bac7 28bf
00000120: 506f f0bd a9d1 cbbe d4fe ebbe f441 673d
00000130: 100b 02bf fc39 14bf 5187 c6be a275 c3be
00000140: 747e 8c3d 85ea c7be a2b9 e8be cfa2 51bf
00000150: e6e1 22bf bd53 b8be 958b bdbe 8f63 07bf
00000160: f03e 1abf f6a9 a3be c09a afbe 6792 bfbe
00000170: e406 29bf 4156 17bf 2834 7cbe 4208 38bf
00000180: 56f0 a0be 9f03 06bf 67ec 80be 5aa1 05bf
00000190: 287a 39bf 3ef7 4cbf 449b 5e3e f4e2 8f3e
000001a0: e669 62bf 9a4c 23bf 35c3 5abf da6a e43d
000001b0: 18fc d7be 8821 06bf d98f b2be 8d4a bb3c
000001c0: 0147 e4be 0f07 f4be d155 05bf 6015 a9be
000001d0: 2797 f7be a62f afbe 523f ce3d c249 00bf
000001e0: e489 52bf 7e07 29be a319 34be 2fa4 78bf
000001f0: 1789 0abf cd7a e93d 34c5 98be 2445 10bf
-0.47630242 -0.4642195 -0.43116996 -0.017573893 -0.02616226 -0.6164459 0.24383955 -0.32902357
-0.8097433 0.8292053 -0.1530177 0.13675185 -0.6205366 -0.63000196 -0.57229394 -0.3716124
-0.48707932 -0.05238239 -0.5850307 -0.4687679 0.21323681 0.2210804 -0.25980657 -0.45434934
-0.71500975 -0.23454013 -0.42626682 -0.69951975 -0.26678193 -0.42160386 0.07361458 -0.21774179
-0.7528257 -0.41259652 -0.021502541 -0.5465195 0.31760874 0.7643342 -0.41903004 -0.54319733
0.062705405 -0.7192442 0.12591083 0.17776012 -0.7218389 -0.5114637 -0.46222335 -0.5724561
-1.0236833 -0.29760578 -0.16673893 0.21069032 -0.5688269 -0.63707876 -0.41603595 -0.4167898
-0.64434063 0.7444759 -0.15079364 -0.6316615 -0.26879677 0.65886134 0.075769536 -0.66842586
-0.4465576 -0.5136507 -0.33539975 -0.5935399 -0.37986672 -0.47944316 -0.55222446 -0.6592976
-0.11739981 -0.39808396 -0.46092856 0.056459382 -0.5079813 -0.5790098 -0.38775113 -0.38175684
0.068600565 -0.39046112 -0.45454127 -0.8188905 -0.63625944 -0.36001387 -0.37020555 -0.5288629
-0.60252285 -0.31965607 -0.34297752 -0.37416384 -0.6602614 -0.5911599 -0.24629271 -0.718876
-0.31433362 -0.52349275 -0.2518036 -0.5219933 -0.7245202 -0.8006476 0.21738917 0.2810284
-0.8844284 -0.6378876 -0.8545411 0.11153193 -0.4218452 -0.52394915 -0.34875372 0.022862697
-0.44585422 -0.47661635 -0.5208407 -0.3302412 -0.48357508 -0.3421604 0.10070671 -0.50112545
-0.82241654 -0.16506764 -0.17587905 -0.97125524 -0.5411543 0.114003755 -0.29837954 -0.563555

fcs.1.weight f4 [64, 128]
00000000: 4397 74bf 285e 29c0 da49 23be 5e4f 42be
00000010: 47b1 413e 2a4c 973d c58f 103e 9630 a13f
00000020: 738d a1bf 0ac9 5d39 ba9c cc3e 25a4 463f
00000030: 0b43 ad3e 60b8 42be a908 4fbf 4569 05bb
00000040: 0d02 173d d652 af3e a23b 57bf b31f a4bd
00000050: 9380 463e c626 a7bf 45dd 2cc0 b832 5d3e
00000060: 012e e2be 4185 44bf c8df 89be 3639 85bf
00000070: a90a b63f 258b b03e 8b35 0840 467b 47bf
00000080: c4fe 1e3f 86cf 36bf 80e9 dcbe 0291 03bf
00000090: 5fb7 babe 15c0 ebbb 619b 8dbd c4f7 a5be
000000a0: da51 1f3f 209f adbf 50f6 b1c0 f6bd 44bf
000000b0: 2435 4abf c121 b5be bef4 3abe 0424 9b3f
000000c0: 0357 bc3e 14a0 67bf 61a1 85bf aaca 0dbe
000000d0: 12d0 85bf a76c e5bf 2c54 643e cda3 c7bc
000000e0: e212 2bbf 0fe2 5ebe 23fc 14bd f1b2 9dbf
000000f0: bc2e 403e 2992 a2bd 6f27 97be a679 ebbe
00000100: a14e 3abf 261d edbe 3cf4 393e 616a 8ebf
00000110: 6d0e 10bf e434 1dbf 5167 24bf 3fb9 e03f
00000120: 54fd 07c0 f59a 41be 0292 50bf 6096 de3d
00000130: ccb0 c4be 194d f3be dd9c 75bf 9f85 75be
00000140: 69c8 2f3f e73b 08bf a5da ad3e 01ff 12bf
00000150: 044d c63e 0946 073f f720 993d 047f d03f
00000160: d7f7 12be 81b8 633f b2ff 79c0 9df1 cdbe
00000170: 2531 5abd 90ad db3e db5a 2140 3c3c 7e3f
00000180: 5303 863e 705c 30be ac3a 6d3d 080f ebbf
00000190: 8847 5d3e 4125 f5be 14c7 7dbe 0820 d23e
000001a0: 9ef9 47bf b897 8c3e 2dc6 2ebf 747a 923d
000001b0: 75af 40be 8d19 973e f744 87bf 67ed 87c0
000001c0: b428 65be ebad 83bf 9a42 11bf 5419 5bbf
000001d0: 728b 95bd eca1 fa3e 0348 a7be d3f1 12c0
000001e0: c49e 6dbf c11d 503e 2fad b3be 832a b4be
000001f0: ceed 1abe 8862 e63e b76d e43d 2ee0 053f
00000200: 6278 773e fce8 2fbf b869 b43f 5908 37bf
00000210: 3965 36be 5135 e8bf 9259 b23e b0b3 013f
00000220: fe05 193f 1048 3d3d 6d68 72be 62e9 1ebe
00000230: f5e7 603f e827 31bf 76a0 8dbd 750a 5cbe
00000240: 8f7c a4be b2d0 d5be c0cb bf3e eba0 56c0
00000250: cc11 0a3f b59c 163e 06ba 62bf 5920 21bf
00000260: be63 833f 2e83 a7be 6961 a13d 2435 413f
00000270: 5afe 9bbf 94d8 d33e fb6d 0c3f 9b6b 2cbf
00000280: a9a8 e13e 6c4f 133f 66ba a5c0 1ecf 633f
00000290: 62dd c3bd f022 c03d b96d 7ebf 4fcc 8dbf
000002a0: 6874 7bbe 9359 3ebf c0e7 503e be77 b43f
000002b0: 90a6 ac3e f7fc b2bf 44b3 6e3b c328 3ebf
000002c0: 011e 943e aa4d 3d3f 5909 c43e 8cd7 073f
000002d0: 66fd c9be 00ac c2be 39a1 03bf 7587 d9be
000002e0: ff1c 80be a4be 74be 33ba 403e fd78 39bf
000002f0: f52c bcbd 43f5 d53d f8b0 f1be 8c74 ff3e
00000300: 99b1 0cbf a285 21bf 9afe f43e 8481 d9bf
00000310: ef75 e5bb 6c19 90be b966 833e 1830 c7bf
00000320: 21ec 51bf 4a24 4c3e 209b dbbf 18a8 e1bf
00000330: c9b6 fa3e 63c0 f23e 356a 19c0 0603 b7bf
00000340: 2bdf 53c0 4367 d3bc a14d 24bf fe12 acbe
00000350: cd56 2fbe b7c5 a8be 1db4 993e c4f6 d5bf
00000360: eb25 05be 6ff4 233f 574a 5e3f 8e9f 5f3e
00000370: c23b 2c3f c53e d03b c5c8 d83f 862b 73bf
00000380: 1f68 2a3f 4163 a1bf 7339 08bd fc64 9f3e
00000390: 99cc 593d e886 3b3e cac8 e53e 0544 983e
000003a0: 4fbb dc3f 0879 c93d 9dc7 7bbd c211 a0bf
000003b0: e59c 4c3e 76a1 19be 15de 913f bbbf bdbe
000003c0: 8227 e43e 6c5f d13e 5af1 40bf 3c8b f83e
000003d0: 3a3e 42bf ad4d 003f f936 d23d 16de 633f
000003e0: bd56 b2bf b819 073e 1513 c6bf 9bf1 acbe
000003f0: e89d cebf 3b02 413d d6bc fdbb 4fa5 56bf
-0.9554331 -2.6463718 -0.15946141 -0.18975589 0.18915282 0.07387574 0.14117344 1.2592952
-1.2621292 0.00021151095 0.39963323 0.77594215 0.33840212 -0.19015646 -0.8087259 -0.0020356935
0.03686719 0.34242886 -0.8407537 -0.08013859 0.19384985 -1.3058708 -2.7010052 0.21601379
-0.44175723 -0.7676583 -0.26928544 -1.0408084 1.4222003 0.3448116 2.128268 -0.77922475
0.6210749 -0.71410406 -0.43146896 -0.5139314 -0.36468026 -0.007194529 -0.06914402 -0.32415593
0.6223427 -1.3564186 -5.5613174 -0.7685236 -0.78987336 -0.35377315 -0.18257424 1.2120366
0.36785135 -0.90478635 -1.0439874 -0.13846841 -1.0454123 -1.7923783 0.22297734 -0.024370098
-0.6682569 -0.21765922 -0.03637327 -1.2320234 0.18767828 -0.07938034 -0.29522273 -0.45991248
-0.7277623 -0.463113 0.18159574 -1.1126214 -0.5627201 -0.6140883 -0.6422015 1.7556533
-2.124837 -0.18906768 -0.8147279 0.108685255 -0.38416135 -0.47519758 -0.9594248 -0.23976754
0.68665177 -0.53216404 0.33955875 -0.57420355 0.38730633 0.5284124 0.07476991 1.6288762
-0.14352356 0.88953406 -3.9062314 -0.402234 -0.053269524 0.42905855 2.5211704 0.9931066
0.2617441 -0.17222762 0.057917282 -1.8363962 0.21609318 -0.47879985 -0.24782974 0.41040063
-0.7811526 0.27459502 -0.6827114 0.07152262 -0.18816932 0.2951168 -1.0567921 -4.24773
-0.22378808 -1.028745 -0.5674225 -0.8558552 -0.07301988 0.48951662 -0.32672128 -2.2960098
-0.9282038 0.2032385 -0.35093066 -0.35188684 -0.15129778 0.44997048 0.11153739 0.52295196
0.24167016 -0.6871488 1.4094763 -0.7149711 -0.17812051 -1.8141271 0.34833962 0.50664806
0.5977477 0.046211302 -0.23672648 -0.15518716 0.8785394 -0.6920152 -0.06915371 -0.21488364
-0.3212628 -0.41760784 0.37460136 -3.3535717 0.53933406 0.14708216 -0.885651 -0.62939984
1.0264814 -0.3271727 0.07879908 0.7547171 -1.2186997 0.41376173 0.54855317 -0.6735169
0.4407399 0.57543063 -5.1790037 0.8898791 -0.0956371 0.09381664 -0.99386173 -1.1077975
-0.24556124 -0.7435543 0.20400906 1.4099042 0.33720827 -1.3983449 0.0036422769 -0.7428095
0.2892914 0.7394663 0.38288382 0.53063273 -0.3945114 -0.3802185 -0.5141788 -0.42486158
-0.25022122 -0.23900849 0.1882103 -0.7245024 -0.091882624 0.104471706 -0.4720533 0.49893606
-0.5495849 -0.6309453 0.47850496 -1.699265 -0.007002584 -0.28144395 0.2566431 -1.5561552
-0.8200093 0.19935718 -1.7156715 -1.7629423 0.4896758 0.47412404 -2.3971074 -1.4297798
-3.310496 -0.025806075 -0.6418095 -0.3360824 -0.17122956 -0.32963344 0.30020228 -1.6715932
-0.13002746 0.6404485 0.86832184 0.21838209 0.67278683 0.006355139 1.693627 -0.94988286
0.66565126 -1.2608415 -0.033257913 0.31131732 0.053173635 0.18313181 0.44879752 0.29739395
1.7244662 0.09837538 -0.061469663 -1.2505419 0.19981726 -0.15002999 1.1395899 -0.3706034
0.44561392 0.40893114 -0.75368273 0.48543727 -0.758762 0.50118524 0.102643915 0.8901075
-1.393272 0.13193405 -1.5474573 -0.3377808 -1.6141939 0.047121268 -0.0077434583 -0.8384599

fcs.1.bias f4 [64]
00000000: 4f89 27bf 73f2 d9be abed b53f 22dd 143c
00000010: d5ac f83e 5182 4c3e 72fb a63f 2a2e 92bd
00000020: f986 91bd f1f7 05bf 1e7b bcbc a07a 6c3e
00000030: da18 e6bd 92dc cabd 1e20 8d3e 2ec3 7e3e
00000040: 2925 043f ed9b 42be d4ef edbd be19 3b3f
00000050: 3957 b63f 7810 12bf f9e4 10be 5858 0c3e
00000060: ed5d 0bbe e7b2 933e 3f60 f83e 1321 2c3f
00000070: 3933 9e3f 5421 7ebe cc76 11bf f47e 583d
00000080: 9b0b 25be 3bf9 a43f 0762 86bd 8606 fcbd
00000090: 7432 10be 8f88 833e 302c 18bd 040f fcbe
000000a0: 93a2 9a3e bbdc d7be aa3e 19be d49c 333d
000000b0: f626 ef3e 0aeb 00bf 8010 783e e6ff 62be
000000c0: a750 ac3d 4a18 fc3e cde1 073f 1495 c93e
000000d0: 009a 7a3e 76d5 e0bd 41c9 163e f88e a93f
000000e0: 3b08 3ebd 5fc1 453e 452a b5be ea3a 85be
000000f0: 5bae aebd feb1 ae3e 3410 3fbe dc15 f53e
-0.6544389 -0.42567787 1.4213156 0.009085925 0.4856936 0.19971587 1.3045485 -0.07137711
-0.07105822 -0.52331454 -0.023007926 0.23093653 -0.11235209 -0.09905352 0.27563566 0.24879143
0.516192 -0.19004793 -0.11618009 0.73086154 1.4245368 -0.5705638 -0.14149846 0.13705575
-0.13610049 0.2884743 0.4851093 0.6723797 1.2359382 -0.24817401 -0.56821895 0.052855447
-0.16117708 1.2888559 -0.06561666 -0.12305932 -0.14081746 0.25690123 -0.037151515 -0.49230206
0.3020216 -0.4216059 -0.1496531 0.043850735 0.46709412 -0.5035864 0.24225044 -0.2216793
0.08413821 0.4923728 0.5307892 0.3937155 0.24472809 -0.109782144 0.1472521 1.3246756
-0.046394568 0.19312046 -0.35383812 -0.2602151 -0.085293494 0.34120172 -0.18658525 0.4786824

fcs.2.weight f4 [16, 64]
00000000: 2fab 573d c9f8 2b3d f087 9d38 3b10 4a3d
00000010: 75ed c6bc eab0 76bd 8889 863d 2e06 6abd
00000020: 114e d4bc 6d96 a1bd 143d ae3d b5d0 883d
00000030: af62 3abd 5c67 dc3d b88e a03d 4b8f 0e3b
00000040: ff95 e5bd 3dbd f2bd d018 913c 57fd 933c
00000050: 81ee edbd f320 c13d f561 f73b 4c30 dc3b
00000060: d576 0dbe 219e ecbd 2a9c 663d aa34 80bd
00000070: 3645 7fbd 26ce 9ebd 55cd 9fbd 3d32 a83d
00000080: 07e9 263d 4322 3ebd f502 c93d f471 95bd
00000090: e3d3 3dbd b1bf 243d ac03 b6bd 38f3 153e
000000a0: 07dd 423d 2416 cebc b6d1 d2bd 8f3d d33d
000000b0: 8805 64bd 54ee 74bd 7092 1e3e 9c1a 39bd
000000c0: 3f74 d03d 9ee0 8bbd a055 bebd 321c 85bd
000000d0: c0ce 2cbe 3607 a23d 72d5 413c 64a1 bbbc
000000e0: b1c9 e8bd 14ae 863d a306 a33d f2ac 933d
000000f0: ab52 19bd eb2b f83c 5995 ad3d 9761 40bd
00000100: f490 a73b 63ee 483d e691 bbbc 739a 5cbd
00000110: 806c 233d c706 973b 14c6 a2bd aa8c a5bc
00000120: 4fa8 8d3d fb85 e43d ac2b 07bd 24e7 803d
00000130: 13fa dd3d 251e 8f3d b770 5b3d 3b16 00be
00000140: d303 b8bd bbba 99bd 8239 f93d 4d97 88bc
00000150: 4d25 11be a67c 08be b6e6 e9bd 387c ddbd
00000160: 8c77 b1bd 62a6 a2bd 46da 813d cbc9 a5bd
00000170: 8045 9d3d aa40 18bd c23f f3bd bf1c 8dbd
00000180: 6c88 86bd 245a dfbd 6bf4 e8bd 8df7 d7ba
00000190: 6294 ddbd 6ca7 3bbd f893 06bd eed6 8ebd
000001a0: f435 52bc 326d f8bd 6cb5 58bd c0df ce3d
000001b0: 0cda a63d af13 e3ba 6c6d 0e3d cd6a a73d
000001c0: e2f4 e93d c2fd b5bd b158 5a3a 41d9 68bd
000001d0: 6d83 dbbd b461 b53d 8b5a 903d 8917 edbc
000001e0: 3ac2 bf3d da31 d63c 7ce5 543d b9aa 273d
000001f0: 84fd 3f3d e68e c23b 7bc0 553d e8b3 cb3d
00000200: 6d32 aabf d759 8ebf 24c1 42bd 0e13 6ac0
00000210: 9264 1cbe 7fc9 6b3e 9f50 08bd c089 debe
00000220: d65d 843c d0f4 e8be 5ec6 a1bb c21c 223f
00000230: 6eb9 b4bf 8970 05bd 9c64 25be 1057 10bf
00000240: 86eb 403e a7ad 96bf f12b 1b3b 3f1b 1ac0
00000250: cc27 c63d 7edb 75bf 15ba 85c0 1a5c b1bf
00000260: 005c f83e 64c6 05bf 7461 fa3e fc40 4c3f
00000270: 8225 6bbe 6016 183f b333 08c0 36b0 83c0
00000280: 1489 1ebf 7f3f dfbd 0d07 cfbe 9b2c 2d3f
00000290: 0f61 b2bd 0674 a5be f99f f23e 0548 773f
000002a0: f2b0 753f ce82 90bf de94 393e 2143 933f
000002b0: 9b09 5a3f bb3c ccbc 2db9 22c0 3c48 1dbf
000002c0: f4d9 673f 97eb 0d3f 256a 473f 1f85 4e3f
000002d0: f1b6 6e3f c4ba 253f 2bc5 1bbf 4846 9d3d
000002e0: 4044 133f fbac 99bf 80f9 06bf 35de 6bbf
000002f0: 7370 d6bc f84d 1dbf 0b36 843f b473 e0be
00000300: 3a3b a8bd a105 cebd 8c4f f23e 6a79 733e
00000310: adb7 393e c51b 0f3e be21 ac3e 6d2a e33e
00000320: b380 94bd 6e57 79bf 67bc babd fef7 4abd
00000330: 1613 b2be 613b 533d 977c 6d3d 3462 333f
00000340: 8d19 893d dc1f 9b3e 6ca6 aebd 588c dc3c
00000350: 1b08 153f 28bf 0fbd a67a 44be d4a1 b8bd
00000360: 76d8 55bf ce83 813e 5bbc 20bd 181a 023c
00000370: a4d1 d23e 8fba 003e fbcb 11be bbdd 5e3e
00000380: 526d f6bf a277 c73e b8ca 063e 7684 473f
00000390: 1a1e 7dbf 02d8 2a3e b273 82bf fbb1 d2be
000003a0: 2041 413d 5ca5 8fbf 018d 103f ff51 873d
000003b0: c369 7c3c 8176 13be 0bc0 4a3e 4bb6 033f
000003c0: 5e28 80bd c3fc b53b d0a9 243e bf61 fb3d
000003d0: 3312 18bf 2b4e 7cbf 1acd 0cbc defd fb3e
000003e0: 7d39 303f 7a03 723d b046 03be 03ae 2ebf
000003f0: 1dd6 78be e227 333f 2410 99bf 4c8a ed3d
0.052653488 0.041985307 7.511664e-05 0.049331885 -0.02428315 -0.060227312 0.06569201 -0.0571348
-0.025916131 -0.078900196 0.085077435 0.06680433 -0.04550427 0.10761902 0.078397214 0.002175289
-0.1121025 -0.118525006 0.017712027 0.018065138 -0.11617757 0.09430113 0.007549519 0.0067196246
-0.13814862 -0.11553598 0.056301273 -0.06260045 -0.062321864 -0.077541634 -0.07802836 0.08212707
0.040749576 -0.046419393 0.09815017 -0.072971255 -0.04634465 0.040221874 -0.08887419 0.14643562
0.04757407 -0.025157042 -0.102939054 0.10314476 -0.055669338 -0.0597976 0.15485549 -0.045191392
0.10178422 -0.06829952 -0.092936754 -0.064995185 -0.16875744 0.079115316 0.0118306745 -0.022904105
-0.113665946 0.065761715 0.0796025 0.07210721 -0.037432354 0.03029438 0.084757514 -0.04696807
0.0051137153 0.04905547 -0.022896718 -0.05385823 0.039898396 0.004608962 -0.07947937 -0.020208675
0.06916868 0.11158367 -0.033000633 0.062940866 0.108387135 0.069881715 0.05357429 -0.1250848
-0.089851044 -0.07506319 0.12169172 -0.016673708 -0.14174385 -0.133288 -0.11420958 -0.108147085
-0.0866538 -0.07941891 0.063404605 -0.080951296 0.07679272 -0.037171043 -0.11877395 -0.068902485
-0.06568989 -0.10905865 -0.11374744 -0.0016476974 -0.108193174 -0.045813963 -0.032855958 -0.06974588
-0.012830246 -0.12130202 -0.052907392 0.10101271 0.08147058 -0.0017324592 0.03477232 0.081746675
0.11423661 -0.08886291 0.0008329256 -0.056847814 -0.10718427 0.08856526 0.0704852 -0.028941886
0.09363218 0.026146818 0.051976666 0.0409343 0.04687263 0.005937445 0.052185517 0.09946424
-1.3296639 -1.1121167 -0.047547475 -3.657413 -0.1527274 0.23026083 -0.03328001 -0.4346447
0.016158026 -0.45499277 -0.0049369773 0.6332513 -1.4119089 -0.032578025 -0.1615166 -0.56382847
0.18839845 -1.1771744 0.0023677314 -2.407913 0.096755594 -0.96038043 -4.178965 -1.3856232
0.4850769 -0.52255845 0.48902476 0.7978666 -0.22963527 0.5940914 -2.1281555 -4.11526
-0.61927915 -0.10900783 -0.40435067 0.6764619 -0.08709919 -0.3231508 0.47387674 0.9659427
0.9597312 -1.1289918 0.18123195 1.1504861 0.85170907 -0.024931302 -2.5425522 -0.61438346
0.90566945 0.55437607 0.7789634 0.80671877 0.93247896 0.64738107 -0.6084773 0.07679421
0.57526016 -1.2005914 -0.52724457 -0.92135936 -0.026176667 -0.61447096 1.0328993 -0.43838274
-0.082144216 -0.100596674 0.47326314 0.23776785 0.18136473 0.13975437 0.33619493 0.44368306
-0.0725111 -0.9739903 -0.09117966 -0.04955291 -0.34780186 0.0515703 0.057980146 0.7007172
0.066943265 0.30297744 -0.08527836 0.02692239 0.5821549 -0.03509441 -0.19187412 -0.09015241
-0.8353342 0.25295871 -0.03924213 0.007940792 0.41175568 0.12571166 -0.14237969 0.21764271
-1.9252112 0.3895846 0.13163269 0.77936494 -0.98874056 0.16683963 -1.0191557 -0.41151413
0.04718125 -1.1222339 0.56465155 0.066074364 0.015406075 -0.14400674 0.19799821 0.5145003
-0.062576994 0.005553813 0.16080403 0.12274503 -0.5940277 -0.98556775 -0.008593822 0.49217123
0.6883772 0.059085347 -0.12819934 -0.6823427 -0.24300428 0.6998273 -1.1958051 0.11598644

fcs.2.bias f4 [16]
00000000: 7fba d4bd 5f08 f6bd ee12 233f f6ab ef3f
00000010: 1a50 08be 7c79 d8bd 9bbc c63f 105a 22bf
00000020: 44f5 f4bd 16a9 2fba 0a28 bb3f 6221 cf3f
00000030: a63b d93f f341 b83f ba4c 60bf 627d 9a3d
-0.10387134 -0.120133154 0.6370076 1.8724353 -0.13311806 -0.10570046 1.5526308 -0.63418674
-0.11960843 -0.0006700916 1.4621594 1.6182063 1.6971328 1.4395126 -0.87617075 0.07543446

fcs.3.weight f4 [4, 16]
00000000: b117 ccbd 683e 7ebc 2375 a03d 9c77 353f
00000010: d3cc 73be 17f5 99bd ab4b a43e 294b f3bc
00000020: 114a e0bd a885 833f f0e7 ae3e 863b 023f
00000030: 5241 0d3f df0e f23e 0b38 e1bd fb75 82bd
00000040: 160e acbd c6ae 66bc bdae bc3d 89e2 ae3e
00000050: 0937 63bd 4fa3 cd3d a339 013f 5968 18bd
00000060: cd10 8b3d ba31 613f 51a6 de3e c3f7 1c3f
00000070: b3b6 2e3f b1ab 1a3f 3356 82bd 5a6f 3dbe
00000080: 4641 98bd 2936 02bb 3be6 b83c 4eba 363f
00000090: a134 8fbd b88f 0c3d 7511 053f e472 103d
000000a0: 1a3a 60be 13a5 14bf df94 e13e ad0a 833e
000000b0: 8ac9 123f 7ff5 d43e d12f dcbd 327a 71bf
000000c0: 6587 a03d 7489 04be d561 a03d 3a12 223f
000000d0: 2cd6 233e c37a df3c 27cb e43e 8707 f6bd
000000e0: fe3d 633e 9023 523f dbd8 193f 3bdf 1e3f
000000f0: ce36 ef3e b9ac 7b3e b80a 30bd 033d 74be
-0.09965456 -0.0155178085 0.07834842 0.70885634 -0.23808603 -0.0751745 0.3208898 -0.029698925
-0.10951627 1.0275164 0.3416133 0.50872076 0.55177796 0.4727697 -0.109970175 -0.06370159
-0.08401124 -0.014079755 0.09213016 0.34157208 -0.055472407 0.10040914 0.5047857 -0.03720889
0.06790314 0.879665 0.43486264 0.61315554 0.68247527 0.6041823 -0.063640974 -0.18499509
-0.07434325 -0.0019868708 0.02257072 0.7137803 -0.0699246 0.03431675 0.5197976 0.03526582
-0.21897164 -0.58064383 0.44058892 0.25594082 0.57338774 0.4159355 -0.10751308 -0.9432708
0.078383245 -0.12943059 0.0783116 0.6330906 0.15999669 0.027280217 0.44686243 -0.120131545
0.22191617 0.82085514 0.6009652 0.6205937 0.467215 0.24577607 -0.042978972 -0.23851399

fcs.3.bias f4 [4]
00000000: 6a43 c23f 4d55 973f 9c72 973f c334 bc3f
1.5176823 1.1822907 1.1831851 1.4703602
