trained_agents/From-Benchmark-Dueling DDQN.pth-Best.pth (torch_old, 58259 bytes, 8 tensors)

fcs.0.weight f4 [128, 37]
000000 10 5c 09 be cf 11 f6 be 6b 79 18 be 4f d7 35 be
       -0.13414025 -0.48060462 -0.14890067 -0.17757915
000010 e0 ad 12 c0 04 e5 3a be c6 2f 38 bf 06 1c 2b 3f
       -2.2918625 -0.18251425 -0.71947896 0.66839635
000020 f3 c8 cc be 27 34 ce bf bf 22 1a bf 8c 29 d7 bc
       -0.39997062 -1.6109666 -0.6020927 -0.026264928
000030 c8 e7 8b bf 5f 32 7d bd 7e 80 c8 3e 90 43 3f be
       -1.0930109 -0.061815616 0.39160532 -0.18678117
000040 e0 d7 96 bf cb aa b3 bd 8c c6 07 bf ca 7d 00 bf
       -1.178463 -0.087728105 -0.53037333 -0.5019194
000050 3a 57 a9 be 25 e8 37 be d5 7a 6f 3e c5 0d 85 bf
       -0.3307436 -0.1795965 0.233867 -1.0394827
000060 31 32 fc be e3 a5 1d bf a6 b3 f5 3d 0b 70 3e bf
       -0.49257043 -0.6158125 0.11997156 -0.74389714
000070 83 b0 05 bf 99 5f ea bf 3b 58 c7 be ac 8a 78 be
       -0.5222246 -1.8310424 -0.38934502 -0.24271649
000080 22 92 a0 be a4 5a 59 3b 80 6d 2b c0 48 ff 3b 3e
       -0.3136149 0.0033165598 -2.6785583 0.18359101
000090 71 08 05 bd da 67 91 bd 3b 02 fa be 58 63 d5 be
       -0.032478753 -0.07099886 -0.48829827 -0.41677356
0000a0 bb 8a 7a bd 72 4a 18 3f 30 7a c9 bf 2c cd 9d bf
       -0.06116746 0.59488595 -1.5740414 -1.2328238
0000b0 da 26 d5 3d 18 24 74 bf 0e 8e 42 c0 28 f9 48 be
       0.10407801 -0.95367575 -3.0399203 -0.19626296
0000c0 67 de 65 bd 50 00 cc be b9 33 24 bf ce ac e8 be
       -0.056120303 -0.39843988 -0.6414142 -0.4544434
0000d0 bb 34 a5 bd 32 2d bc bd 71 82 af 3d b7 37 d0 bf
       -0.08066698 -0.09188308 0.085698016 -1.6267003
0000e0 a9 85 21 be f5 74 b8 bf e5 dc 14 3e 7e 32 d6 bd
       -0.15773644 -1.4410692 0.1453739 -0.10458849
0000f0 d9 da af bf 6c b7 06 c0 8f cf f9 3d dd a8 1f be
       -1.3738662 -2.1049452 0.12197792 -0.1559176
000100 9d 5b e5 be 85 b1 c7 bf 89 d6 d3 bf b0 a1 4e bf
       -0.44796458 -1.560105 -1.6549846 -0.80715466
000110 8f 8e e4 bd c4 55 1f bd c4 0d c8 bf 64 45 31 c0
       -0.111600034 -0.03890015 -1.5629201 -2.7698603
000120 5f 9e 66 be da b5 25 bd ed fe 38 3d 73 58 b8 be
       -0.22521351 -0.04045663 0.04516499 -0.3600498
000130 5a e1 ed bd 1b fe 85 bd e3 07 22 3e 69 e7 cd be
       -0.11615248 -0.065426074 0.15823321 -0.40215614
000140 5b 47 b8 be 26 c8 54 bc e9 28 ba be 56 02 66 c0
       -0.3599194 -0.012987172 -0.36359337 -3.5938926
000150 cd bf 85 be 19 c6 8e 3e 02 70 04 bf 6b c7 b3 be
       -0.26122895 0.27885512 -0.5173341 -0.3511308
000160 4e 79 2f 3e d4 8a ca 3e 71 b6 70 bf c9 82 ce be
       0.17136118 0.39559042 -0.94028383 -0.40334156
000170 fa 4e 10 be 37 e5 70 bf 3a b6 13 be 06 d0 1e bf
       -0.14092627 -0.94099754 -0.14424983 -0.6203617
000180 e3 d1 89 bc fe 3f 04 be 1c 83 63 bc f9 48 8d bf
       -0.016823715 -0.12915036 -0.013886239 -1.1037894
000190 78 09 54 3f c1 30 ad 3d 95 41 59 bf 99 b8 a7 c0
       0.8282695 0.08456565 -0.84865695 -5.241284
0001a0 d3 fc f7 bc 04 a4 a0 be b4 9e dd be 06 f6 16 bf
       -0.030271923 -0.31375134 -0.43285143 -0.5896915
0001b0 85 af d8 be 6c 71 a2 bd f4 5b 4d bc e6 2e 95 3c
       -0.4232141 -0.0793179 -0.01253413 0.01821084
0001c0 0d 2b ed 3d c9 fa a0 3d 6f 61 62 bc 25 78 06 be
       0.11580477 0.078603335 -0.013817175 -0.13131769
0001d0 62 72 cb bd c5 05 96 3e a9 56 82 3e 52 3b 26 3f
       -0.09933926 0.29301277 0.2545674 0.64934266
0001e0 02 8c 8f 3f 2f 4e ec bc a5 3c 34 3c 05 4d f3 bc
       1.1214602 -0.028845875 0.011000787 -0.029699812
0001f0 ba 94 fb 3c e3 82 e0 3d e2 1f 46 bd 70 bb ee bc
       0.030710567 0.10962465 -0.04837025 -0.029142112
000200 18 4f 53 3d b5 2d 1f 3d 9a 38 3f 3e 9f 67 12 3f
       0.0515891 0.03886195 0.18673936 0.57189363
000210 4c 21 0a c0 0d ae 1f c0 e2 65 38 c0 62 e7 09 c1
       -2.1582823 -2.4949982 -2.8812184 -8.61899
000220 2f 1d 97 3d a3 3d 0f 3e c6 90 61 3e 20 2c a1 3e
       0.07378613 0.13988356 0.22027883 0.31478977
000230 52 d4 7f 3e 35 29 5a 3d 21 fe 5a 3e 81 a5 3e 3e
       0.24983338 0.053261954 0.21386005 0.18617822
000240 10 5b 25 3f 25 d5 00 3f 3b 43 f2 3c a9 fc 8c 3b
       0.64592075 0.5032523 0.029573074 0.0043025804
000250 62 fb 46 3e ac 8f c0 3c ab ea 28 3e 95 4a 09 3f
       0.19431832 0.023506008 0.16495769 0.5362943
000260 3f 06 16 3f e0 3a 27 3d 7c 83 14 bd 2f f7 54 3e
       0.5860328 0.040827632 -0.036258206 0.20797418
000270 59 95 cc 3d b2 b3 2b c0 fc 03 60 3e b1 56 ab 3e
       0.09989423 -2.6828427 0.2187652 0.33464578
000280 00 44 f6 3e 7d df f0 3e 7c a1 81 3e 87 7a ad bc
       0.48098755 0.47045508 0.25318515 -0.02117659
000290 f2 42 90 3f 45 3e 8e 3c c1 54 19 bf 9f 8d 2b c0
       1.127043 0.017363677 -0.5989495 -2.6805189
0002a0 29 56 12 bf aa 35 81 3f f6 79 71 3e 56 6a 57 bf
       -0.5716272 1.0094502 0.2358168 -0.8414663
0002b0 23 36 5f c0 82 4f f4 bd e2 c9 13 3f d1 c5 3a 3e
       -3.4876792 -0.119292274 0.57729924 0.18239523
0002c0 c0 8c 89 bf 59 df 4e c0 83 9d 4a 3e fa f9 4e be
       -1.0746078 -3.232382 0.19786648 -0.20212546
0002d0 19 0f 84 3e 88 2e 47 3e 07 0f 59 be 58 c0 ec bc
       0.2579277 0.19451344 -0.21197139 -0.02890031
0002e0 17 56 0a bb c1 b4 ed bc 33 94 40 be c3 99 b2 be
       -0.0021108442 -0.029016854 -0.18806534 -0.34882936
0002f0 73 51 85 be 42 12 d9 be 22 f9 04 bf c1 89 8f 3d
       -0.26038703 -0.42396742 -0.51942647 0.07008696
000300 08 7d 24 bf e5 c7 1d 3e f4 09 8f c0 21 e9 19 bf
       -0.6425328 0.15408285 -4.469965 -0.6012135
000310 ed 8f ab be 1e 13 30 bf 74 53 c0 3e 6b fd da bd
       -0.33508244 -0.6877917 0.3756367 -0.10692867
000320 09 70 20 be b0 50 59 bf f3 33 59 bf a5 7d 70 bf
       -0.15667738 -0.84888744 -0.84844893 -0.9394172
000330 c4 73 eb bf 00 1e 8f 3e a8 ee 3b bf 7d 85 02 3f
       -1.8394704 0.27952576 -0.73411036 0.50984937
000340 ff 79 bb be a8 e8 34 c0 3e 95 0f bf 3d 48 e9 be
       -0.36616513 -2.8267002 -0.560871 -0.45562926
000350 cc ee 4d bf 53 32 41 bf f5 7a 1d c0 4e b8 29 bf
       -0.804425 -0.75467414 -2.4606297 -0.6629685
000360 0f 93 78 bf c2 4b d7 be 2d 52 c0 bf c2 a9 06 c1
       -0.97099394 -0.42049986 -1.5025078 -8.416445
000370 b2 69 0e 3f d6 99 3d bc 7e af a6 bc bc 42 35 3d
       0.5563003 -0.011572322 -0.020347353 0.044253096
000380 11 22 2f 3d 70 71 68 3d 43 85 16 ba 7b e1 d5 bd
       0.042757098 0.056748807 -0.00057419034 -0.104433976
000390 1a bc 5b 3e 34 db f8 3e 06 a2 6c 3f 2a c7 a3 3f
       0.21458474 0.4860474 0.9243473 1.2795155
0003a0 69 7e 29 3b 67 3c b8 3a 96 b0 91 37 97 d5 1b 3d
       0.00258627 0.0014056087 1.7367576e-05 0.038045492
0003b0 b7 59 02 bd 82 0e 9e bb ad 11 9b 3d f2 c3 87 3d
       -0.03182384 -0.004823507 0.07571731 0.066291705
0003c0 a1 45 91 3e 5f 9b 70 3e 40 15 8e bd 95 e2 07 3d
       0.28373435 0.2349677 -0.06937647 0.03317507
0003d0 fd 71 18 3a 7f c8 e5 3d 2c 43 ab 3d d5 3b 02 bd
       0.00058153254 0.11219882 0.083624214 -0.03179534
0003e0 49 06 f0 3d fe 01 92 3e 93 f1 19 3f b6 38 5c 3f
       0.11719949 0.28517145 0.6013424 0.86024034
0003f0 6c f0 1e 3f c6 d0 2f c0 71 3f 37 c0 61 d9 6d c0
       0.62085605 -2.7471175 -2.8632472 -3.7163928

fcs.0.bias f4 [128]
000000 e9 dd f3 be 1f d5 f1 be 51 83 dd be d7 b5 0e bc
       -0.47630242 -0.4723291 -0.4326425 -0.008710346
000010 2f 84 ff bd ec c3 45 bf 85 8b 95 3e c5 59 fa be
       -0.12476384 -0.7725208 0.29208007 -0.48896614
000020 44 b8 57 bf 66 c8 61 3f 08 63 3d be c5 29 ef 3d
       -0.8426554 0.8819641 -0.18494809 0.11677889
000030 7d db 1e bf cf 47 21 bf 31 16 13 bf fb 43 be be
       -0.6205366 -0.63000196 -0.57455736 -0.3716124
000040 2c 9d 1c bf 39 b0 06 be 92 c4 15 bf 59 02 f0 be
       -0.61177325 -0.13153161 -0.5850307 -0.4687679
000050 6d 3b 5c 3e 11 0d 54 3e f8 fa 58 be 83 2b e3 be
       0.21507044 0.2070811 -0.21189487 -0.44369134
000060 e1 0a 37 bf 27 70 7a be c2 e8 e3 be 75 de 46 bf
       -0.71500975 -0.24456845 -0.44513518 -0.7768319
000070 06 8d 70 be 76 dc d7 be f7 9b f2 3b b4 f7 5e be
       -0.23491296 -0.42160386 0.0074038464 -0.21774179
000080 cc 7c 4a bf da 3f d3 be 0d 44 b8 3c 7e 00 14 bf
       -0.79096675 -0.41259652 0.022493387 -0.5781325
000090 34 17 a4 3e fc 78 4e 3f 1b 8b d6 be 6a 18 0a bf
       0.32048953 0.8065336 -0.41903004 -0.539435
0000a0 53 ae 27 3d 63 20 38 bf 70 b4 11 3e bd 55 7f 3e
       0.040937733 -0.7192442 0.14228988 0.2493505
0000b0 6f ca 38 bf 49 ef 02 bf 40 77 f5 be 3c 31 14 bf
       -0.7218389 -0.5114637 -0.47942543 -0.57887626
0000c0 0e 08 83 bf 00 2a 9e be fc 4d b9 be 71 43 58 3e
       -1.0236833 -0.30891418 -0.3619231 0.21119477
0000d0 a4 9e 11 bf 42 a2 41 bf 18 22 dd be 79 65 d5 be
       -0.5688269 -0.7563821 -0.43190074 -0.4167898
0000e0 82 f3 24 bf af 35 4a 3f b6 20 93 be 91 b4 21 bf
       -0.64434063 0.78988165 -0.28735894 -0.6316615
0000f0 ac 30 bd be db af 30 3f 53 6b 96 bd f5 1d 2b bf
       -0.36951196 0.69018334 -0.07344689 -0.66842586
000100 33 a3 e4 be 6a 73 07 bf 84 b9 ab be b5 ff 1b bf
       -0.4465576 -0.5291048 -0.33539975 -0.6093705
000110 e4 7d c2 be 93 79 f5 be 95 5e 0d bf 2b d8 2c bf
       -0.37986672 -0.47944316 -0.55222446 -0.67517346
000120 e4 1a d4 bd a9 d1 cb be d4 fe eb be e9 d1 ac 3c
       -0.103566915 -0.39808396 -0.46092856 0.021096187
000130 17 1b 06 bf fc 39 14 bf f4 c8 b6 be 09 19 0a bf
       -0.52385086 -0.5790098 -0.3570019 -0.5394445
000140 6c 37 b9 3d c0 dd d2 be a2 b9 e8 be 7f bc 55 bf
       0.09043774 -0.41184807 -0.45454127 -0.8349075
000150 e6 e1 22 bf bd 53 b8 be 95 8b bd be 8f 63 07 bf
       -0.63625944 -0.36001387 -0.37020555 -0.5288629
000160 89 22 23 bf f6 a9 a3 be d6 09 18 bf 31 b3 c7 be
       -0.6372457 -0.31965607 -0.5939001 -0.390039
000170 40 17 2d bf 62 64 1b bf ed 79 5e be 0b 19 3c bf
       -0.676136 -0.60700047 -0.21726198 -0.7347571
000180 56 f0 a0 be 9f 03 06 bf cf 6c 54 be 5a a1 05 bf
       -0.31433362 -0.52349275 -0.20744632 -0.5219933
000190 28 7a 39 bf 3e f7 4c bf df 79 6a 3e b7 bc 43 3e
       -0.7245202 -0.8006476 0.22898053 0.19114958
0001a0 e6 69 62 bf 9a 4c 23 bf 35 c3 5a bf de 2f a9 3d
       -0.8844284 -0.6378876 -0.8545411 0.08261083
0001b0 18 fc d7 be 88 21 06 bf d9 8f b2 be d6 02 bd bb
       -0.4218452 -0.52394915 -0.34875372 -0.0057681603
0001c0 01 47 e4 be 0f 07 f4 be d1 55 05 bf 60 15 a9 be
       -0.44585422 -0.47661635 -0.5208407 -0.3302412
0001d0 27 97 f7 be 5f 51 b7 be 0c b2 a9 3d c2 49 00 bf
       -0.48357508 -0.3580427 0.08285913 -0.50112545
0001e0 1f 61 54 bf f9 2a 72 be 42 05 8a be e0 55 6d bf
       -0.82960695 -0.23649205 -0.26957136 -0.9270916
0001f0 17 89 0a bf a5 aa 98 3d 34 c5 98 be 24 45 10 bf
       -0.5411543 0.07454423 -0.29837954 -0.563555

fcs.1.weight f4 [64, 128]
000000 43 97 74 bf 28 5e 29 c0 da 49 23 be 86 cb b7 be
       -0.9554331 -2.6463718 -0.15946141 -0.35897464
000010 17 57 04 3f 83 a1 ca 3d 4e dc 9e 3e 67 00 9e 3f
       0.5169539 0.09894087 0.31027454 1.2343873
000020 73 8d a1 bf 7e 62 61 3b 2f dc 1e 3f ab 25 49 3f
       -1.2621292 0.0034390981 0.62054724 0.785731
000030 0b 43 ad 3e 60 b8 42 be a9 08 4f bf 45 69 05 bb
       0.33840212 -0.19015646 -0.8087259 -0.0020356935
000040 44 8c 90 3e aa ac b2 3e a2 3b 57 bf b3 1f a4 bd
       0.28232014 0.34897357 -0.8407537 -0.08013859
000050 fb 43 1d 3e 8a 3d bb bf 99 d7 ca bf b8 32 5d 3e
       0.15357964 -1.4628155 -1.5847045 0.21601379
000060 01 2e e2 be 14 bb 4b bf c8 df 89 be 36 39 85 bf
       -0.44175723 -0.79582334 -0.26928544 -1.0408084
000070 d8 c0 fe bd 25 8b b0 3e 29 0e e8 3f 46 7b 47 bf
       -0.12439126 0.3448116 1.8129321 -0.77922475
000080 c4 fe 1e 3f 86 cf 36 bf 51 7d 1a bf 50 ed c7 bf
       0.6210749 -0.71410406 -0.6034747 -1.5619297
000090 41 ef ca be 79 fe da bc 61 9b 8d bd c4 f7 a5 be
       -0.3963566 -0.02673267 -0.06914402 -0.32415593
0000a0 be 09 2c 3f 20 9f ad bf 59 64 09 c1 d7 10 a6 bf
       0.67202365 -1.3564186 -8.586999 -1.2973889
0000b0 24 35 4a bf c1 21 b5 be be f4 3a be 04 24 9b 3f
       -0.78987336 -0.35377315 -0.18257424 1.2120366
0000c0 03 57 bc 3e 14 a0 67 bf fb ec bc bf ba 89 2c 3d
       0.36785135 -0.90478635 -1.4759821 0.042123534
0000d0 12 d0 85 bf a7 6c e5 bf 2c 54 64 3e cd a3 c7 bc
       -1.0454123 -1.7923783 0.22297734 -0.024370098
0000e0 e2 12 2b bf 52 08 49 be f3 e0 7b bd f1 b2 9d bf
       -0.6682569 -0.1963208 -0.061493825 -1.2320234
0000f0 77 70 10 be 2d 78 9e bd b9 8f d7 bd a6 79 eb be
       -0.14105402 -0.077377655 -0.1052546 -0.45991248
000100 a1 4e 3a bf 26 1d ed be 3c f4 39 3e 61 6a 8e bf
       -0.7277623 -0.463113 0.18159574 -1.1126214
000110 6d 0e 10 bf e4 34 1d bf 51 67 24 bf 3f b9 e0 3f
       -0.5627201 -0.6140883 -0.6422015 1.7556533
000120 d2 5d 04 c0 f5 9a 41 be 02 92 50 bf ca 84 84 3e
       -2.0682263 -0.18906768 -0.8147279 0.2588256
000130 cc b0 c4 be 19 4d f3 be dd 9c 75 bf 45 2b 6f be
       -0.38416135 -0.47519758 -0.9594248 -0.2335635
000140 6c ae 2f 3f e7 3b 08 bf a5 da ad 3e 01 ff 12 bf
       0.6862552 -0.53216404 0.33955875 -0.57420355
000150 04 4d c6 3e 09 46 07 3f f7 20 99 3d 04 7f d0 3f
       0.38730633 0.5284124 0.07476991 1.6288762
000160 d7 f7 12 be 81 b8 63 3f f9 13 6f c0 9d f1 cd be
       -0.14352356 0.88953406 -3.735594 -0.402234
000170 25 31 5a bd 90 ad db 3e 47 8d 7a 3f 57 23 81 3f
       -0.053269524 0.42905855 0.9787182 1.008891
000180 53 03 86 3e 70 5c 30 be ac 3a 6d 3d 08 0f eb bf
       0.2617441 -0.17222762 0.057917282 -1.8363962
000190 88 47 5d 3e 41 25 f5 be c5 25 43 be 13 22 5d 3f
       0.21609318 -0.47879985 -0.19057377 0.8638012
0001a0 9e f9 47 bf b8 97 8c 3e 2d c6 2e bf d2 91 be 3d
       -0.7811526 0.27459502 -0.6827114 0.09305157
0001b0 75 af 40 be 8d 19 97 3e f7 44 87 bf 19 ba 60 c0
       -0.18816932 0.2951168 -1.0567921 -3.5113585
0001c0 b4 28 65 be eb ad 83 bf 9a 42 11 bf 54 19 5b bf
       -0.22378808 -1.028745 -0.5674225 -0.8558552
0001d0 72 8b 95 bd ec a1 fa 3e d4 92 fc be d3 f1 12 c0
       -0.07301988 0.48951662 -0.4933077 -2.2960098
0001e0 c4 9e 6d bf 39 a6 94 3e 2f ad b3 be ff 04 b4 3e
       -0.9282038 0.29033068 -0.35093066 0.35160062
0001f0 ce ed 1a be b0 12 f3 3e b7 6d e4 3d 2e e0 05 3f
       -0.15129778 0.47475195 0.11153739 0.52295196
000200 62 78 77 3e 74 0e 2d bf d9 88 b2 3f 47 ad 9e 3e
       0.24167016 -0.6760018 1.3948013 0.30991575
000210 79 aa 1e bd 19 a0 e4 bf 76 1e 2a 3e 8a d7 dc 3e
       -0.038736794 -1.7861358 0.16613182 0.43133193
000220 fe 05 19 3f 36 b0 6d 3d a7 9a 00 3f ed 82 96 be
       0.5977477 0.058029376 0.5023598 -0.29396763
000230 f5 e7 60 3f e8 27 31 bf 76 a0 8d bd 75 0a 5c be
       0.8785394 -0.6920152 -0.06915371 -0.21488364
000240 7a fa 7b bd 10 b9 08 bf c0 cb bf 3e eb a0 56 c0
       -0.06151817 -0.5340738 0.37460136 -3.3535717
000250 cf 01 fc 3e 45 a6 ed bd 9c 95 9a bf 59 20 21 bf
       0.4922013 -0.11603979 -1.2076907 -0.62939984
000260 be 63 83 3f 74 79 11 bf 69 61 a1 3d 88 d6 4f 3f
       1.0264814 -0.5682595 0.07879908 0.81186724
000270 eb 64 b9 bf 94 d8 d3 3e 59 99 7a bf 9b 6b 2c bf
       -1.4483923 0.41376173 -0.9789024 -0.6735169
000280 c5 b1 f0 3e 6c 4f 13 3f 9b 47 a7 c0 1d b4 6d 3f
       0.47010627 0.57543063 -5.227491 0.92852956
000290 7f ce 20 be f0 cc ca 3d b9 6d 7e bf 4f cc 8d bf
       -0.15703772 0.0990237 -0.99386173 -1.1077975
0002a0 af 61 6c be 93 59 3e bf bf 8d 81 bc a1 96 c8 3f
       -0.23084138 -0.7435543 -0.01581466 1.5670968
0002b0 90 a6 ac 3e f7 fc b2 bf a1 bd 6c bd c3 28 3e bf
       0.33720827 -1.3983449 -0.05779803 -0.7428095
0002c0 01 1e 94 3e aa 4d 3d 3f a3 3d 2c 3d ad ff 07 3f
       0.2892914 0.7394663 0.04205097 0.53124505
0002d0 66 fd c9 be b2 43 00 bf 39 a1 03 bf 75 87 d9 be
       -0.3945114 -0.50103295 -0.5141788 -0.42486158
0002e0 ff 1c 80 be 31 0f 3c be 5f b8 1b 3d fd 78 39 bf
       -0.25022122 -0.1836517 0.038017627 -0.7245024
0002f0 bd 2f 03 be 0e 87 ef 3d c9 e8 b5 be 8c 74 ff 3e
       -0.1281118 0.116956815 -0.35529163 0.49893606
000300 99 b1 0c bf a2 85 21 bf 9a fe f4 3e 84 81 d9 bf
       -0.5495849 -0.6309453 0.47850496 -1.699265
000310 ef 75 e5 bb 6c 19 90 be b9 66 83 3e 18 30 c7 bf
       -0.007002584 -0.28144395 0.2566431 -1.5561552
000320 5f b4 74 bf 4a 24 4c 3e 20 9b db bf cd b9 ac bf
       -0.95587724 0.19935718 -1.7156715 -1.3494202
000330 c9 b6 fa 3e 63 c0 f2 3e 35 6a 19 c0 38 02 b7 bf
       0.4896758 0.47412404 -2.3971074 -1.4297552
000340 59 c2 50 c0 e0 4a 5b 3d a1 4d 24 bf 04 e5 b2 be
       -3.261862 0.053538203 -0.6418095 -0.3494035
000350 cd 56 2f be b7 c5 a8 be 1d b4 99 3e c4 f6 d5 bf
       -0.17122956 -0.32963344 0.30020228 -1.6715932
000360 eb 25 05 be 6f f4 23 3f 87 a4 0f 3e 8e 9f 5f 3e
       -0.13002746 0.6404485 0.14027606 0.21838209
000370 c2 3b 2c 3f c5 3e d0 3b 5e 35 44 40 86 2b 73 bf
       0.67278683 0.006355139 3.0657573 -0.94988286
000380 1f 68 2a 3f 41 63 a1 bf 73 39 08 bd fc 64 9f 3e
       0.66565126 -1.2608415 -0.033257913 0.31131732
000390 99 cc 59 3d e8 86 3b 3e a4 ae 24 3f 13 08 a5 3e
       0.053173635 0.18313181 0.6432898 0.32232723
0003a0 4f bb dc 3f 08 79 c9 3d 9d c7 7b bd 39 ec 02 bf
       1.7244662 0.09837538 -0.061469663 -0.511417
0003b0 e5 9c 4c 3e 76 a1 19 be 15 de 91 3f d3 de ce be
       0.19981726 -0.15002999 1.1395899 -0.40404376
0003c0 82 27 e4 3e 6c 5f d1 3e 5a f1 40 bf 3c 8b f8 3e
       0.44561392 0.40893114 -0.75368273 0.48543727
0003d0 3a 3e 42 bf ad 4d 00 3f 82 54 09 3e 16 de 63 3f
       -0.758762 0.50118524 0.13411143 0.8901075
0003e0 bd 56 b2 bf 0f b1 03 be 15 13 c6 bf 28 2e 1e 3e
       -1.393272 -0.12860511 -1.5474573 0.15447295
0003f0 e8 9d ce bf 8a 61 21 3e d6 bc fd bb 4f a5 56 bf
       -1.6141939 0.15759864 -0.0077434583 -0.8384599

fcs.1.bias f4 [64]
000000 fa d1 33 bf b6 84 e6 be 5c 97 c1 3f d2 df 12 3c
       -0.70242274 -0.45023125 1.5124316 0.008964496
000010 dd 55 0a 3f 00 26 f6 3d eb f3 b1 3f 2a 2e 92 bd
       0.54037267 0.12018967 1.3902563 -0.07137711
000020 f9 86 91 bd e1 1d 0e bf 1e 7b bc bc 26 96 2b 3e
       -0.07105822 -0.5551434 -0.023007926 0.16756496
000030 da 18 e6 bd 92 dc ca bd 3f 4c ac 3e 2e c3 7e 3e
       -0.11235209 -0.09905352 0.3365192 0.24879143
000040 29 25 04 3f ed 9b 42 be d4 ef ed bd 8f 1f 51 3f
       0.516192 -0.19004793 -0.11618009 0.8168878
000050 13 77 c2 3f 6f e8 24 bf 9a 94 3f be a6 b4 fd 3d
       1.5192589 -0.64417166 -0.18709031 0.123879716
000060 ed 5d 0b be 10 f9 a9 3e c1 54 0c 3f cf 82 2f 3f
       -0.13610049 0.33197832 0.54816824 0.68558973
000070 7e b1 a8 3f ec 79 60 be ee 1c 1d bf 8c 33 81 3d
       1.3179166 -0.2192151 -0.6137227 0.0630866
000080 9b 0b 25 be 22 b8 ad 3f 07 62 86 bd 86 06 fc bd
       -0.16117708 1.3571818 -0.06561666 -0.12305932
000090 74 32 10 be 75 03 83 3e 30 2c 18 bd 04 0f fc be
       -0.14081746 0.25588575 -0.037151515 -0.49230206
0000a0 40 83 7e 3e bb dc d7 be aa 3e 19 be 18 71 89 3c
       0.24854755 -0.4216059 -0.1496531 0.01677756
0000b0 9e aa e1 3e d1 e8 0c bf e4 f2 88 3e e6 ff 62 be
       0.44075483 -0.5504275 0.2674781 -0.2216793
0000c0 1c c3 b3 3d ee 0c fd 3e 88 d7 12 3f 8b cb d7 3e
       0.087774485 0.49423927 0.57360125 0.42147478
0000d0 19 46 8c 3e 76 d5 e0 bd 38 ba 20 3e f3 75 b4 3f
       0.2739723 -0.109782144 0.15696037 1.4098495
0000e0 3b 08 3e bd c5 57 4b 3e 5c d6 d1 be d3 4f 7f be
       -0.046394568 0.198577 -0.40983856 -0.24932794
0000f0 5b ae ae bd ce 90 a6 3e 34 10 3f be ea aa 0e 3f
       -0.085293494 0.32532352 -0.18658525 0.55729544

fcs.2.weight f4 [16, 64]
000000 2f ab 57 3d c9 f8 2b 3d f0 87 9d 38 3b 10 4a 3d
       0.052653488 0.041985307 7.511664e-05 0.049331885
000010 75 ed c6 bc ea b0 76 bd 88 89 86 3d 2e 06 6a bd
       -0.02428315 -0.060227312 0.06569201 -0.0571348
000020 11 4e d4 bc 6d 96 a1 bd 14 3d ae 3d b5 d0 88 3d
       -0.025916131 -0.078900196 0.085077435 0.06680433
000030 af 62 3a bd 5c 67 dc 3d b8 8e a0 3d 4b 8f 0e 3b
       -0.04550427 0.10761902 0.078397214 0.002175289
000040 ff 95 e5 bd 3d bd f2 bd d0 18 91 3c 57 fd 93 3c
       -0.1121025 -0.118525006 0.017712027 0.018065138
000050 81 ee ed bd f3 20 c1 3d f5 61 f7 3b 4c 30 dc 3b
       -0.11617757 0.09430113 0.007549519 0.0067196246
000060 d5 76 0d be 21 9e ec bd 2a 9c 66 3d aa 34 80 bd
       -0.13814862 -0.11553598 0.056301273 -0.06260045
000070 36 45 7f bd 26 ce 9e bd 55 cd 9f bd 3d 32 a8 3d
       -0.062321864 -0.077541634 -0.07802836 0.08212707
000080 07 e9 26 3d 43 22 3e bd f5 02 c9 3d f4 71 95 bd
       0.040749576 -0.046419393 0.09815017 -0.072971255
000090 e3 d3 3d bd b1 bf 24 3d ac 03 b6 bd 38 f3 15 3e
       -0.04634465 0.040221874 -0.08887419 0.14643562
0000a0 07 dd 42 3d 24 16 ce bc b6 d1 d2 bd 8f 3d d3 3d
       0.04757407 -0.025157042 -0.102939054 0.10314476
0000b0 88 05 64 bd 54 ee 74 bd 70 92 1e 3e 9c 1a 39 bd
       -0.055669338 -0.0597976 0.15485549 -0.045191392
0000c0 3f 74 d0 3d 9e e0 8b bd a0 55 be bd 32 1c 85 bd
       0.10178422 -0.06829952 -0.092936754 -0.064995185
0000d0 c0 ce 2c be 36 07 a2 3d 72 d5 41 3c 64 a1 bb bc
       -0.16875744 0.079115316 0.0118306745 -0.022904105
0000e0 b1 c9 e8 bd 14 ae 86 3d a3 06 a3 3d f2 ac 93 3d
       -0.113665946 0.065761715 0.0796025 0.07210721
0000f0 ab 52 19 bd eb 2b f8 3c 59 95 ad 3d 97 61 40 bd
       -0.037432354 0.03029438 0.084757514 -0.04696807
000100 f4 90 a7 3b 63 ee 48 3d e6 91 bb bc 73 9a 5c bd
       0.0051137153 0.04905547 -0.022896718 -0.05385823
000110 80 6c 23 3d c7 06 97 3b 14 c6 a2 bd aa 8c a5 bc
       0.039898396 0.004608962 -0.07947937 -0.020208675
000120 4f a8 8d 3d fb 85 e4 3d ac 2b 07 bd 24 e7 80 3d
       0.06916868 0.11158367 -0.033000633 0.062940866
000130 13 fa dd 3d 25 1e 8f 3d b7 70 5b 3d 3b 16 00 be
       0.108387135 0.069881715 0.05357429 -0.1250848
000140 d3 03 b8 bd bb ba 99 bd 82 39 f9 3d 4d 97 88 bc
       -0.089851044 -0.07506319 0.12169172 -0.016673708
000150 4d 25 11 be a6 7c 08 be b6 e6 e9 bd 38 7c dd bd
       -0.14174385 -0.133288 -0.11420958 -0.108147085
000160 8c 77 b1 bd 62 a6 a2 bd 46 da 81 3d cb c9 a5 bd
       -0.0866538 -0.07941891 0.063404605 -0.080951296
000170 80 45 9d 3d aa 40 18 bd c2 3f f3 bd bf 1c 8d bd
       0.07679272 -0.037171043 -0.11877395 -0.068902485
000180 6c 88 86 bd 24 5a df bd 6b f4 e8 bd 8d f7 d7 ba
       -0.06568989 -0.10905865 -0.11374744 -0.0016476974
000190 62 94 dd bd 6c a7 3b bd f8 93 06 bd ee d6 8e bd
       -0.108193174 -0.045813963 -0.032855958 -0.06974588
0001a0 f4 35 52 bc 32 6d f8 bd 6c b5 58 bd c0 df ce 3d
       -0.012830246 -0.12130202 -0.052907392 0.10101271
0001b0 0c da a6 3d af 13 e3 ba 6c 6d 0e 3d cd 6a a7 3d
       0.08147058 -0.0017324592 0.03477232 0.081746675
0001c0 e2 f4 e9 3d c2 fd b5 bd b1 58 5a 3a 41 d9 68 bd
       0.11423661 -0.08886291 0.0008329256 -0.056847814
0001d0 6d 83 db bd b4 61 b5 3d 8b 5a 90 3d 89 17 ed bc
       -0.10718427 0.08856526 0.0704852 -0.028941886
0001e0 3a c2 bf 3d da 31 d6 3c 7c e5 54 3d b9 aa 27 3d
       0.09363218 0.026146818 0.051976666 0.0409343
0001f0 84 fd 3f 3d e6 8e c2 3b 7b c0 55 3d e8 b3 cb 3d
       0.04687263 0.005937445 0.052185517 0.09946424
000200 d3 da e1 bf f5 9f fd be 8e 15 8a bd 14 73 f4 bf
       -1.7644905 -0.495361 -0.067423925 -1.9097619
000210 13 79 bb bd af 0d 95 3d 84 49 0a bd c0 89 de be
       -0.091539524 0.072780006 -0.033761516 -0.4346447
000220 d6 5d 84 3c 96 23 fb be 5e c6 a1 bb 8a 30 65 3f
       0.016158026 -0.49050587 -0.0049369773 0.8952719
000230 6e b9 b4 bf 89 70 05 bd 4a 0f 56 bf 10 57 10 bf
       -1.4119089 -0.032578025 -0.8361708 -0.56382847
000240 86 eb 40 3e a7 ad 96 bf f1 2b 1b 3b c8 57 31 c0
       0.18839845 -1.1771744 0.0023677314 -2.7709827
000250 7f 68 f1 3d 22 9f 88 bf 44 46 9f c0 8b 38 ac bf
       0.11787509 -1.0673563 -4.9773273 -1.3454756
000260 00 5c f8 3e d0 f4 0f bf c8 af 9d 3f ef 35 77 3f
       0.4850769 -0.5623293 1.2319269 0.9656667
000270 46 f0 9b be b9 ed c1 3e 3d 52 0a c0 e3 24 4e c0
       -0.30456752 0.3787668 -2.1612694 -3.2210014
000280 14 89 1e bf 7a 9e 88 bd 0d 07 cf be 9b 2c 2d 3f
       -0.61927915 -0.06670852 -0.40435067 0.6764619
000290 0f 61 b2 bd 91 e6 d8 be f9 9f f2 3e 05 48 77 3f
       -0.08709919 -0.42363408 0.47387674 0.9659427
0002a0 9b f6 61 3f ce 82 90 bf de 94 39 3e 90 9a 80 3f
       0.88266915 -1.1289918 0.18123195 1.0047169
0002b0 62 d1 5a 3f 9c 4a 27 3e 65 72 f3 bf 3c 48 1d bf
       0.8547574 0.16337055 -1.9019285 -0.61438346
0002c0 48 09 c4 be fd 9b 1b 3f a1 78 99 3f ce b1 71 3f
       -0.3828833 0.60784894 1.1989938 0.94411933
0002d0 6d 33 7b 3f c4 ba 25 3f 26 21 96 be 03 84 b1 3d
       0.98125345 0.64738107 -0.29322165 0.08667757
0002e0 40 44 13 3f 39 e8 0f bf b7 62 1f bf 35 de 6b bf
       0.57526016 -0.5621372 -0.6226 -0.92135936
0002f0 73 70 d6 bc f8 4d 1d bf 0b 36 84 3f 95 b5 47 bf
       -0.026176667 -0.61447096 1.0328993 -0.7801145
000300 d4 b1 d8 bd 62 56 06 be 38 ae fa 3e 11 2e 12 3e
       -0.10580793 -0.1311889 0.48961043 0.14275385
000310 75 0b 2b 3e 63 97 c6 3e a1 77 b2 3e 6d 2a e3 3e
       0.1670359 0.38787374 0.34856895 0.44368306
000320 b3 80 94 bd 84 86 96 bf 67 bc ba bd 63 f9 54 bd
       -0.0725111 -1.1759801 -0.09117966 -0.051995646
000330 16 13 b2 be 61 3b 53 3d 7c 05 ab 3d 34 62 33 3f
       -0.34780186 0.0515703 0.083506554 0.7007172
000340 8d 19 89 3d dc 1f 9b 3e 6c a6 ae bd 35 b8 7c 3c
       0.066943265 0.30297744 -0.08527836 0.015424778
000350 6a 48 1b 3f 2b 19 4d bd 94 57 1d be 2a 70 6c bc
       0.6065737 -0.05007283 -0.1536544 -0.014431039
000360 76 d8 55 bf d1 0f f7 3d 08 fa 1d bd 51 dd ae 3d
       -0.8353342 0.120635636 -0.038568527 0.085383065
000370 d7 34 db 3e 4f aa 4a 3e 41 6a ae bd 7a ad 22 3e
       0.4281375 0.1979153 -0.0851636 0.15886489
000380 52 6d f6 bf 49 f1 c4 3e b8 ca 06 3e 76 84 47 3f
       -1.9252112 0.38465336 0.13163269 0.77936494
000390 1a 1e 7d bf a6 57 3d 3e b2 73 82 bf fb b1 d2 be
       -0.98874056 0.18490466 -1.0191557 -0.41151413
0003a0 ad b5 fa 3c 5c a5 8f bf 01 8d 10 3f 13 f4 02 3e
       0.030604208 -1.1222339 0.56465155 0.1278842
0003b0 ac ec 45 3e f4 e7 f7 bd 3f fd 3f 3e 4b b6 03 3f
       0.19328564 -0.121047884 0.1874895 0.5145003
0003c0 7c 74 7f bd dd 22 9c bc ac 27 0e 3e d6 b5 1f 3e
       -0.062366948 -0.019059593 0.13882321 0.15596709
0003d0 5f 49 1a bf 2b 4e 7c bf 1b 5e 43 3d 0c e4 00 3f
       -0.60268205 -0.98556775 0.047697168 0.5034797
0003e0 7d 39 30 3f e3 5b f6 3d a5 1f ac bd ca d2 31 bf
       0.6883772 0.12029245 -0.08404473 -0.69462264
0003f0 1d d6 78 be cb 25 2f 3f 24 10 99 bf e0 c2 d4 3d
       -0.24300428 0.6841704 -1.1958051 0.10388732

fcs.2.bias f4 [16]
000000 7f ba d4 bd 5f 08 f6 bd 6c 59 31 3f 1d e3 00 40
       -0.10387134 -0.120133154 0.6927707 2.013862
000010 1a 50 08 be 7c 79 d8 bd a2 f9 d4 3f ea 13 30 bf
       -0.13311806 -0.10570046 1.6638682 -0.68780386
000020 44 f5 f4 bd 16 a9 2f ba e1 b6 c9 3f 74 47 df 3f
       -0.11960843 -0.0006700916 1.5758935 1.7443681
000030 23 69 ea 3f 8e 82 c7 3f f9 eb 7c bf 62 7d 9a 3d
       1.8313335 1.5586717 -0.98797566 0.07543446

fcs.3.weight f4 [4, 16]
000000 b1 17 cc bd 68 3e 7e bc 19 23 98 3d 93 08 31 3f
       -0.09965456 -0.0155178085 0.07428569 0.6915371
000010 d3 cc 73 be 17 f5 99 bd 8f bb a8 3e d3 12 aa bc
       -0.23808603 -0.0751745 0.32955596 -0.02076093
000020 11 4a e0 bd a8 85 83 3f fc 1c b7 3e c1 90 07 3f
       -0.10951627 1.0275164 0.357643 0.5295525
000030 41 a6 11 3f de b3 f8 3e c5 b2 ea bd fb 75 82 bd
       0.5689431 0.48574728 -0.11459879 -0.06370159
000040 16 0e ac bd c6 ae 66 bc cb 65 3f 3d 9e 8e bb 3e
       -0.08401124 -0.014079755 0.046727937 0.36632246
000050 09 37 63 bd 4f a3 cd 3d 1a 72 00 3f 8d 3c 6c b8
       -0.055472407 0.10040914 0.50174105 -5.6323177e-05
000060 cd 10 8b 3d ba 31 61 3f 27 7e d8 3e 7a a9 1e 3f
       0.06790314 0.879665 0.42283747 0.6197735
000070 62 96 33 3f cd bb 20 3f 38 cf b7 bd 5a 6f 3d be
       0.7015134 0.6278656 -0.08975071 -0.18499509
000080 46 41 98 bd 29 36 02 bb e9 3c 67 3b 86 d2 39 3f
       -0.07434325 -0.0019868708 0.0035284108 0.7258686
000090 a1 34 8f bd b8 8f 0c 3d 38 60 06 3f 99 df 55 3d
       -0.0699246 0.03431675 0.5249057 0.052215192
0000a0 1a 3a 60 be 13 a5 14 bf e4 f0 e9 3e 23 6f 88 3e
       -0.21897164 -0.58064383 0.45691597 0.2664729
0000b0 ce e7 15 3f 8f 03 d3 3e eb e5 d4 bd 32 7a 71 bf
       0.5855683 0.41213652 -0.10395416 -0.9432708
0000c0 65 87 a0 3d 74 89 04 be 60 1e ea 3d af 74 24 3f
       0.078383245 -0.12943059 0.11431575 0.64240545
0000d0 2c d6 23 3e c3 7a df 3c fe c6 e8 3e db 52 b1 bd
       0.15999669 0.027280217 0.4546432 -0.086583816
0000e0 fe 3d 63 3e 90 23 52 3f 9e c0 1d 3f f9 fe 1d 3f
       0.22191617 0.82085514 0.61622036 0.6171718
0000f0 37 77 f6 3e ae 41 83 3e 1d 8b 54 bd 03 3d 74 be
       0.4813783 0.25636047 -0.05189048 -0.23851399

fcs.3.bias f4 [4]
000000 85 61 d7 3f ae 57 a5 3f 5f ec a5 3f 0c a6 c9 3f
       1.6826636 1.2917383 1.296276 1.5753798
