trained_agents/From-Benchmark-DDQN.pth-Best.pth (torch_old, 58259 bytes, 8 tensors)

fcs.0.weight f4 [128, 37]
00000000: 105c 09be cf11 f6be 6b79 18be 8b99 25be
00000010: e0ad 12c0 04e5 3abe c62f 38bf 712b 2f3f
00000020: f3c8 ccbe cf44 ccbf bf22 1abf f776 2abc
00000030: c8e7 8bbf 5f32 7dbd a39e d03e 9043 3fbe
00000040: e0d7 96bf 4c2f 93bd 8cc6 07bf 7c2d f9be
00000050: 3a57 a9be 25e8 37be 99b8 7f3e c50d 85bf
00000060: eb16 f4be e3a5 1dbf a6b3 f53d a060 3abf
00000070: 83b0 05bf 5170 e8bf 3b58 c7be ac8a 78be
00000080: 2292 a0be 6919 9d3c 806d 2bc0 a040 4c3e
00000090: 3c13 88bc 988b 12bf c6ab 97be a3c4 403e
000000a0: 0880 663d 1336 e93e de2a dfbf 2ccd 9dbf
000000b0: b1ac 023f 7ed9 a0bf dd23 bdbf 880a 5b3d
000000c0: 89f5 03bf db69 403d f245 35bf e9c1 90be
000000d0: 2e07 b83e 85c0 8e3e 0064 1ebd 1600 c5bf
000000e0: 78df d4be 1767 95bf e283 223e 3d74 6f3e
000000f0: d9da afbf fa22 57bf 8dd1 913e d3e4 823d
00000100: 1a79 13be ce6c c3bf 2bab a3bf c457 3fbf
00000110: da47 6cbd 567d a43e c40d c8bf 0bac 34bf
00000120: d9d3 40bd 4e48 98bd 4d09 803d 7358 b8be
00000130: 5ae1 edbd 1bfe 85bd 64c4 333e 69e7 cdbe
00000140: 5b47 b8be 430d 8f3b e928 babe 40d0 64c0
00000150: cdbf 85be 8ba8 973e 0270 04bf 6bc7 b3be
00000160: 8268 413e 466d d33e 71b6 70bf c982 cebe
00000170: fa4e 10be 812a 6cbf 3ab6 13be 06d0 1ebf
00000180: b8af 0a3a fe3f 04be b948 683b f948 8dbf
00000190: 7809 543f 9fba d03d 9541 59bf 811f a7c0
000001a0: adec ebbc 04a4 a0be 447d d5be 06f6 16bf
000001b0: 82e2 cfbe b0cd 84bd 6c43 d0bc fde7 463c
000001c0: 2440 9f3c 48cb e83d 0bea bd3c 7987 34bc
000001d0: ea6b 32be 8084 ae3d 9305 4e3e 2ad9 103f
000001e0: 6e0d 383f 02e5 1bbd 37d8 c33c 1f0d 12bd
000001f0: b9a5 07bd 9811 e03d b9e2 e5bd e1ee e5bd
00000200: ca82 d6bc 2c30 333e 14d0 343e 989a 0e3f
00000210: 059f 8fbf a65b f4bf 78e6 12c0 b781 b2c0
00000220: 1165 f93b cb5a 533d 4052 043e 7030 663e
00000230: 4baf b93e bc08 d3bc 5996 db3d 5860 733e
00000240: e43c b53e 6755 f93e 1637 f43b cc50 103c
00000250: 3fb0 7ebe 0c29 d63d 5472 05bd 63fc 32be
00000260: 4c94 cdbe 2fa5 8a3e c142 8cbd 58e9 10be
00000270: 5601 8bbf b57b b3bf be86 45bc 2ddd 26bb
00000280: 3e9c 9fbd 5018 833e 62ee 153e 41c9 40be
00000290: 5f45 613f bcbf 533e 1119 edbe 0ee5 21c0
000002a0: 80a2 dfbd 67f8 663f afb8 eabe a38c a8bf
000002b0: d10d 1bc0 7743 bf3d 0f37 a23e 7b00 0bbe
000002c0: a6d6 5ebf bc80 41c0 3d2f ae3e 1270 913e
000002d0: 3d90 a1be 96e5 8abf 594c 39bf 4b78 cb3b
000002e0: 5b13 11bc 7741 973d a11f 57be 8554 ec3d
000002f0: 2ff8 c3be e15b debc 1c98 abbe 78f1 4e3e
00000300: a92c 133e bfae d0be bce0 00c0 a492 b03d
00000310: d8ac a3be 6974 46bf 96aa 03be fd43 b83d
00000320: 51ea 13be 4e03 08bf a602 c33d b099 98bf
00000330: a290 d1bf 42e8 2f3e 7e6c 50bf 04d2 3e3e
00000340: df37 6dbe 57f6 12bf 4bf5 bdbe 05c2 cbbe
00000350: d1c6 043d cd07 913d 7750 abbf da0b f5be
00000360: 0f93 78bf c249 463e a2a7 7abf 5116 a8c0
00000370: b3db 123f 9188 0b3d f9d3 033c 18a5 5c3d
00000380: 5f27 303d dfe9 893d 9fa6 4e3d 078a 0fbe
00000390: 795a 483e 8509 453e a7df 253f cad6 4d3f
000003a0: ddf7 af3d 652a 623d 8869 133e 7abb 073e
000003b0: 0cd6 af3d e0ea fcbb 3f11 c93c 2ff5 473d
000003c0: 1894 3d3e ddbd 033e e9a0 9cbc 9e17 a63d
000003d0: 6165 933c 3f4a 373d 8b30 133d 6ab0 debd
000003e0: 4310 a53d 194a 433e a5fa 943e 7158 133f
000003f0: 35e2 013f a514 aebf a63e fcbf 8e5e 17c0
-0.13414025 -0.48060462 -0.14890067 -0.16171853 -2.2918625 -0.18251425 -0.71947896 0.6842566
-0.39997062 -1.5958499 -0.6020927 -0.01040434 -1.0930109 -0.061815616 0.4074603 -0.18678117
-1.178463 -0.071867555 -0.53037333 -0.48667514 -0.3307436 -0.1795965 0.24972762 -1.0394827
-0.47673735 -0.6158125 0.11997156 -0.7280369 -0.5222246 -1.8159276 -0.38934502 -0.24271649
-0.3136149 0.019177156 -2.6785583 0.19946527 -0.016610734 -0.57244253 -0.2962324 0.18825011
0.056274444 0.45549068 -1.7434957 -1.2328238 0.51044756 -1.2566373 -1.477657 0.05347684
-0.5154653 0.04697595 -0.70809853 -0.28272942 0.35942978 0.27881256 -0.038669586 -1.5390651
-0.41576743 -1.1672086 0.15870622 0.23384185 -1.3738662 -0.84037745 0.28480187 0.06391301
-0.14401665 -1.526758 -1.2786611 -0.74743295 -0.05768571 0.32126874 -1.5629201 -0.70575017
-0.047077034 -0.07435666 0.06251774 -0.3600498 -0.11615248 -0.065426074 0.17555386 -0.40215614
-0.3599194 0.0043655946 -0.36359337 -3.5752106 -0.26122895 0.29620776 -0.5173341 -0.3511308
0.18887523 0.41294307 -0.94028383 -0.40334156 -0.14092627 -0.92252356 -0.14424983 -0.6203617
0.00052904664 -0.12915036 0.0035443737 -1.1037894 0.8282695 0.10191845 -0.84865695 -5.2225957
-0.02879938 -0.31375134 -0.41697133 -0.5896915 -0.406025 -0.06484544 -0.025422774 0.012140271
0.019439764 0.11366898 0.02318289 -0.011018627 -0.17423978 0.08521366 0.20119314 0.56581366
0.7189549 -0.038060196 0.02390681 -0.035657045 -0.03311703 0.10940856 -0.112248845 -0.11227203
-0.026185412 0.17498845 0.176575 0.5570464 -1.1220404 -1.9090469 -2.2953167 -5.5783343
0.007610925 0.05160026 0.12922001 0.22479415 0.3626655 -0.025761 0.10722036 0.23767221
0.35398018 0.4869797 0.007452856 0.008808326 -0.2487192 0.10457048 -0.032579735 -0.1747909
-0.40152204 0.2707915 -0.0684867 -0.14151514 -1.0859783 -1.4022127 -0.012056051 -0.002546142
-0.07793473 0.25604486 0.14641717 -0.18826772 0.87996477 0.2067861 -0.46308187 -2.5296054
-0.10919666 0.9022278 -0.45844027 -1.3167919 -2.4227183 0.0933904 0.3168263 -0.13574402
-0.8704628 -3.0234823 0.34020415 0.28405815 -0.31555358 -1.0851314 -0.7238212 0.0062094084
-0.008854712 0.07385533 -0.21008159 0.11539558 -0.38275287 -0.02714342 -0.33514488 0.202093
0.14372505 -0.4075832 -2.0137167 0.086217195 -0.31967807 -0.7752138 -0.12858042 0.08997343
-0.14444853 -0.5313004 0.095219895 -1.1921902 -1.6372263 0.17178443 -0.81415546 0.18634802
-0.23165844 -0.57407135 -0.37101206 -0.39796463 0.03241617 0.07081566 -1.3383931 -0.47860605
-0.97099394 0.19364074 -0.9791204 -5.252724 0.57366484 0.034065787 0.008046144 0.053868383
0.043006297 0.067340605 0.05045187 -0.14017497 0.19565763 0.19241913 0.6479439 0.8040587
0.08592198 0.05521621 0.14395726 0.1325511 0.08585748 -0.007718429 0.024544356 0.04881781
0.18513525 0.12865396 -0.019119697 0.08109973 0.017992677 0.04474854 0.035934966 -0.10873492
0.08059742 0.19071235 0.29097477 0.57556826 0.5073579 -1.360005 -1.9706619 -2.3651462

fcs.0.bias f4 [128]
00000000: 10bf ebbe 84fa ddbd dfa0 d4be 9045 7dbc
00000010: 5f60 173d effc c6be 85e0 4c3e ebde e3be
00000020: ea77 e2be 3144 253f 4d9c 94bd d5f2 093e
00000030: b4c1 d4be 0c17 15bf bef4 8abe af6b 82be
00000040: 595a 48bc b5c1 c8bc a4cd 7dbe 8964 a2be
00000050: b88e 043e 6885 753e 55ff 81be 2b96 dbbe
00000060: cfb2 bcbe e5fb 3abe c3ee 40bd 2790 a3be
00000070: b0bf edbd 7301 d0be a9f0 b63d b4f7 5ebe
00000080: 0173 07bf fe2a cbbe c8ff 2c3d 66f1 a7be
00000090: fe94 0c3e b8ed 1a3f 9f61 a5be c527 c2be
000000a0: e6a2 903d 0534 fcbe 2543 223e 37bc d33d
000000b0: 5fc9 b1be 54c1 fdbe 5f85 a0be a4c6 e6be
000000c0: b744 28bf 1481 3ebc be84 74bd 7f18 b13d
000000d0: b299 00bf 4e11 42be 9813 88be 7965 d5be
000000e0: a2dc ccbe 8c71 143f b8b5 683b f3b4 f1be
000000f0: f6b9 38be 6163 063f b433 e3bc d379 0fbf
00000100: 7a9c 8ebe b2ff f1be d2c4 88be eccc 1cbf
00000110: 14b8 aebe 0959 edbe 6659 85be bae3 81be
00000120: 270d c9bd 03ba 8dbe 00a3 99be c8ef 873d
00000130: fcdb 8dbe 2731 0ebf 9204 5cbe f59b a6be
00000140: 90e0 0e3d a540 c3be 7c77 d8be 7d31 17bf
00000150: e872 b8be d212 a8be 1307 a8be 5e53 03bf
00000160: 841d 14bf f6a9 a3be 8886 d13c f40f b1be
00000170: 855e 24bf c73c 14bf a86e 99be d17a 8fbe
00000180: e2b0 1ebe 9f03 06bf e7d8 51be 5d37 bebe
00000190: 7941 18bf 776e 29bf 7904 343e 99b2 a83c
000001a0: f9db 10bf 5603 23bf bec3 08bf 7e7f 1c3e
000001b0: 57a3 b2be 0c6e f8be f626 1cbe 1556 0e3d
000001c0: a520 bdbe a246 d0be fa5a 9bbe 1cf4 a0be
000001d0: 6395 dbbe fb58 62be f477 8f3d 652b 81be
000001e0: d339 20bf 1e3c adbd 0036 47be 2d0a 53bf
000001f0: 6609 00bf aa7d ad3d 34c5 98be 47a1 b7be
-0.46044207 -0.10838798 -0.41528985 -0.0154584795 0.03695714 -0.38864848 0.20007522 -0.4450601
-0.44232112 0.64557177 -0.072563745 0.1347154 -0.41554034 -0.5823829 -0.27139848 -0.2547278
-0.012228572 -0.02450643 -0.24785477 -0.31717327 0.12945068 0.23976672 -0.25390115 -0.42888007
-0.3685517 -0.18260153 -0.0471027 -0.31945917 -0.11608827 -0.40626106 0.08932621 -0.21774179
-0.5290986 -0.39681238 0.04223612 -0.3280136 0.13728711 0.6051898 -0.3230104 -0.37920967
0.070623204 -0.49258438 0.15845926 0.103386335 -0.34723946 -0.4956156 -0.31351754 -0.45073426
-0.6572985 -0.011627454 -0.059696905 0.086472504 -0.5023452 -0.18951914 -0.2657745 -0.4167898
-0.4001208 0.5798576 0.0035508703 -0.47208366 -0.18039688 0.5249539 -0.027734615 -0.56045264
-0.27853757 -0.47265393 -0.26712662 -0.61250186 -0.34124815 -0.4635699 -0.26044768 -0.25369054
-0.09816962 -0.27680978 -0.30007172 0.066375315 -0.27706897 -0.5554375 -0.21486118 -0.3254086
0.03488213 -0.38135257 -0.4227866 -0.5905989 -0.36025167 -0.3282686 -0.32817897 -0.51299083
-0.5785754 -0.31965607 0.025576845 -0.34582484 -0.64206725 -0.5790524 -0.29967237 -0.2802339
-0.15497163 -0.52349275 -0.20492898 -0.37151614 -0.59474903 -0.6618418 0.17579831 0.020592974
-0.5658565 -0.63676965 -0.5342368 0.1528301 -0.34890243 -0.4852146 -0.15249237 0.034750063
-0.36938968 -0.4067889 -0.30342847 -0.3143624 -0.4288741 -0.22104256 0.07005301 -0.2522842
-0.6258823 -0.08458732 -0.19454193 -0.824374 -0.5001434 0.08471234 -0.29837954 -0.35865232

fcs.1.weight f4 [64, 128]
00000000: 4397 74bf 1cd3 17c0 da49 23be fbf0 2e3e
00000010: 4a30 1e3e e3e9 92be 6f98 b33e 8c86 ba3f
00000020: 857e 9fbf 073e 33bd 6c7c 103e 15a2 053f
00000030: cac4 493e 60b8 42be a908 4fbf 4569 05bb
00000040: ba6d b4bd fc5c 2f3e a23b 57bf 96f5 0dbe
00000050: 0f88 0c3f 50db cdbf d825 febe b832 5d3e
00000060: dea1 1abf 0eae 0ebf 76bc 63be 0da8 89bf
00000070: 9fb6 803f 258b b03e c933 293f 467b 47bf
00000080: c807 303f 86cf 36bf 8b34 d13c 5424 3bbf
00000090: 877f d6bd d4ce cfbd 619b 8dbd d029 38be
000000a0: bc0b 0e3f 3477 a5bf 1da1 de3e 1c0f 07be
000000b0: a4f8 26bf c121 b5be b30f 1dbe 0424 9b3f
000000c0: 0357 bc3e 5e56 85bf a6ca a03d 9444 4e3d
000000d0: 12d0 85bf 8947 dabf 2c54 643e cda3 c7bc
000000e0: e215 2bbf 667a f4bd 063a b5bc 5a8d 9cbf
000000f0: bc5e 013e e7ec a0bd dce2 c2bf 8ab8 0cbf
00000100: be76 2fbf 261d edbe 9587 3c3d 25b4 9dbf
00000110: 6d0e 10bf b727 19bf 061a 26bf 70a5 8f3f
00000120: 00da 3fbf 3ee5 74be 0aaf 4cbf 5f57 c3bd
00000130: 57be ccbe 194d f3be 6103 84bf 9f85 75be
00000140: 1845 c33e e73b 08bf a5da ad3e 89d1 11bf
00000150: 044d c63e 0946 073f f720 993d 047f d03f
00000160: d7f7 12be 81b8 633f 9ac1 e4bf 9df1 cdbe
00000170: 2531 5abd 90ad db3e 6e50 b33e 99a3 a93e
00000180: 733b 223e 705c 30be ac3a 6d3d 6c41 e6bf
00000190: 8847 5d3e 9301 fdbe 48df a13e 2fb0 a2be
000001a0: d293 30bf b897 8c3e fb5c 1cbf 41d5 11bd
000001b0: 73fa 36be 8d19 973e b450 9dbf 6e53 a0c0
000001c0: b428 65be ebad 83bf 810e 24bf 5419 5bbf
000001d0: 728b 95bd 3091 4b3e ae4c 5ebe d613 50bf
000001e0: 6659 6dbf b514 22bd a829 e63c b33c 66bd
000001f0: ceed 1abe 9de7 b33e b76d e43d 4247 c53e
00000200: 6278 773e a678 2bbf b869 b43f 4aa2 9e3f
00000210: dbb2 30be a101 17bf 7fcc 8b3d 7383 ba3e
00000220: 2f08 283e 0c52 c73d 3459 a8bd 63c8 76bd
00000230: bd1a 393f 5cd5 31bf e69e 113e 5205 82be
00000240: 5597 853d 2e48 7dbe 10d2 6f3e 65f0 41c0
00000250: d9c9 2b3f 30c4 9e3d caae c8be 5920 21bf
00000260: 655a 923f 01a6 503e 46d5 50be 6ca3 19bf
00000270: 61d0 8fbf 94d8 d33e 11ad 043f 9b6b 2cbf
00000280: e70a 62bf 6c4f 133f e66d 96c0 d924 20bf
00000290: 3fb7 11be 104a 15bc 9a55 79bf 3036 1abf
000002a0: 1287 bebe 08ed 4a3e 6064 1e3d 637c 7f3f
000002b0: fd55 12bf f7fc b2bf 28d3 e53d 2a8e 37bf
000002c0: cf84 90be 4222 eb3e a047 08bd 7e1d f43e
000002d0: dda3 d0be 314a b63f cc15 07bf 7587 d9be
000002e0: 0a7d 02bf f1b3 f1bd 7a08 e7bd fd78 39bf
000002f0: 8fba 9ebe 828f b4bc 5007 a3bc 1f4c 533f
00000300: 0858 00bf 6998 22bf 12a7 923e 15e8 eebe
00000310: ef75 e5bb 6c19 90be 2a29 623f aa1a 06bf
00000320: 7500 b6bf 3dde 3e3e e45c fabf 28c6 d1bf
00000330: 4721 2d3e 2dda e93e 82b4 b6bf 0603 b7bf
00000340: c4e6 63bf 4367 d3bc a14d 24bf 87b2 23bf
00000350: 746d 1fbe b7c5 a8be 1db4 993e c4f6 d5bf
00000360: eb25 05be 6ff4 233f 70d3 763e 8e9f 5f3e
00000370: c23b 2c3f c53e d03b 0c76 f13f dd46 28bf
00000380: c9e6 593f 4163 a1bf 3364 3cbc 35d8 ad3e
00000390: 99cc 593d d132 453e 4783 b63e b5c9 753f
000003a0: 0c49 ce3f 0879 c93d 8d34 003f e850 cdbf
000003b0: e15a 893e 76a1 19be b37e 73bf 3a80 c33d
000003c0: 6944 0b3f a49e df3e a248 bebe 3c8b f83e
000003d0: 1ad7 3dbf f3fc 3d3f 2036 503e 20b4 663e
000003e0: ea40 b0bf bdaa cb3e b76f bfbf 17be a8bf
000003f0: e89d cebf b775 f03d d6bc fdbb a25e 88bf
-0.9554331 -2.37226 -0.15946141 0.17084114 0.15448108 -0.28694066 0.35077235 1.457231
-1.2460486 -0.043760326 0.14109963 0.5220044 0.19703975 -0.19015646 -0.8087259 -0.0020356935
-0.08809991 0.17125314 -0.8407537 -0.13863215 0.5489511 -1.6082554 -0.49638247 0.21601379
-0.6040324 -0.55734336 -0.22239861 -1.075441 1.0055732 0.3448116 0.6609464 -0.77922475
0.68761873 -0.71410406 0.02553775 -0.7310231 -0.10473543 -0.10146871 -0.06914402 -0.179847
0.55486655 -1.2927003 0.43482295 -0.13189358 -0.65223145 -0.35377315 -0.1533802 1.2120366
0.36785135 -1.0416982 0.07851152 0.05035837 -1.0454123 -1.7053081 0.22297734 -0.024370098
-0.66830266 -0.11937408 -0.022122394 -1.2230637 0.12633795 -0.078576855 -1.5225482 -0.54969084
-0.6854056 -0.463113 0.04602774 -1.2320601 -0.5627201 -0.59826225 -0.6488346 1.1222363
-0.74942017 -0.23915574 -0.7995459 -0.09538149 -0.39988968 -0.47519758 -1.0313531 -0.23976754
0.38138652 -0.53216404 0.33955875 -0.5696035 0.38730633 0.5284124 0.07476991 1.6288762
-0.14352356 0.88953406 -1.7871583 -0.402234 -0.053269524 0.42905855 0.350223 0.33132628
0.1584299 -0.17222762 0.057917282 -1.7988715 0.21609318 -0.49415264 0.31615663 -0.31775042
-0.68975556 0.27459502 -0.61079377 -0.035603765 -0.17868976 0.2951168 -1.2290254 -5.0101843
-0.22378808 -1.028745 -0.6408463 -0.8558552 -0.07301988 0.19879603 -0.21708938 -0.8128027
-0.92714536 -0.03957053 0.028096035 -0.05621023 -0.15129778 0.35137644 0.11153739 0.38530928
0.24167016 -0.6698097 1.4094763 1.2393277 -0.17255728 -0.5898686 0.06826114 0.36428413
0.16409372 0.09732446 -0.08220139 -0.060249697 0.72306424 -0.69466186 0.14220771 -0.25394684
0.06523005 -0.24734566 0.23419976 -3.0302975 0.6710487 0.077522635 -0.39195853 -0.62939984
1.1433836 0.20375825 -0.20393857 -0.60014987 -1.1235467 0.41376173 0.5182658 -0.6735169
-0.88297886 0.57543063 -4.7009153 -0.62556225 -0.14230059 -0.009111896 -0.9739624 -0.60238934
-0.37212425 0.19816983 0.038669944 0.99799174 -0.5716246 -1.3983449 0.112219155 -0.717013
-0.28226325 0.45924574 -0.033271432 0.4767875 -0.40750018 1.4241391 -0.52767634 -0.42486158
-0.50972044 -0.11801899 -0.11280914 -0.7245024 -0.31001708 -0.022041086 -0.019900948 0.82538027
-0.50134325 -0.6351381 0.2864309 -0.4666144 -0.007002584 -0.28144395 0.8834406 -0.52384436
-1.421889 0.18639465 -1.9559598 -1.6388597 0.16907226 0.45674267 -1.4273837 -1.4297798
-0.89023995 -0.025806075 -0.6418095 -0.63944286 -0.15569097 -0.32963344 0.30020228 -1.6715932
-0.13002746 0.6404485 0.24104095 0.21838209 0.67278683 0.006355139 1.886415 -0.6573313
0.85117775 -1.2608415 -0.011498499 0.33954015 0.053173635 0.19257666 0.35647032 0.96010906
1.6116042 0.09837538 0.50080186 -1.6040316 0.26827148 -0.15002999 -0.951152 0.09545942
0.5440126 0.4367572 -0.3716479 0.48543727 -0.74156344 0.74214095 0.20333147 0.2252965
-1.376981 0.397787 -1.4955968 -1.3183011 -1.6141939 0.11741202 -0.0077434583 -1.065388

fcs.1.bias f4 [64]
00000000: 53db 02bf 9987 94be 4353 903f b568 c03d
00000010: 6f82 a13e 12b0 663e 92f2 823f 2a2e 92bd
00000020: f986 91bd f724 efbe 1e7b bcbc 9d04 933e
00000030: da18 e6bd 92dc cabd 9dd7 ce3d 350a 903e
00000040: 9b98 333f ed9b 42be d4ef edbd 606c 023f
00000050: a062 8f3f 7009 c4be 1be6 7b3d dd22 c03d
00000060: ed5d 0bbe 82f4 313e a5bf 033f aef3 163f
00000070: 5554 763f f042 b1be 1c90 b8be 7a05 bb3d
00000080: 9b0b 25be ebbb 843f 0762 86bd 8606 fcbd
00000090: 7432 10be 7a0c 343e 302c 18bd 025f fcbe
000000a0: 65dd ad3e 5b6d 97be aa3e 19be 662c 7dbb
000000b0: fd5a c83e 05e2 bfbe e5db 143e 1e9e 78be
000000c0: 3f6b e53d 92a2 a43e 5238 b33e da8e 8c3e
000000d0: 4054 d13e 76d5 e0bd e9d1 9f3d 47b8 853f
000000e0: 3b08 3ebd e6f2 1d3e de04 7abe 8c28 f5bd
000000f0: 1428 8ebd 838a db3e 3410 3fbe db2a 943e
-0.5111591 -0.29009703 1.127541 0.09394971 0.31544825 0.22528103 1.0230277 -0.07137711
-0.07105822 -0.4670789 -0.023007926 0.28714457 -0.11235209 -0.09905352 0.10099719 0.28132787
0.7015473 -0.19004793 -0.11618009 0.5094662 1.1201973 -0.3828845 0.061498743 0.0938165
-0.13610049 0.17378429 0.514643 0.58965576 0.9622243 -0.34621382 -0.36047447 0.09131904
-0.16117708 1.0369848 -0.06561666 -0.12305932 -0.14081746 0.17582884 -0.037151515 -0.49291235
0.33957973 -0.2957562 -0.1496531 -0.00386312 0.3913192 -0.37477127 0.14537008 -0.24279067
0.11202096 0.3215528 0.35003906 0.27452737 0.4088459 -0.109782144 0.07803709 1.0446862
-0.046394568 0.1542469 -0.24415919 -0.11970624 -0.06941238 0.42879114 -0.18658525 0.28938946

fcs.2.weight f4 [16, 64]
00000000: 2fab 573d c9f8 2b3d f087 9d38 3b10 4a3d
00000010: 75ed c6bc eab0 76bd 8889 863d 2e06 6abd
00000020: 114e d4bc 6d96 a1bd 143d ae3d b5d0 883d
00000030: af62 3abd 5c67 dc3d b88e a03d 4b8f 0e3b
00000040: ff95 e5bd 3dbd f2bd d018 913c 57fd 933c
00000050: 81ee edbd f320 c13d f561 f73b 4c30 dc3b
00000060: d576 0dbe 219e ecbd 2a9c 663d aa34 80bd
00000070: 3645 7fbd 26ce 9ebd 55cd 9fbd 3d32 a83d
00000080: 07e9 263d 4322 3ebd f502 c93d f471 95bd
00000090: e3d3 3dbd b1bf 243d ac03 b6bd 38f3 153e
000000a0: 07dd 423d 2416 cebc b6d1 d2bd 8f3d d33d
000000b0: 8805 64bd 54ee 74bd 7092 1e3e 9c1a 39bd
000000c0: 3f74 d03d 9ee0 8bbd a055 bebd 321c 85bd
000000d0: c0ce 2cbe 3607 a23d 72d5 413c 64a1 bbbc
000000e0: b1c9 e8bd 14ae 863d a306 a33d f2ac 933d
000000f0: ab52 19bd eb2b f83c 5995 ad3d 9761 40bd
00000100: f490 a73b 63ee 483d e691 bbbc 739a 5cbd
00000110: 806c 233d c706 973b 14c6 a2bd aa8c a5bc
00000120: 4fa8 8d3d fb85 e43d ac2b 07bd 24e7 803d
00000130: 13fa dd3d 251e 8f3d b770 5b3d 3b16 00be
00000140: d303 b8bd bbba 99bd 8239 f93d 4d97 88bc
00000150: 4d25 11be a67c 08be b6e6 e9bd 387c ddbd
00000160: 8c77 b1bd 62a6 a2bd 46da 813d cbc9 a5bd
00000170: 8045 9d3d aa40 18bd c23f f3bd bf1c 8dbd
00000180: 6c88 86bd 245a dfbd 6bf4 e8bd 8df7 d7ba
00000190: 6294 ddbd 6ca7 3bbd f893 06bd eed6 8ebd
000001a0: f435 52bc 326d f8bd 6cb5 58bd c0df ce3d
000001b0: 0cda a63d af13 e3ba 6c6d 0e3d cd6a a73d
000001c0: e2f4 e93d c2fd b5bd b158 5a3a 41d9 68bd
000001d0: 6d83 dbbd b461 b53d 8b5a 903d 8917 edbc
000001e0: 3ac2 bf3d da31 d63c 7ce5 543d b9aa 273d
000001f0: 84fd 3f3d e68e c23b 7bc0 553d e8b3 cb3d
00000200: 5dfc 223f 3257 683c 3b59 8bbd e0ad 1bbf
00000210: ffa5 c2bb 17be b3bd e5ab 18bc c089 debe
00000220: d65d 843c 91e3 483f 5ec6 a1bb fb94 383e
00000230: 6eb9 b4bf 8970 05bd 2de5 993d 5a4d 0ebf
00000240: fe1f 31be a7ad 96bf f12b 1b3b f0b1 1abf
00000250: d70d b73d 34e5 4b3d 45ee 5ec0 750a 6bbf
00000260: 005c f83e 7ef2 bdbe 9d6a be3e 4585 373e
00000270: 8317 0a3d 4c5c b43e f985 2b3e 7d67 ecbf
00000280: 1489 1ebf c322 8bbe 0d07 cfbe 9b2c 2d3f
00000290: 0f61 b2bd e37f a8be f99f f23e 0548 773f
000002a0: 2914 6e3f db1e 94bf de94 393e 0a2d 933f
000002b0: dd4d 60bc 7c74 de3e 97f0 9a3e dbab 10bf
000002c0: 870e 893e b806 f83e b9c0 973e f315 383f
000002d0: 8ff2 2dbf c4ba 253f 48e5 febe 131a 0d3d
000002e0: 4044 133f 2a87 dd3e 5ac6 7f3d 15ce cc3e
000002f0: 7370 d6bc d9ee b6be 0b36 843f e84a 84bf
00000300: e701 46bd eb00 2cbe bc49 da3e 6cce cb3e
00000310: 5522 463e faa8 d03c d495 943e 6d2a e33e
00000320: b380 94bd cdb8 41bf 67bc babd 3e26 89bc
00000330: 1613 b2be 613b 533d 33a1 9a3e 6111 423f
00000340: 5504 853e dc1f 9b3e 6ca6 aebd 5244 b53c
00000350: 9926 043f ff40 fe38 05b6 62be 5690 57be
00000360: 76d8 55bf 52ba 553e 35e0 48bd ebed 853c
00000370: a1e6 b03e 4b08 a43c 4b26 10be 4b05 e53e
00000380: 526d f6bf c823 b63e b8ca 063e 7684 473f
00000390: 1a1e 7dbf fdc1 d93d b273 82bf 3dba d2be
000003a0: e41d 063e f269 7bbf 018d 103f fbe7 48bd
000003b0: 99b7 fc3d 4093 f8bd f249 693e 2bf8 0e3f
000003c0: 3686 21be 2be2 6bbb 54e3 2d3e 5657 303e
000003d0: fca0 67be 2b4e 7cbf 3b51 803d 941d da3e
000003e0: 7d39 303f 448d 5d3e e93a 99be a5ae c5be
000003f0: 0781 84be c00b ed3e 2410 99bf cffb 2c3e
0.052653488 0.041985307 7.511664e-05 0.049331885 -0.02428315 -0.060227312 0.06569201 -0.0571348
-0.025916131 -0.078900196 0.085077435 0.06680433 -0.04550427 0.10761902 0.078397214 0.002175289
-0.1121025 -0.118525006 0.017712027 0.018065138 -0.11617757 0.09430113 0.007549519 0.0067196246
-0.13814862 -0.11553598 0.056301273 -0.06260045 -0.062321864 -0.077541634 -0.07802836 0.08212707
0.040749576 -0.046419393 0.09815017 -0.072971255 -0.04634465 0.040221874 -0.08887419 0.14643562
0.04757407 -0.025157042 -0.102939054 0.10314476 -0.055669338 -0.0597976 0.15485549 -0.045191392
0.10178422 -0.06829952 -0.092936754 -0.064995185 -0.16875744 0.079115316 0.0118306745 -0.022904105
-0.113665946 0.065761715 0.0796025 0.07210721 -0.037432354 0.03029438 0.084757514 -0.04696807
0.0051137153 0.04905547 -0.022896718 -0.05385823 0.039898396 0.004608962 -0.07947937 -0.020208675
0.06916868 0.11158367 -0.033000633 0.062940866 0.108387135 0.069881715 0.05357429 -0.1250848
-0.089851044 -0.07506319 0.12169172 -0.016673708 -0.14174385 -0.133288 -0.11420958 -0.108147085
-0.0866538 -0.07941891 0.063404605 -0.080951296 0.07679272 -0.037171043 -0.11877395 -0.068902485
-0.06568989 -0.10905865 -0.11374744 -0.0016476974 -0.108193174 -0.045813963 -0.032855958 -0.06974588
-0.012830246 -0.12130202 -0.052907392 0.10101271 0.08147058 -0.0017324592 0.03477232 0.081746675
0.11423661 -0.08886291 0.0008329256 -0.056847814 -0.10718427 0.08856526 0.0704852 -0.028941886
0.09363218 0.026146818 0.051976666 0.0409343 0.04687263 0.005937445 0.052185517 0.09946424
0.63666326 0.014180945 -0.06804129 -0.6081219 -0.0059401984 -0.08776491 -0.009318327 -0.4346447
0.016158026 0.7847224 -0.0049369773 0.18025582 -1.4119089 -0.032578025 0.07514415 -0.5558678
-0.1729736 -1.1771744 0.0023677314 -0.6042776 0.089381866 0.049779132 -3.4832928 -0.9181283
0.4850769 -0.3709907 0.37190714 0.17921932 0.03371383 0.35226667 0.16750325 -1.8469082
-0.61927915 -0.2717496 -0.40435067 0.6764619 -0.08709919 -0.3291007 0.47387674 0.9659427
0.9299951 -1.1571916 0.18123195 1.149812 -0.013690439 0.43448246 0.3026168 -0.5651223
0.26768896 0.48442626 0.29639223 0.7190849 -0.6794824 0.64738107 -0.49784303 0.034448694
0.57526016 0.43267184 0.062445022 0.40000978 -0.026176667 -0.357291 1.0328993 -1.033536
-0.048341658 -0.16797225 0.4263438 0.39805925 0.19349034 0.0254712 0.2902056 0.44368306
-0.0725111 -0.7567261 -0.09117966 -0.016741868 -0.34780186 0.0515703 0.3020111 0.7580777
0.25979868 0.30297744 -0.08527836 0.022127304 0.51621395 0.0001212377 -0.22139747 -0.21051154
-0.8353342 0.20871857 -0.049041945 0.0163488 0.34550956 0.020023486 -0.14077108 0.447306
-1.9252112 0.35574174 0.13163269 0.77936494 -0.98874056 0.106327035 -1.0191557 -0.41157714
0.1309734 -0.98208535 0.56465155 -0.04904936 0.12339706 -0.12137461 0.22782114 0.55847424
-0.15773854 -0.003599296 0.1698125 0.17220816 -0.22620004 -0.98556775 0.062654935 0.4260069
0.6883772 0.2163592 -0.29927757 -0.38609806 -0.2587969 0.46298027 -1.1958051 0.16892932

fcs.2.bias f4 [16]
00000000: 7fba d4bd 5f08 f6bd cd0d e73e de0c b83f
00000010: 1a50 08be 7c79 d8bd 9043 983f f63c cdbe
00000020: 44f5 f4bd 1e24 793c 3811 8c3f cb94 9c3f
00000030: 13fd a33f c6b7 883f da75 08bf 627d 9a3d
-0.10387134 -0.120133154 0.45127717 1.4378927 -0.13311806 -0.10570046 1.1895618 -0.40085572
-0.11960843 0.015206365 1.0942755 1.2232908 1.2811607 1.0681083 -0.5330483 0.07543446

fcs.3.weight f4 [4, 16]
00000000: b117 ccbd 683e 7ebc 838f 5b3c 353e 183f
00000010: d3cc 73be 17f5 99bd 483b 8f3e 76e7 3bbd
00000020: 114a e0bd a885 833f fa72 943e 217a f33e
00000030: 4ce8 e73e 562b ed3e e0e0 4fbe fb75 82bd
00000040: 160e acbd c6ae 66bc 7049 3a3d f958 703e
00000050: 0937 63bd 4fa3 cd3d 15be d43e 25b6 0cbd
00000060: cd10 8b3d ba31 613f 91ca ca3e 44d1 0a3f
00000070: cd3c 183f 31a7 0b3f 09d7 22be 5a6f 3dbe
00000080: 4641 98bd 2936 02bb 24ec ac3d d2c9 1e3f
00000090: a134 8fbd b88f 0c3d ef40 f73e 43dd 663d
000000a0: 1a3a 60be 92af 18bf 1753 c63e 762d 373e
000000b0: aeef fb3e 8263 ae3e 2fa1 46be 327a 71bf
000000c0: 6587 a03d 7489 04be da4a 163e 3436 0a3f
000000d0: 2cd6 233e c37a df3c 7cab d33e b318 16be
000000e0: fe3d 633e 9023 523f f757 0b3f 35ff 0f3f
000000f0: 264d c23e 86df 183e 9303 c4bd 033d 74be
-0.09965456 -0.0155178085 0.013400915 0.5946992 -0.23808603 -0.0751745 0.27974916 -0.045875035
-0.10951627 1.0275164 0.2899397 0.47554114 0.45294416 0.46322125 -0.20300627 -0.06370159
-0.08401124 -0.014079755 0.04548019 0.2347144 -0.055472407 0.10040914 0.4155127 -0.034353394
0.06790314 0.879665 0.3960767 0.54225564 0.59467775 0.5455199 -0.15902342 -0.18499509
-0.07434325 -0.0019868708 0.08443478 0.62026703 -0.0699246 0.03431675 0.48291728 0.056363355
-0.21897164 -0.596429 0.38735268 0.17888436 0.492063 0.34060293 -0.19397424 -0.9432708
0.078383245 -0.12943059 0.14676991 0.5398896 0.15999669 0.027280217 0.4134177 -0.1465786
0.22191617 0.82085514 0.544311 0.5624879 0.37949485 0.14929017 -0.09570994 -0.23851399

fcs.3.bias f4 [4]
00000000: e81c 863f a7c7 4f3f 48ea 513f 2d3d 8f3f
1.0477571 0.8116402 0.8199811 1.1190544
