trained_agents/cem/CEM-11.6.pth (torch_old, 3471 bytes, 4 tensors)

fc1.weight f4 [16, 37]
000000 e4 fa 9e bf 6e 9e b2 3e 7d 4f 0f c0 2b f8 de bf
       -1.2420316 0.34886497 -2.2392266 -1.7419485
000010 7f 29 bd bf b1 c6 23 40 dd de 4e c0 31 f1 27 bf
       -1.4778289 2.5590022 -3.2323525 -0.65602404
000020 7f a0 70 40 cd 3c 47 c0 99 50 01 40 00 6a 49 c0
       3.759796 -3.113086 2.0205443 -3.1470947
000030 b4 80 1a c0 27 68 75 40 1e cc 86 bf 2d df b6 3f
       -2.4141054 3.834482 -1.0531042 1.4286858
000040 a3 dd fb 3e 9c d9 50 be 44 29 39 3f af a4 5d c0
       0.49192533 -0.20395511 0.7232859 -3.4631765
000050 34 d6 ca 3e c9 50 d7 3e 27 da 51 c0 20 6c a7 c0
       0.3961655 0.42053822 -3.27894 -5.231949
000060 45 9f be bf 6e f4 d8 40 d7 58 9e c0 10 66 42 40
       -1.4892355 6.7798376 -4.9483447 3.0374794
000070 b5 8d 59 c0 ba b6 82 c0 3e 0f 96 c0 e6 77 e8 3f
       -3.399274 -4.0848055 -4.6893606 1.816159
000080 6c a9 02 c0 d9 4d e3 3f 59 6e 29 40 47 cf 85 40
       -2.0415907 1.7758132 2.64736 4.1815524
000090 9b 68 94 c0 20 1e bf 3e 95 21 b4 bf 00 3b b3 40
       -4.637769 0.3732767 -1.4072748 5.600952
0000a0 6f 89 ce bf 75 bb b5 c0 dd 8d b1 c0 e6 9e 8a bf
       -1.6135691 -5.679133 -5.5485673 -1.0829742
0000b0 3c 50 7a c0 79 05 04 40 7d 91 d2 3f 6c b2 94 40
       -3.911147 2.062834 1.645065 4.64678
0000c0 cb 2e 19 c0 73 26 36 c0 9c 08 69 3f f5 3a 88 40
       -2.393481 -2.8460968 0.9102876 4.257197
0000d0 1a 76 b9 bf 79 31 c9 3f bc d5 23 3f 79 48 d8 3e
       -1.4489167 1.5718223 0.6399801 0.42242792
0000e0 b6 33 a0 c0 4e 3b ac 3e 8e da d5 3d ec 6f bd 40
       -5.0063124 0.33638996 0.104420766 5.9199123
0000f0 de c9 ad 40 ef a0 f1 c0 1d 1b 0b c0 b4 90 24 3f
       5.430892 -7.550895 -2.1735299 0.642833
000100 d0 06 06 bf 3c 70 24 be 0f f0 63 3e 74 bd b8 c0
       -0.52354145 -0.16058439 0.22259544 -5.7731266
000110 36 cd a1 bf bd c4 8c 40 6f 22 38 c0 5a 46 78 40
       -1.264075 4.399016 -2.8771017 3.879294
000120 2a 8a 9d c0 ad 05 1b c0 a2 dd d1 3e 89 af 38 40
       -4.9231157 -2.4222214 0.40989405 2.8857138
000130 85 e9 58 3f 42 6d 85 40 63 9c c5 c0 12 67 2b 40
       0.8473132 4.169587 -6.17534 2.678166
000140 d1 24 11 40 df f5 c7 3e a2 cb 8b c0 84 27 f4 bf
       2.267872 0.39054772 -4.3686075 -1.9074559
000150 a3 64 9e 3e d0 86 e4 bf 21 88 de c0 c1 24 81 40
       0.30936155 -1.7853642 -6.9541173 4.0357366
000160 e1 dc 6e c0 8d 54 7f c0 5a 90 a9 c0 63 9b 89 bf
       -3.7322314 -3.9895356 -5.298871 -1.0750545
000170 79 bd 8a c0 61 00 68 3e 57 57 91 be 4c 5b 39 c0
       -4.335629 0.22656395 -0.28386948 -2.8961973
000180 02 e0 46 40 22 a3 de 3f b0 90 2c c0 20 c0 51 40
       3.1074224 1.7393534 -2.696331 3.2773514
000190 97 95 62 bf 9e ad d1 bf 41 3c 41 3e 9b 58 88 3f
       -0.88509506 -1.6381109 0.18870641 1.065204
0001a0 d0 3c 0f 40 9f 14 95 bf 90 8a 1e c1 3a ad 96 c0
       2.2380867 -1.1646918 -9.908829 -4.708646
0001b0 b3 e9 c1 3f 14 2c b7 bf d0 8c 95 c0 45 fb 41 c0
       1.5149444 -1.4310327 -4.673439 -3.0309613
0001c0 06 f3 8c 40 b3 bb aa 3f 3c 42 ff bf b9 28 0b bf
       4.404666 1.3338531 -1.9942088 -0.5435901
0001d0 4a d6 90 40 09 7a 69 c0 73 73 59 3f a0 c2 b2 be
       4.5261583 -3.6480734 0.84941787 -0.34914112
0001e0 29 e8 86 40 0f c5 bb ba 4a 01 4d 40 c8 3d 79 c0
       4.21584 -0.0014325696 3.2032037 -3.8943958
0001f0 85 ab a2 c0 06 1f 0c 40 f2 85 b7 3e e9 3b 87 be
       -5.0834374 2.1893935 0.3584438 -0.26412895
000200 73 c0 30 bf 6e 91 3b c0 e6 59 df bf e9 ae e2 bf
       -0.69043654 -2.9307513 -1.744931 -1.7709628
000210 c7 d5 9a bf ce 25 77 bf e3 f4 6d c0 aa d7 ad c0
       -1.209649 -0.9654206 -3.7180717 -5.432576
000220 f5 9b b5 3e 81 e7 31 40 90 e9 9f be 99 61 90 40
       0.35470548 2.7797549 -0.31232882 4.511914
000230 0f d8 3f 40 a1 e6 eb bf a4 17 05 40 ea 77 00 bf
       2.9975622 -1.8429757 2.079568 -0.50182974
000240 3e 24 00 41 d7 5d 0f c0 3a 19 d6 3f 26 6a d0 c0
       8.008848 -2.2401025 1.6726449 -6.5129576
000250 19 25 92 c0 f1 38 08 40 3f e3 cd 40 b2 61 15 c0
       -4.5670285 2.1284754 6.43399 -2.3340878
000260 11 55 5b bf c2 f4 89 c0 8e b4 dc bf 82 29 91 3f
       -0.85676676 -4.3111277 -1.7242601 1.1340792
000270 9d 28 05 40 a9 d5 17 40 94 ab 1b c0 8e 93 36 c0
       2.0806038 2.3724158 -2.4323473 -2.852756
000280 bf d1 50 c0 36 6b 90 c0 d0 b2 b9 3f 7d d6 fc bf
       -3.262802 -4.5130873 1.4507694 -1.9752957
000290 c7 e7 d8 3f 8f 3c 44 c0 30 28 1d 3f 7e 96 53 3f
       1.6945733 -3.0661962 0.61389446 0.8265151
0002a0 92 d0 a7 3f 77 de d5 3f 96 b5 07 c0 05 c7 db bf
       1.3110526 1.6708516 -2.1204581 -1.7170111
0002b0 fe eb 21 bf 66 6e f0 bf b9 93 51 c0 56 1b 36 3e
       -0.6325072 -1.8783691 -3.2746413 0.17783865
0002c0 0a c7 32 40 57 f7 fa 3f 5d a5 36 40 f4 5d 36 c0
       2.7933984 1.9606732 2.853843 -2.8494844
0002d0 4a 77 c2 bf 62 eb 00 c0 02 03 75 bf c5 df 60 40
       -1.5192654 -2.0143666 -0.95707715 3.5136578
0002e0 36 60 50 40 64 04 9f c0 aa 80 67 c0 0c 36 6f c0
       3.2558722 -4.969286 -3.617228 -3.7376738
0002f0 bd 13 02 c0 33 16 b4 3f d0 3a c5 40 7d d7 91 c0
       -2.0324547 1.4069275 6.1634293 -4.5575547
000300 07 38 1d 40 4f 29 0f 3f d3 29 03 40 98 4f 23 3f
       2.4565446 0.55922407 2.0494277 0.63793325
000310 e9 75 a2 bf b1 41 21 bf 69 2c 0b bf fd d5 6c 3f
       -1.2692233 -0.6299086 -0.5436464 0.9251402
000320 3e a5 57 bf d0 38 32 3f db 1c b0 bf 64 ba 12 c0
       -0.84236515 0.6961794 -1.3758806 -2.2926264
000330 f5 dd 86 c0 69 c9 9c 40 0e 9e 84 40 97 ad 5d bf
       -4.2145944 4.899586 4.144294 -0.86593
000340 23 fc 39 c0 97 53 23 bf 9f f6 23 3e 90 9e 77 40
       -2.9060142 -0.6379942 0.16012047 3.869053
000350 df f2 97 bf 17 15 17 40 c1 82 c4 40 ff 0e 10 3f
       -1.1870993 2.3606622 6.140961 0.5627288
000360 7b 09 c1 3f 79 5d 9e c0 74 e3 10 3f ae ae 88 bf
       1.5081018 -4.94891 0.56597066 -1.0678308
000370 f8 95 d9 bf 06 83 b7 3f 86 c0 50 40 f0 13 11 3e
       -1.6998892 1.433686 3.2617507 0.14167762
000380 0a c8 c3 c0 98 f1 b1 bf 8b 58 9b 3f 17 e6 20 41
       -6.118169 -1.3901854 1.2136396 10.056174
000390 bd 93 08 c0 e2 90 0a c0 b1 b4 ae 3f e9 5b b9 bf
       -2.1340172 -2.165093 1.3648893 -1.4481174
0003a0 0d 5c cb 3f 90 db f0 3f 56 cd 05 40 ca 7d 47 40
       1.5887467 1.8817005 2.0906577 3.1170526
0003b0 f8 ef b4 3d 26 1c 23 3f 65 d1 08 c0 2f 2f 03 c0
       0.08834833 0.63714826 -2.1377804 -2.0497549
0003c0 4d 35 a4 c0 7e 3c 6d 3f f2 6b 47 c0 1b f3 d6 3f
       -5.1315064 0.9267043 -3.1159635 1.679294
0003d0 aa 2d 9b bf 43 88 c6 bf 94 86 bb 40 b9 d6 0c bb
       -1.212331 -1.5510334 5.860178 -0.002149029
0003e0 6f bf 88 bf 3d a2 3c c0 10 06 4c 40 bb 84 bd 40
       -1.0683421 -2.9474022 3.18787 5.9224524
0003f0 33 d7 96 40 f6 83 6f bf 38 b8 b3 c0 8c 00 06 c0
       4.7137694 -0.9356073 -5.6162376 -2.0937834

fc1.bias f4 [16]
000000 84 d0 01 40 96 48 22 c0 4a 10 97 bf ce a3 0a 40
       2.0283518 -2.5356803 -1.1801846 2.1662478
000010 9c fd 92 3f a6 cc 00 40 54 51 d6 be e6 11 87 c0
       1.1483645 2.0124907 -0.41858923 -4.220935
000020 b5 45 5a c0 33 7c 5a 40 4f cd d1 bf 9d a5 35 bf
       -3.4105046 3.4138305 -1.639078 -0.7095583
000030 67 e9 08 40 80 e9 64 bf e4 c9 7d 3e a4 c9 16 3e
       2.1392457 -0.8941879 0.24784046 0.14725357

fc2.weight f4 [4, 16]
000000 4a 1d 12 c0 f9 07 7f 3f bc 45 ea 3f 52 cf a6 3f
       -2.2830377 0.9962154 1.8302531 1.3032019
000010 e2 6d 06 c0 22 2a 19 40 19 3a 8c 40 cd b2 b9 c0
       -2.1004567 2.3931966 4.382092 -5.8030763
000020 bf 21 80 c0 9e 41 b6 3f 17 0b f1 40 08 c7 84 40
       -4.0041194 1.4238775 7.5326037 4.149296
000030 a7 e3 8b c0 b5 df a5 40 69 e0 22 c0 91 c9 bd 3f
       -4.3715396 5.183558 -2.544947 1.4827138
000040 c2 2c 4b c0 0b 4c 95 be 01 b4 d8 3e 8a 71 cb 40
       -3.1746068 -0.2915958 0.42324832 6.3576097
000050 8e ff f3 bf fb ac b0 c0 e3 98 9e bf 8d 6a da bf
       -1.9062364 -5.521116 -1.2390407 -1.7063767
000060 56 b5 34 3f ef ce cd 3f bb d9 02 40 ee f3 00 c0
       0.70589197 1.6078776 2.0445392 -2.0148883
000070 a2 ef bf c0 49 d8 b5 c0 4d dd ac c0 aa 06 04 40
       -5.998002 -5.682652 -5.4020143 2.0629067
000080 91 81 9c c0 4c ac 50 be 69 58 1b c0 5a 5a 9b c0
       -4.890816 -0.20378226 -2.4272711 -4.8547792
000090 f1 4b ee 40 59 04 10 c0 dd 36 64 3f 49 2e 1f 3e
       7.44677 -2.2502654 0.89146215 0.15545
0000a0 86 1d 03 40 e9 15 8e bf 0c f2 a4 be b7 56 04 40
       2.048677 -1.1100436 -0.32215917 2.0677927
0000b0 63 2f 17 40 b4 38 8f bf 61 e4 92 40 20 06 e8 3f
       2.3622673 -1.118918 4.5903783 1.8126869
0000c0 1b 47 47 40 87 30 bf 40 ff e6 31 c0 3d b8 35 c0
       3.113715 5.9746737 -2.779724 -2.83937
0000d0 b0 db b1 3f 7e 7b db 3f e1 21 b7 bf df 21 99 c0
       1.3895168 1.7147062 -1.4307214 -4.7853847
0000e0 7f 25 dd 3f 6f c0 89 3f f1 a6 82 3f 41 dc de c0
       1.7277068 1.0761851 1.0207196 -6.9643865
0000f0 0c 34 eb 3f 57 86 91 bf 82 0c 0c 40 cf 4f e3 c0
       1.8375258 -1.1369122 2.1882634 -7.1034923

fc2.bias f4 [4]
000000 54 f4 b9 be 7d 4f cb 40 39 c3 11 c0 c9 57 35 be
       -0.3631922 6.353453 -2.2775404 -0.17709269
