trained_agents/cem/CEM-12.15.pth (torch_old, 3483 bytes, 4 tensors)

fc1.weight f4 [16, 37]
000000 3a 32 02 40 af 53 0e c0 af c9 e8 be 98 76 b2 3f
       2.0343156 -2.2238576 -0.45466372 1.3942442
000010 fb 66 58 bf 74 cd 7c c0 0d bd 03 40 fa 12 bc 40
       -0.84532136 -3.9500399 2.0584137 5.8773165
000020 c7 dd 0e c0 f7 eb 0b 41 8f 60 c8 3f eb 28 34 40
       -2.2322862 8.745109 1.5654467 2.8149974
000030 ce 38 11 c0 a3 fc 2c c0 26 34 98 bd b6 a7 49 40
       -2.269092 -2.7029197 -0.074318215 3.1508613
000040 9e 53 cc 40 ec 15 8c c0 49 29 e7 be 26 9f 74 3e
       6.385207 -4.377676 -0.45148686 0.23888835
000050 2e 30 05 be ab a4 6e 3f fc 49 34 c0 e2 dd ed c0
       -0.1300666 0.93220013 -2.8170156 -7.4333353
000060 50 c9 64 40 82 f3 45 c0 11 24 86 40 8d d4 e4 bf
       3.5747871 -3.0929875 4.1919026 -1.7877365
000070 d6 22 0b c0 5a fb 0d bd e8 82 53 40 65 4d 35 40
       -2.1740012 -0.034663536 3.304865 2.8328488
000080 69 6e bc 3f ab ef 9e be a3 5d cc 40 09 03 2d 40
       1.4721195 -0.31042227 6.3864303 2.7033103
000090 01 72 b2 40 e4 3a 9d 40 0a de 3f bf 40 07 b2 c0
       5.5764165 4.913439 -0.7494818 -5.563385
0000a0 17 ac 08 c1 75 06 bb 3e 74 a5 12 c0 4f f2 b9 40
       -8.542014 0.36528364 -2.2913485 5.8108287
0000b0 2a 79 29 40 10 71 d2 bf 17 2a f7 40 9f 00 fa bf
       2.6480203 -1.6440754 7.723888 -1.953144
0000c0 70 cf 1e 40 19 ba 88 c0 46 d4 34 c0 9f b9 02 3f
       2.481411 -4.272717 -2.8254561 0.51064485
0000d0 80 be a4 c0 85 57 8f 3f 53 a9 83 3f a2 5c e9 40
       -5.1482544 1.1198584 1.0286049 7.2925577
0000e0 c1 1d 17 bf e9 de d8 3f 53 62 c5 40 90 6f d5 3f
       -0.59029776 1.6943027 6.1682525 1.6674671
0000f0 04 e4 41 c0 26 98 fb c0 c5 67 00 c0 2d 90 56 40
       -3.029542 -7.862323 -2.0063336 3.3525498
000100 c7 6e e0 be 09 01 37 3f ff 67 d3 c0 f6 f7 07 40
       -0.43834516 0.71485955 -6.606445 2.1245093
000110 58 51 33 c0 20 88 c8 3f 24 4a 13 c0 c2 e3 ed c0
       -2.8018398 1.5666542 -2.3014002 -7.4340525
000120 a1 f0 04 bf ae 25 99 c0 49 08 d3 be 51 87 98 40
       -0.5192967 -4.7858496 -0.4121726 4.766518
000130 cc f2 2e 3f 45 11 0a c0 af 04 94 c0 ba 87 4f c0
       0.6833923 -2.157304 -4.6255717 -3.242659
000140 e7 31 42 3d 25 eb 01 c0 ff fa 95 bf ec dc 2d c0
       0.04741087 -2.029977 -1.1717223 -2.716609
000150 f0 24 93 c0 91 e1 b8 bf 67 d6 2e bf 88 67 5d bf
       -4.598259 -1.4443837 -0.682959 -0.864861
000160 55 83 2b 40 79 ad 43 c0 20 28 d2 c0 fa 92 67 40
       2.6798909 -3.057463 -6.567398 3.6183457
000170 94 03 a1 c0 e3 77 70 40 c2 34 50 c0 e1 3d 92 bf
       -5.031687 3.7573173 -3.25322 -1.1425134
000180 a2 28 78 40 f0 0b 02 c1 54 8e 3a 40 df 31 ef 3f
       3.87748 -8.127914 2.914937 1.8687094
000190 e7 05 2d 40 26 47 03 be ba 5d 9c bf 76 60 4c 3f
       2.7034853 -0.1282011 -1.2216103 0.7983469
0001a0 bb 97 46 3e 44 02 c9 40 dc cb a1 3f 2f 42 a2 bf
       0.19393818 6.2815266 1.2640338 -1.2676448
0001b0 7f da 44 c0 3a 9f ea bf b5 b8 5e 40 df ed e7 be
       -3.075836 -1.8329842 3.4800236 -0.4529867
0001c0 c6 b0 2b c0 92 47 33 c0 1f 7d fd 3e 2e 73 12 c0
       -2.6826644 -2.8012433 0.49509522 -2.28828
0001d0 d1 19 40 40 cc bd e4 be 69 31 22 c0 dd d8 39 c0
       3.0015757 -0.44676054 -2.5342658 -2.9038613
0001e0 67 29 1d bf a9 df f3 be 1e 13 df 3e 24 8a 80 c0
       -0.613913 -0.47631577 0.43569273 -4.016863
0001f0 59 d6 e6 bf 74 a8 77 3e ad 38 21 c0 ea 0f 99 40
       -1.8034164 0.24185354 -2.5190842 4.7831926
000200 a8 ea 58 bf 1c 23 b7 40 8e 9b 11 40 5e 52 a8 c0
       -0.8473306 5.723036 2.2751193 -5.2600546
000210 00 c9 bd c0 06 d5 8b 40 9c f2 b9 c0 75 78 c5 bf
       -5.930786 4.369754 -5.8108654 -1.5427386
000220 92 66 76 40 aa 18 15 c0 4a e5 79 bf 33 b2 16 c0
       3.8500104 -2.3296304 -0.9761549 -2.3546264
000230 e8 c2 a8 40 cb a2 8d be c6 bf 8c 40 8a 33 96 bf
       5.2737923 -0.27663264 4.39841 -1.1734478
000240 22 2f 22 40 a7 7c 0f c0 50 2b 08 be dc 76 b2 be
       2.5341268 -2.2419832 -0.13297772 -0.34856308
000250 65 25 4e 40 51 d3 54 40 f1 42 ef 3d 03 ac f7 be
       3.2210324 3.3253977 0.1168269 -0.48373422
000260 87 7b 49 c0 c5 3c 59 41 ec bc 90 40 1f e9 82 bf
       -3.1481645 13.577336 4.5230618 -1.0227393
000270 62 7f 20 40 8e af 24 3e 7a 6e b7 3f d1 7f a6 bf
       2.5077748 0.16082594 1.433059 -1.3007756
000280 2e 4c 3d be 4b 9b 11 40 ba 0c b0 3f 8f f5 d0 c0
       -0.18486091 2.2751033 1.3753884 -6.5299754
000290 fc b1 13 c0 5b 85 62 3f e2 09 58 3f d0 48 9a 3f
       -2.3077383 0.88484734 0.8439008 1.2053471
0002a0 6d b0 8d bf da 62 56 3d f9 43 70 3e db 2b 70 bf
       -1.1069466 0.052340366 0.2346343 -0.9381692
0002b0 b6 42 24 40 30 76 6d c0 49 91 32 c0 f4 30 a2 3b
       2.5665717 -3.7103386 -2.7901175 0.0049496833
0002c0 8b 0e 04 c0 c3 a5 09 41 fb 8c 06 c0 40 78 98 3f
       -2.0633876 8.602969 -2.1023548 1.1911697
0002d0 8c 7a 3c c0 98 9d 96 bf 42 9d 66 c0 36 b8 60 3f
       -2.9449797 -1.1766844 -3.6033483 0.87781084
0002e0 ad 76 82 3e 12 0c 7f 3f 9c da 0e 40 5a 2d 63 40
       0.25481167 0.9962779 2.2320929 3.549643
0002f0 df 46 0b 40 74 ff a8 3d 4c e8 b3 bf 27 61 ea 40
       2.1762006 0.08251849 -1.4055266 7.3243594
000300 68 d9 a4 40 a8 7c fd 40 aa 8d 64 40 84 70 e6 bf
       5.151539 7.921467 3.5711465 -1.8003087
000310 10 aa ab bf 16 c1 1a bf 25 53 91 bf 61 1b 15 c0
       -1.3411274 -0.60450876 -1.1353499 -2.329796
000320 a8 b8 5d 3f a5 e8 71 c0 88 23 fd bf 49 7d 9c bf
       0.8660989 -3.7798245 -1.9776468 -1.2225734
000330 8f d9 5a 40 81 8a 25 bc 72 83 8e bf 1a c9 af 40
       3.4195287 -0.010103823 -1.1133864 5.4932985
000340 3e a4 14 c0 24 ce 8f c0 07 26 38 bc 4a c7 99 bf
       -2.3225245 -4.4939137 -0.011239535 -1.2013943
000350 cf 78 21 40 96 c5 1f c0 2e 2f 52 40 9f f4 1b bf
       2.5229986 -2.4964347 3.2841296 -0.6092014
000360 1d 55 12 40 02 0a 9f 40 cd dd e4 3f 80 07 97 3f
       2.286445 4.9699717 1.7880188 1.1799164
000370 90 74 21 40 88 cb 44 3f 44 c8 5e 40 2d 21 0a c0
       2.5227394 0.76873064 3.4809732 -2.158275
000380 a0 28 ad 40 a2 53 80 40 cc 2f c1 3e 32 8e a1 3f
       5.411209 4.010209 0.3773178 1.262152
000390 f1 fd 0d c0 10 45 b8 3e 33 0c 9e 40 8f 12 d0 40
       -2.2186244 0.3599019 4.938989 6.5022655
0003a0 ef 8f 9a 3f 52 e8 6c 3f 37 76 9d bf d0 61 27 c0
       1.2075175 0.9254199 -1.2301701 -2.615345
0003b0 7f 97 17 40 f1 83 97 3e 4e 67 41 3d 51 28 cd 3f
       2.3686216 0.2959285 0.04721766 1.6027929
0003c0 f2 5c 74 40 d2 03 80 bf 32 6f aa 3f 64 48 e6 bf
       3.818173 -1.0001166 1.3315184 -1.7990842
0003d0 3b ff 86 3e 6b 89 16 40 17 0d 99 bf 7a 0c 1b bf
       0.263666 2.3521373 -1.195712 -0.6056591
0003e0 37 88 09 c0 50 aa bd bf f6 a8 d9 3f 9a fe 28 40
       -2.148939 -1.48176 1.7004688 2.6405396
0003f0 d1 bb 9e 40 52 f2 57 40 33 bb 37 c0 97 40 0a 3f
       4.960427 3.374165 -2.8708007 0.54004806

fc1.bias f4 [16]
000000 31 c3 a9 c0 af 13 83 40 48 e0 e6 3f 09 91 68 40
       -5.305077 4.096153 1.8037195 3.6338522
000010 89 4a 95 40 f6 a5 50 c0 fe 86 9e 40 00 87 22 c0
       4.6653485 -3.2601295 4.9539785 -2.5394897
000020 05 35 e9 3f 55 98 f9 3f 06 65 11 c0 8d ce 4f c0
       1.8219305 1.9499613 -2.271791 -3.2469819
000030 5c ee ac c0 ca 2b ed be 26 49 13 40 0c a0 e8 bf
       -5.4040966 -0.4632247 2.3013396 -1.8173842

fc2.weight f4 [4, 16]
000000 ff 63 96 c0 66 bf da bf 1b bf 64 c0 a1 6c 7e 40
       -4.6997066 -1.708966 -3.5741642 3.9753802
000010 e9 29 ac 40 fb cd 0e bf bd 8f 49 c0 cc 03 c9 bf
       5.380116 -0.5578305 -3.149398 -1.5704284
000020 f4 c7 8f 40 1e d1 00 40 d0 ee be c0 af 67 41 3f
       4.4931583 2.0127635 -5.966652 0.75548834
000030 b0 67 b4 bf c1 55 06 41 6c 6e 40 40 d2 ae 90 bf
       -1.4094143 8.395936 3.0067396 -1.1303351
000040 b3 2d 73 40 95 1d 41 bf 9e 74 e5 3e f1 d5 84 bf
       3.7996643 -0.75435764 0.44815534 -1.037779
000050 d5 81 f5 bc cd 40 bc 40 ef e6 a4 c0 e7 77 be 40
       -0.029969135 5.8829103 -5.15319 5.9521365
000060 d0 9c a9 bf bf 9b 84 40 f7 16 3b c0 e0 83 41 c0
       -1.325098 4.144012 -2.9232767 -3.023674
000070 0a 44 86 c0 0d b0 3f 40 fd ab 51 40 dd 38 6d be
       -4.1958055 2.9951203 3.2761223 -0.23166223
000080 4a a7 50 40 7f 1d 2e c0 40 33 ea 3d 67 0c 7c 40
       3.2602105 -2.7205503 0.114355564 3.938257
000090 c8 6f a4 40 14 dc 16 40 25 65 bf 40 d3 88 c2 bf
       5.138645 2.3571825 5.9810967 -1.5198005
0000a0 9e cf 9b bf f2 69 0c c0 79 0d a0 be 25 34 85 3e
       -1.2172735 -2.1939664 -0.3126028 0.26016346
0000b0 1f de ab c0 a1 7e 15 3f ff 12 83 3f 26 7a 98 40
       -5.3708644 0.58396345 1.0240172 4.7649107
0000c0 cb 97 f9 bf 3d 95 b0 c0 50 74 0c 40 85 7a ca 40
       -1.9499449 -5.5182176 2.1945992 6.327456
0000d0 bc 88 9a c0 f9 8f 71 3f 7e 5f 7e 40 d3 b4 39 c0
       -4.829191 0.9436031 3.9745784 -2.9016616
0000e0 b6 3f fc 3f 70 1e 09 c1 65 0c f5 bf 52 ce 42 40
       1.9706943 -8.569931 -1.9144408 3.0438428
0000f0 45 c6 80 40 3c 36 92 c0 69 c6 be 3f d1 2b c7 bf
       4.024203 -4.5691204 1.49043 -1.5560247

fc2.bias f4 [4]
000000 b6 a4 e7 3f 1d c0 2d 40 28 48 81 c0 c6 23 12 3e
       1.8097141 2.7148507 -4.040058 0.14271459
